matrix/result/0817/save/abs_inverse_det.pt (torch, 42503 bytes, 8 tensors)

weight f4 [32, 2, 3]
000000 06 1b 49 39 56 6b 3a bd f5 69 a9 bd e5 e9 b8 bd
       0.00019178921 -0.04551252 -0.08272163 -0.09028987
000010 8b d0 67 be 15 6a 6e be c6 95 bb 3b 1a fc 19 bc
       -0.22638147 -0.23282655 0.0057246415 -0.009398485
000020 ed 7a 3e bc d3 5e 83 be 88 96 b5 bd 82 b5 a5 be
       -0.0116259875 -0.25658283 -0.08866602 -0.32365042
000030 4b 09 ba bc 08 16 c1 3c e2 3f 97 bd bb d0 58 bf
       -0.02270951 0.023570076 -0.073852316 -0.846935
000040 da 63 9e be 6e 85 3d bf 56 72 af be 34 be 5c 3e
       -0.30935556 -0.7403172 -0.3426692 0.21556932
000050 d2 cb d0 3d db 6b 83 3e 0a 65 16 be ad 06 85 bd
       0.10195126 0.25668225 -0.14686981 -0.06495414
000060 6d 90 ec 3a a4 6e 9f be 70 af 28 bc ba 91 ad be
       0.0018048413 -0.311391 -0.010295734 -0.33900243
000070 cc 84 0c bb 9e c1 44 be 31 99 e4 be fa 25 02 be
       -0.0021441458 -0.19214484 -0.44648126 -0.127098
000080 c7 50 bf be a6 d2 4d 3d 7a fd 48 3e 00 45 09 be
       -0.37366316 0.050249718 0.19627944 -0.13405228
000090 68 61 01 bd ab b9 d2 3b 59 ac 37 bc 1b 81 8b bd
       -0.031587034 0.0064308248 -0.0112105245 -0.06811734
0000a0 f7 01 1c be 90 a2 68 be 9f db af bb 88 9a ba be
       -0.15235125 -0.22718263 -0.005366757 -0.36446023
0000b0 f0 47 8b 3e 85 91 20 3c b3 6e 1d bf 4f 7a eb 3d
       0.2720332 0.00980032 -0.6149704 0.11497938
0000c0 dc 51 1b bf e8 f5 91 bd da 85 bd be bb 81 4c be
       -0.6067178 -0.07126981 -0.37016183 -0.19971363
0000d0 ac 7f 17 3e 59 f3 f1 bd 5c c9 32 3e ed f4 e2 bd
       0.14794797 -0.11813993 0.17459625 -0.11081872
0000e0 5d 7d 97 be 59 58 1c bf ef 97 07 3e 11 79 97 bc
       -0.29587832 -0.6107231 0.13241552 -0.018490346
0000f0 8c 34 1a 38 a1 4b ba bd ad 3e 92 bd dd 68 b8 bc
       3.67654e-05 -0.09096456 -0.07140861 -0.02251094
000100 d7 57 80 bc 5b 3f 81 3c a3 70 92 bc 13 e3 6d 3c
       -0.015666885 0.01577728 -0.017875975 0.014519471
000110 54 85 8d be 52 4b b8 be 1e b3 e7 be 48 e3 81 be
       -0.27640784 -0.35994965 -0.45253843 -0.25368714
000120 aa ed 85 3e 1a 9f 8d be 43 3b ac 3e e7 48 b2 be
       0.26157886 -0.27660447 0.33638963 -0.34821245
000130 6d 2f be 3e 76 2b e3 be 1e 7b a8 3e 20 ca 06 bf
       0.37145558 -0.44369096 0.3290643 -0.5265217
000140 2e 51 a6 be bb 55 80 be 34 b6 d5 be 16 1e b8 3e
       -0.3248381 -0.25065407 -0.41740572 0.35960454
000150 05 88 1d bf c9 fe 0f be 77 df 3f bf bc ca 7e be
       -0.61535674 -0.14062037 -0.74950355 -0.24882025
000160 79 b8 c9 3c 9b ea 95 be 57 fa e6 bd 54 46 1e bf
       0.024624096 -0.29280552 -0.11278217 -0.6182606
000170 47 a4 90 3e cb a6 45 bf fb 42 12 3e 4f b5 60 bd
       0.28250334 -0.7720763 0.14283364 -0.05486041
000180 6a 19 40 be 25 c6 06 be 3e d9 8e 3c 3c 56 08 bd
       -0.18759695 -0.13161524 0.017437574 -0.033285365
000190 22 0d d3 be 3c b6 97 bd c5 e3 1b 3d 7a 6d a9 3d
       -0.41220957 -0.07407805 0.038059015 0.08272834
0001a0 15 ac fe bd 36 17 27 3e 2f 6e 71 be 01 84 d5 be
       -0.12435166 0.16317448 -0.23577188 -0.41702273
0001b0 50 0e 89 be 94 1c 66 be 0c e0 05 bf 07 c1 3a be
       -0.26768732 -0.22471839 -0.52294993 -0.18237697
0001c0 84 ce 86 be 26 c8 c0 3d 0b e8 70 bf 4f 23 6f be
       -0.26329434 0.09413175 -0.9410407 -0.23353313
0001d0 6f 61 d2 be e9 5d 1e bc 5e a3 05 3c fa 3f 92 bd
       -0.4108996 -0.009665945 0.008156626 -0.07141109
0001e0 8a 58 69 3e 64 d9 60 bd 1e a2 29 be e7 17 34 bf
       0.22787681 -0.05489482 -0.16565749 -0.7034897
0001f0 80 fc 04 bf 2a 90 02 3e c3 84 83 bd 80 5c 3f bf
       -0.51947784 0.12750307 -0.06421807 -0.7475052
000200 b2 5b b6 b9 c5 cc 53 3e 82 3f 90 be 01 ca f7 bd
       -0.00034782063 0.20683582 -0.28173453 -0.12099076
000210 6f 6d 43 be 0d 53 c2 3e ff 23 ba be a5 69 b4 be
       -0.19084714 0.37953988 -0.36355588 -0.3523685
000220 48 7b 90 be b6 76 2e 3e 9d 6f 17 be 2e a7 d8 3c
       -0.28219056 0.17037472 -0.14788671 0.026446905
000230 f7 f8 6f be 19 89 04 bf 24 ae 7e be ec 12 43 bf
       -0.23434816 -0.51771694 -0.24871117 -0.7620075
000240 7d 99 3f 3e 07 63 33 bf 89 f0 83 bd 41 3f 10 be
       0.18710895 -0.7007298 -0.06442363 -0.1408663
000250 fd cc be be 32 db c9 bb a3 4c 63 be a5 2a b0 be
       -0.3726577 -0.0061601633 -0.22197203 -0.34407535
000260 ba e3 d8 39 96 52 9e bd 12 57 07 3c 4a 5b 7f be
       0.000413684 -0.07730596 0.008260505 -0.24937168
000270 b4 ca e8 bc 19 54 1b be 5f 36 f9 3c 33 84 5b be
       -0.028416969 -0.151688 0.030421434 -0.21437149
000280 c5 3d 0e bf 83 1b 8c be dd ef e0 3d 34 94 df be
       -0.55563 -0.2736474 0.1098325 -0.43667758
000290 dd 79 47 be 01 34 23 3e 62 46 ec 3b 64 63 ff bd
       -0.19480081 0.15937807 0.0072105387 -0.12470129
0002a0 c4 a6 df 3d 2d cd 0e 3e d0 9e 54 bf 4d 46 ba be
       0.1092048 0.13945456 -0.8305483 -0.3638176
0002b0 3d 44 7d bd 1e ee 73 be 9d 2b 54 3e d7 a0 03 bf
       -0.061832655 -0.23821303 0.20719762 -0.514173
0002c0 b6 b1 1d be 8f 4f 8d be 1e 73 0d bf 64 40 b4 be
       -0.15399823 -0.2759976 -0.5525378 -0.35205376
0002d0 e1 5a 87 bf 2c 28 1a bd 48 6d 65 3e b8 be 4c be
       -1.0574609 -0.037635967 0.22404969 -0.19994628
0002e0 45 ab 4c 3e f1 af 31 bf 4b 07 11 be dc a8 67 3e
       0.19987209 -0.6940909 -0.14162938 0.22623008
0002f0 90 06 3e bf 32 a3 0c bf e4 2c 15 be 20 27 92 3e
       -0.74228764 -0.54936516 -0.14567906 0.28545475

bias f4 [32]
000000 9c b2 be be 72 71 63 be d7 11 42 3e 41 c0 9c bd
       -0.37245643 -0.22211245 0.18952118 -0.07653857
000010 9c 6f 4e be ad a6 4e 3e 52 48 d5 be 81 d6 7a be
       -0.20159763 0.2018077 -0.4165674 -0.24495889
000020 4b 27 8c 3e 0e 0d 6d bf 15 d4 21 bf 94 f8 9f be
       0.27373728 -0.92598045 -0.63214236 -0.31244338
000030 29 4c 87 be 3b 23 ff bd 36 a6 ed 3d 67 5f cd be
       -0.26425293 -0.124578916 0.11603968 -0.4011185
000040 da 40 44 be 6f 62 46 bd 6b 7e b5 be 6f 3f b0 bd
       -0.19165364 -0.048433717 -0.35448012 -0.08605849
000050 a4 3a 07 bf 35 dd 37 3e d9 32 80 3b a5 0c 1c bf
       -0.52823853 0.17955478 0.0039123115 -0.60956794
000060 c5 9b d3 3c 74 ec da be 07 fd 44 bf 2e 81 b1 bd
       0.025831113 -0.42758524 -0.7694859 -0.08667217
000070 03 b3 92 bd ae a8 c4 3e 45 8e f8 be 04 b8 0e bf
       -0.0716305 0.38409942 -0.48546043 -0.55749536

weight f4 [64, 32, 3]
000000 51 c6 99 3d f7 23 e6 bd ec 66 05 bd 68 27 4c 3d
       0.07508529 -0.112373285 -0.032568857 0.04984227
000010 1c 32 01 be bc 8e 64 bc f3 f6 d8 bc 9c 81 10 be
       -0.12616771 -0.013950046 -0.026484942 -0.14111942
000020 77 e3 6d be ba 03 f4 bd b0 fb 24 be d1 07 07 3d
       -0.23231302 -0.11914773 -0.16111636 0.03296644
000030 33 d3 1c bc 52 ab c0 bd 54 17 63 bc 41 f0 a2 bd
       -0.009571838 -0.09407677 -0.013860542 -0.07955981
000040 38 fd 92 bd 68 37 98 bd 83 9c 7d bb e4 8f ab ba
       -0.07177204 -0.07432443 -0.0038698025 -0.0013089147
000050 7e 59 40 bd 9c 72 59 bd 7f de 51 bd 59 d4 25 be
       -0.046960346 -0.053087816 -0.05123758 -0.16194285
000060 53 15 cf bc cf 7f a5 bd b8 20 b5 bd 00 52 ab 3b
       -0.025278723 -0.08081018 -0.08844131 0.005228281
000070 12 a3 eb bd 2b af 8c bd 32 26 ba bc 40 98 ee bc
       -0.115057126 -0.06869348 -0.022723291 -0.029125333
000080 b8 d3 03 bd 12 5b b5 bc ce 85 51 3d 00 5e 84 3c
       -0.032184333 -0.022138152 0.051152997 0.016158104
000090 32 a8 19 bd f8 f5 04 bd e5 d0 ae 3c c9 ba f8 3c
       -0.03751392 -0.032461137 0.021339843 0.030362504
0000a0 13 d0 e2 bd a8 cb c8 3c 14 72 db bd 78 ea df bc
       -0.11074843 0.024511173 -0.10715118 -0.027333483
0000b0 11 11 71 bc b6 ab e4 3c 78 dd 0f 3a 38 f7 4e 3d
       -0.014713542 0.02791391 0.00054880185 0.050528735
0000c0 74 63 2d bd 75 50 40 bd cc 54 b8 3d 15 2e 52 be
       -0.042331174 -0.04695173 0.09000549 -0.20525391
0000d0 a0 8d 6a be 2b dd 8e bd c8 d2 f5 3b 54 79 f3 bc
       -0.22905588 -0.06975778 0.0075019337 -0.02972094
0000e0 88 19 91 3d 3f e7 a8 3c 70 85 3d bd c4 cc 15 bd
       0.07084948 0.02061808 -0.046269834 -0.036572233
0000f0 63 ba cc bd fb 4a 80 bd ff ed 3c 3c cc 00 83 bc
       -0.09996488 -0.062643014 0.011531352 -0.01599159
000100 b1 e0 1c be e8 39 05 3d ec 32 c6 3b 28 75 3e be
       -0.15320088 0.032525927 0.006048551 -0.18599379
000110 87 26 85 bd ec 96 a7 3c 50 7c 9c 3a 6c 5a b2 bd
       -0.06501489 0.020457707 0.0011938903 -0.08708653
000120 e0 f2 b2 3c 73 94 60 bc 61 33 b3 bd 80 04 2d 3d
       0.021844327 -0.013707268 -0.08750034 0.04224062
000130 05 87 9e bd 40 51 3d 3c 71 1f 52 bb b1 2b 6f 3c
       -0.07740597 0.011555016 -0.0032062198 0.014597819
000140 0f 94 90 3d 96 4c 85 3d 9d 17 9f bc 51 65 90 bd
       0.0705949 0.06508748 -0.01942044 -0.070505746
000150 f5 d4 d7 3d 2c cf c8 3c c4 06 8c bd d2 48 c9 bc
       0.10538665 0.02451285 -0.06837228 -0.024570856
000160 64 72 1b bd ea 1f 6b bb 3e 91 d6 3c 56 b9 da bd
       -0.03795089 -0.0035877177 0.026192304 -0.10679881
000170 2a 26 e0 bd 14 09 72 bc 95 f7 e8 bc 7a e9 8e 3d
       -0.10944779 -0.014772672 -0.028438369 0.06978126
000180 2e 67 6c bd 30 92 08 3d 32 72 37 bd 92 58 fb 3b
       -0.057715587 0.03334254 -0.04478664 0.0076704705
000190 f8 08 01 bd e7 33 4d 3d 6d 31 a7 bd 27 bf b0 bd
       -0.031502694 0.050098326 -0.08163724 -0.086302094
0001a0 b7 f7 d1 bc ee 9b a1 bc a5 15 13 be 70 10 07 bd
       -0.025630815 -0.019727673 -0.14363725 -0.03297466
0001b0 95 5e 5c bd 10 b0 71 bd e0 1b b9 3c e7 33 91 3d
       -0.053801138 -0.059005797 0.0225963 0.07089978
0001c0 72 2d 14 be f5 12 a6 bd d6 b1 80 3d e7 27 16 bd
       -0.14470461 -0.081090845 0.062839195 -0.036659148
0001d0 80 73 22 3d ef 1c 90 3c b3 a7 14 bd 7e 8b 2d 3c
       0.03966093 0.017591922 -0.036292743 0.01059234
0001e0 66 98 b3 bc 8a c5 f2 bd 7a 86 82 bd 6f 34 a5 ba
       -0.021923255 -0.11854084 -0.063733056 -0.0012604127
0001f0 4f e1 b5 bd 8f 3e 6d bd 57 e5 22 bd a6 95 5c 3d
       -0.08880865 -0.05792099 -0.039769497 0.053853653
000200 75 2e 86 bc 35 0c 97 bd 5c 47 0f 3d c1 69 3f 3d
       -0.016379574 -0.07375375 0.034980163 0.046731714
000210 34 99 ce 3c df ac 3f bd 27 ae 45 bd 8a 92 7f bd
       0.025219537 -0.046795722 -0.048261788 -0.06239561
000220 e5 45 d1 bd d9 31 0e bd 4f ce 82 3d eb dd 15 be
       -0.102184094 -0.034715507 0.063870065 -0.14635436
000230 fd b5 0c bd b5 97 17 bc d1 97 fc bc 06 db 9a 3d
       -0.034353245 -0.009252478 -0.03083411 0.07561307
000240 39 fe 49 3d 6c 1a 5d 3d d2 db 96 bd b6 50 1d be
       0.04931471 0.053980276 -0.07366146 -0.1536282
000250 e1 7f d8 bd f4 ba fa bd f7 a8 bd 3c 43 d4 53 bd
       -0.10571266 -0.1224269 0.023151858 -0.0517161
000260 2c 63 2f bc a7 23 83 3d 50 cb e9 38 17 2a 8d bc
       -0.010704797 0.064032845 0.00011148176 -0.017231984
000270 c9 34 8e 3d dd 25 2c 3b 8c dd 7c bd 1a a7 5a bd
       0.06943662 0.0026267685 -0.06173472 -0.053382017
000280 21 7e a5 bc f2 26 00 3d 58 83 0a be 3b f4 aa bd
       -0.020201745 0.03128714 -0.13526666 -0.083473645
000290 70 32 fd bd eb d1 62 bd 50 37 58 bd ec 12 3f bd
       -0.12363136 -0.055375975 -0.052787125 -0.046648905
0002a0 1d 06 a2 bd a9 47 9a bd 75 3c 01 3d c4 a1 39 bd
       -0.07911322 -0.07533199 0.031551797 -0.045320287
0002b0 63 b2 d0 bd 38 eb b1 bd 1b 7b a3 bd 4c 45 8a bd
       -0.101902746 -0.086874425 -0.07982465 -0.067514986
0002c0 23 9b 2f bd 1b 09 b5 bc bc a6 f3 bc ae e0 a2 bc
       -0.04287256 -0.022099068 -0.029742591 -0.019882526
0002d0 59 b0 bf bd b0 22 4b bd c7 62 c3 bb 85 30 ba 3d
       -0.093598075 -0.049593627 -0.005962703 0.090912856
0002e0 41 9b 04 bd 9a 6e 7c bd 64 e2 85 bd f8 31 cf bd
       -0.032374624 -0.061628915 -0.06537321 -0.10116953
0002f0 64 4a c7 bc 36 87 05 bd aa 8a 26 be 4d f5 c9 bc
       -0.024327464 -0.03259965 -0.16263834 -0.024653101
000300 f0 62 b4 3b 38 0c 7f bc e9 64 ca bd 90 04 33 3d
       0.0055049583 -0.015566878 -0.09882528 0.043705523
000310 1a b0 73 bd f2 c7 3f 3d ac e8 fd 3c f4 8c 65 3c
       -0.059494115 0.046821542 0.030994736 0.014010657
000320 a1 cb f2 bd da 7f 47 be 26 ed 0f be 00 3d a0 bd
       -0.118552454 -0.19482365 -0.14055309 -0.07824135
000330 95 f0 e1 bd 38 63 0f bd 5b 88 b5 bd fd 40 9a 3d
       -0.110322155 -0.03500673 -0.08863898 0.07531927
000340 a3 22 08 bd 11 ca 83 bd 06 2a 83 3d fc 2d 0f be
       -0.033236157 -0.064350255 0.064045 -0.13982385
000350 c5 ad 09 be 90 18 b3 bd 42 45 86 bd d4 7d 3a bd
       -0.13445194 -0.08744919 -0.06556179 -0.045530155
000360 d9 fc c6 bd 5c 7c 90 bc 2c 0f 31 3c 7f 03 23 be
       -0.097161956 -0.017637424 0.01080684 -0.15919302
000370 34 94 21 bd 91 4e 1a bd f9 7f ac 3c 84 b8 0e 3d
       -0.03944798 -0.037672583 0.021057116 0.034843937
000380 ba 6f 1a 3c 26 19 44 bc 8f 24 6b bd 9f 66 8c bd
       0.009426052 -0.0119688865 -0.057407912 -0.06855511
000390 99 2a 06 3b da eb dc bd 8b ad 1a be e9 fb af 3d
       0.0020472168 -0.107871726 -0.15105264 0.0859297
0003a0 45 3c f0 bd 67 0f 06 be ee 86 80 3d b7 39 48 3c
       -0.117302455 -0.13091813 0.06275736 0.012220792
0003b0 c1 ae b4 bb be 35 97 bd d7 3a f2 3c 9d c0 c0 3c
       -0.0055139964 -0.073832974 0.029569073 0.023529345
0003c0 11 1e 6c bd cc 99 6a 3c 33 c2 08 bd a8 65 b0 bd
       -0.05764586 0.014318895 -0.033388328 -0.086131394
0003d0 60 56 49 be e6 6e e9 bd c7 12 9d bd 13 04 82 3d
       -0.19661856 -0.11398105 -0.07669597 0.06348433
0003e0 88 e4 cd 3b ee b8 1e bd c8 97 c6 bd 18 05 44 be
       0.0062833466 -0.03875058 -0.09696919 -0.19142568
0003f0 c3 a8 39 3d 21 39 6e 3d c6 9a 01 be a1 dc c2 3c
       0.04532696 0.05815995 -0.12656698 0.023786845

bias f4 [64]
000000 00 78 89 be 08 b1 20 be 67 7a 67 be 2a 57 eb bd
       -0.26849365 -0.15692532 -0.22605287 -0.114912346
000010 21 2b f1 3d 23 74 1d be b1 9e 63 be 72 b3 65 be
       0.11775804 -0.15376334 -0.22228505 -0.22431734
000020 0a 4d 88 be 8d 0d 83 be 2b 56 2f be 53 0c d6 bd
       -0.26621276 -0.25596276 -0.17122714 -0.104515694
000030 8d d2 1b 3f 7f 96 f4 3b 31 57 37 be 92 4d 1f be
       0.6086815 0.0074642296 -0.17904355 -0.15556934
000040 09 f5 2a be 8e 0b 97 be 50 76 6c bd 42 3d 51 be
       -0.16695036 -0.29501003 -0.05773002 -0.20433524
000050 9c 80 f0 bd 9f 4f 0b be 21 3a 28 be 71 f4 70 be
       -0.1174328 -0.13604592 -0.16428424 -0.23530747
000060 6f 88 f0 bd e7 ff ac be 83 0c a4 3d ec e2 56 be
       -0.11744773 -0.33788988 0.08010199 -0.20985001
000070 80 72 50 be e1 87 66 be fd 41 64 be 98 47 3e be
       -0.20356178 -0.22512771 -0.22290798 -0.18581998
000080 cf 10 10 be cb e0 c9 bd e9 a6 a6 bc e1 a6 30 be
       -0.14068912 -0.09857329 -0.02034326 -0.17251159
000090 78 73 0a be 5b 74 88 be 83 0a ba be f2 67 8b be
       -0.1352061 -0.26651272 -0.36336145 -0.2722774
0000a0 45 70 bf bd e6 40 0d be 17 78 2e be 79 ef c3 bd
       -0.093475856 -0.13794288 -0.17037998 -0.0956716
0000b0 78 0e 43 be 69 3e 85 be 39 b6 7b be 1b b2 83 be
       -0.19048488 -0.26024178 -0.24581231 -0.2572182
0000c0 a5 61 21 be 32 cd a6 bd 28 e8 2d be 4b 60 f2 bd
       -0.15759905 -0.08144607 -0.16983092 -0.11834773
0000d0 1d ca fb bd d5 8b e6 bd 5c 53 51 be 3b 4e 82 bd
       -0.122944094 -0.112571396 -0.20441955 -0.063625775
0000e0 91 df 73 be cd 0a 66 be bf 50 3c 3f 87 23 70 be
       -0.23815753 -0.22465058 0.7356071 -0.23451053
0000f0 08 4c 35 be bf 03 5e be 9b 5c 03 3f 58 90 78 be
       -0.17704785 -0.21681117 0.5131318 -0.24273813

weight f4 [16, 64, 3]
000000 9a b6 d6 3c ec 58 00 bd ee 57 6e 3c 76 1f 8d bd
       0.026210118 -0.031334803 0.014547331 -0.06890766
000010 a0 22 68 bd c8 e3 94 bd 8f c1 e1 3a 13 09 3c bd
       -0.056673646 -0.07270008 0.0017223823 -0.04590709
000020 3a 20 7d bd 4c 37 89 3b bb 43 15 3d 63 1d 9c bd
       -0.06179831 0.0041875 0.036441546 -0.076227926
000030 1d 60 0a 3d 43 d6 25 bd 77 63 0a 3d f9 f8 3e bc
       0.033783067 -0.04048754 0.033786263 -0.011656039
000040 0b 16 a2 ba fe e1 54 bd 2b 29 5d 3c dc ec 50 bc
       -0.0012366188 -0.051973335 0.013498585 -0.012751784
000050 ed 22 22 bc 3b da a8 3c 8a 18 d1 3c 35 50 be bc
       -0.009896022 0.020611873 0.025524396 -0.023231605
000060 b0 3c 28 bd cf eb 77 3d 8a a1 f3 bc 1c 91 39 3d
       -0.0410735 0.06052762 -0.029740114 0.045304403
000070 21 8b 22 bd df e0 7e 3d 85 cb 1f 3d d6 b8 c3 bc
       -0.039683465 0.062226173 0.03901245 -0.023891848
000080 1b 53 05 3d 53 f9 cd bc fa bc 50 3c 37 1b 3b bd
       0.03254996 -0.025143301 0.012740368 -0.04568025
000090 82 59 6e bd 79 a4 eb bd 7d 2a c8 bd c7 d4 eb bc
       -0.05819083 -0.1150598 -0.09773729 -0.028787984
0000a0 7c ab 71 bd 37 73 8c bd 7e 8a 32 bd 9a ce 2c b9
       -0.05900143 -0.06857913 -0.043589108 -0.00016480163
0000b0 f9 c4 f1 3c 70 62 d5 bc 8d 97 86 bd b5 43 81 3d
       0.02951287 -0.026047915 -0.06571875 0.06311742
0000c0 ee 95 a2 b8 bb 87 5d bd ff 2d ac bc d7 a5 50 bd
       -7.7526885e-05 -0.05408452 -0.021018026 -0.050939407
0000d0 81 db 9b bd a0 97 95 b9 9c 23 ff bc fd 60 11 3d
       -0.076102264 -0.00028532464 -0.03114491 0.035492886
0000e0 ce 7f 8e bc d7 7f b8 bc 15 17 8e bd 4e e5 77 bd
       -0.017394926 -0.022521896 -0.06937996 -0.060521416
0000f0 39 2b 6c 3d cc 75 32 3d 4e 68 2d 3c 6e f8 09 bd
       0.057658408 0.04356937 0.01058395 -0.033684187
000100 0a 0d 86 bc 9a bd ae ba 40 d9 36 3c a7 df b9 bb
       -0.01636364 -0.0013331652 0.011160195 -0.0056724134
000110 58 0f 85 3d 39 01 e9 3c 60 f8 90 bd df 67 52 bd
       0.06497067 0.028442966 -0.07078624 -0.05136859
000120 2e 18 f3 3c 41 5b 7a bd d5 59 80 3d f9 0e 15 3d
       0.029674616 -0.061122183 0.06267134 0.036391232
000130 08 2f fd 3c 2b 19 59 bb be f4 4c bc 35 91 1c bd
       0.030906215 -0.0033126574 -0.012509523 -0.038224418
000140 f5 28 1d 3d 24 fe 03 3b 1f af f7 bc 72 b1 18 3c
       0.038369138 0.0020140493 -0.030234871 0.00931965
000150 95 d6 45 bc b1 c4 3d bc dc e7 1d 39 51 2f 8a bd
       -0.012075086 -0.011582539 0.00015059061 -0.06747306
000160 fb 78 ff bc 92 ad dd bc e3 21 e0 bc 59 77 3e 3d
       -0.031185618 -0.027060304 -0.027359908 0.046500538
000170 91 f4 94 3d 54 d5 7b bc fa 0b 87 3d 08 6f 00 bd
       0.0727321 -0.015370686 0.06594081 -0.031355888
000180 3b 91 4d bd 7b 68 c4 ba 71 e4 a3 3c ac 1d 78 3c
       -0.05018733 -0.0014984751 0.02000639 0.015143793
000190 7b 3f 03 3c 07 2a 7c 3d 9a c3 06 3b fe c7 7b bd
       0.00801074 0.061563518 0.0020563365 -0.061470024
0001a0 69 a1 78 3c d8 81 3e 3c 85 19 8a bd a9 05 1a 3c
       0.015175202 0.011627637 -0.06743149 0.009400764
0001b0 82 ba 35 3d 21 a8 8d bd f9 fa c9 bc f7 66 c7 bc
       0.04436732 -0.06916834 -0.024655806 -0.02434109
0001c0 00 7e a4 bc b7 22 8b 3d df 76 96 bd db 70 53 3d
       -0.020079613 0.06793731 -0.073468916 0.0516213
0001d0 b3 74 21 3d cb 62 06 bd 72 1b 80 bd 2d ec 23 bd
       0.039417934 -0.03280906 -0.06255235 -0.040020157
0001e0 4f d0 62 3c 4f a8 f0 3c 20 3b 14 bd f4 f4 c3 bb
       0.01384361 0.02937713 -0.0361892 -0.0059801284
0001f0 14 49 20 bc 67 0f 0f 3d 6c 20 94 bc 8e b6 94 3b
       -0.009783048 0.0349268 -0.018081866 0.004538364
000200 68 2f 62 bd c6 ec 6d bd 10 ca 62 bd 1e 90 33 3d
       -0.05522099 -0.058087133 -0.055368483 0.043838613
000210 60 1f 67 3d 2c f5 9d bd e1 33 09 3d 32 87 49 bd
       0.056426406 -0.077127784 0.03349674 -0.049201198
000220 01 c7 8b 3c 67 5f f6 bc 47 10 47 bd 7f ba 0d 3d
       0.017062666 -0.030074788 -0.048599508 0.034601685
000230 af 55 8c 3c f5 4f 21 3c bd b4 91 bd c8 79 27 3d
       0.0171307 0.009845723 -0.07114551 0.040887624
000240 44 da 01 bd 47 38 0c 3d 59 1e 6c bd cb 77 73 3d
       -0.031702295 0.034233358 -0.05764613 0.059440415
000250 71 f2 9e bc 22 c5 9a bd 8e 76 18 bc ee 8b 27 bd
       -0.019402714 -0.07557131 -0.009305609 -0.04090493
000260 72 2d 08 bd fe ee 50 bd f5 af 18 bd 1a f1 7e 3c
       -0.033246465 -0.05100917 -0.03727718 0.015560413
000270 31 e9 2e bc 34 de be ba be 8e d5 3c 51 2f 47 3c
       -0.010675714 -0.0014562071 0.026069041 0.012157277
000280 0a ac c5 bd 17 65 a6 3c 92 87 13 bd bf 56 b3 3b
       -0.096519545 0.020311875 -0.03601796 0.0054729874
000290 fc 9f a6 bc 03 ae 2a bc 82 10 95 bd ba 78 35 3c
       -0.020339958 -0.010417464 -0.07278539 0.011076147
0002a0 06 8e db bc db cd 01 3c 35 14 24 bd 6f 50 d7 bc
       -0.02680112 0.007922615 -0.040058333 -0.02628347
0002b0 77 1b 8c 3b b3 b7 ca bc 5d 91 a0 bd 40 c0 90 bd
       0.004275735 -0.024745798 -0.07840226 -0.07067919
0002c0 d0 ef ed bc 89 cc b1 3c f8 2d b2 3c 49 74 83 3c
       -0.029045016 0.021703975 0.021750435 0.01604666
0002d0 42 3f a1 bc 5c a3 98 bc dc a0 21 bc 09 95 e9 3c
       -0.019683484 -0.018632583 -0.009865012 0.028513448
0002e0 3a 75 74 3d e4 3c 35 bd 7b d6 44 bd cc 7b 80 bd
       0.05968211 -0.044247523 -0.048056107 -0.062736124
0002f0 65 0e 23 3d 56 aa 4d 3d ba 2d a9 bc c3 c6 d1 3c
       0.03980865 0.050211273 -0.020651687 0.025607472
000300 a6 19 e0 3c 3b 85 03 bd ce 60 f1 3c 15 4d 26 3d
       0.02735598 -0.03210948 0.029465105 0.040600855
000310 4f e7 3c bc 6b 08 5f bc 1a ad 4f bd 98 c1 a8 3c
       -0.011529758 -0.013612847 -0.050702192 0.020600125
000320 8b 70 57 bd 7d 6a b3 bc e2 4e 88 bd c3 da ba bc
       -0.052597564 -0.021901364 -0.06655671 -0.022809392
000330 f9 b1 83 bd 5d d2 81 bd 0f f0 86 bd d4 a9 21 3d
       -0.0643043 -0.06338952 -0.06588756 0.0394686
000340 33 70 31 3d 2b 3d fa 3c 53 11 0d bd ee ee 1c 3d
       0.043319892 0.030546745 -0.03444035 0.0383138
000350 c5 9a 0c bd f0 00 73 3c 8a 55 56 3d 62 d1 69 bd
       -0.034327287 0.0148317665 0.05232767 -0.05708445
000360 c3 05 7e 3c 14 16 80 3d 8b 4d 16 3c 24 57 1f bd
       0.015504303 0.06254211 0.009173761 -0.038901463
000370 44 8b 7a bc 41 a2 38 3d 0f 80 c4 3c 48 eb 64 3d
       -0.015291993 0.045076612 0.023986844 0.055888444
000380 14 f1 31 bb e9 69 7e bd 86 f4 89 bc 7f 41 ef 3c
       -0.002715175 -0.062112723 -0.01684023 0.029206036
000390 be 63 6a be 2d 2a 04 be ce fe 11 bd 53 03 74 bd
       -0.22889611 -0.12906714 -0.03564339 -0.059573483
0003a0 e7 79 0b be 99 51 1b 3b b3 45 fe bd 1a 0f 0d bd
       -0.13620721 0.002369976 -0.12415638 -0.03443823
0003b0 e0 81 87 bc 38 be 69 3c ce b9 05 3c 27 51 8d bd
       -0.016541421 0.014266543 0.008161975 -0.06900244
0003c0 f1 28 f1 3c 38 a3 f4 3c f4 6d 4e bc 32 7f 91 bc
       0.029438468 0.029862985 -0.012599457 -0.017760847
0003d0 b5 b9 27 bd 42 8c a2 3c b9 8e 0c 3c 56 c5 13 bc
       -0.04094859 0.01984227 0.00857895 -0.0090192165
0003e0 4d ad 5a 3d c0 c8 04 3d 2e 6c 98 3c 4d b5 60 bd
       0.05338793 0.032418013 0.018606272 -0.054860402
0003f0 7f 47 32 bd 9d 82 d3 bc 82 3f 21 bd 59 5e be 3a
       -0.043525215 -0.025819117 -0.039367206 0.0014523967

bias f4 [16]
000000 7b 8e 41 be 1e 75 de bd ff a1 8f bd 85 5b c8 bd
       -0.18902008 -0.10862182 -0.0701332 -0.09783081
000010 cf 2e 87 bd 6d 78 de bd f4 94 22 3e 0f 37 9a 3e
       -0.06600725 -0.10862813 0.15877134 0.3012013
000020 b8 6a 01 be fb 56 7c bd 01 24 49 be 04 86 0f be
       -0.12638366 -0.06160639 -0.1964264 -0.14015967
000030 34 31 9e bd 1a 6a 4c be 35 3d 06 be db 55 82 bd
       -0.077242285 -0.1996235 -0.13109286 -0.06364032

weight f4 [2, 16]
000000 5f b4 35 be 47 bc 4f 3e ac eb 4b 3e 63 96 01 be
       -0.17744587 0.20286666 0.1991412 -0.12655024
000010 68 6e 19 3e c9 90 db bd 4b 61 ed bd f5 7a 5e bc
       0.14983523 -0.10720975 -0.11590823 -0.01357912
000020 e2 2a 73 3e 41 cf 07 3e 07 de 41 be 25 ae 27 be
       0.23746827 0.13262655 -0.18932353 -0.16375025
000030 c0 3c 8e bd 7d 3c 8e 3d 07 35 af 3d ae 34 af bd
       -0.06945181 0.06945131 0.08555036 -0.0855497
000040 be 4f 0d be 75 96 dc 3d 9b 1a 95 3d 17 9d ff bb
       -0.1379995 0.10770885 0.07280465 -0.007800709
000050 2f 9d 62 be 87 d8 ea 3d 3e dc a7 3b dc c1 64 3c
       -0.22130273 0.114670806 0.0051226905 0.013962235
000060 f7 70 d7 bd 53 41 c5 3d 57 85 c9 bd 0d 00 f5 bd
       -0.10519593 0.096316 -0.09839886 -0.119629
000070 8b 7b 34 be 4f e4 45 bd 62 f6 1d 3e 60 e5 bc bd
       -0.17625253 -0.048313435 0.15426019 -0.09223437

bias f4 [2]
000000 23 3d 9a bd 80 7c 08 b5
       -0.07531192 -5.084512e-07
