matrix/result/0817/save/inverse_mse_float.pt (torch, 42503 bytes, 8 tensors)

weight f4 [32, 2, 3]
-1.023389 0.84357965 0.33641434 0.47810456 -0.7174546 -2.9201703 -0.28421375 -0.032087605
0.051180284 -5.920411 -0.53422564 -5.178881 -0.91787857 0.6718585 0.779189 -0.58998924
0.83954614 3.0673246 0.687336 0.5801534 0.6195915 3.0643234 -0.18126225 -0.436759
-0.9068136 0.34711787 -0.36038974 -0.75244844 -0.5763867 0.9017892 -0.4929739 -0.17290924
0.2370659 3.1755154 -8.387848 -1.598136 0.26695842 0.60194063 -0.010204674 4.9292393
-1.6088139 -0.51923215 -0.98190606 0.95956147 0.2686046 1.2699114 -1.3105167 3.4920573
0.05942644 -0.3452842 1.1859062 -6.81547 0.08060057 -0.98592114 -0.7301867 1.3457954
1.2907375 -0.84599334 -2.0780916 -0.9225201 -0.05368818 -0.29214156 0.87477845 -5.589116
-1.7522097 -1.1609341 0.39586294 -1.2979689 1.2044005 0.25515625 -0.11232063 -1.011748
-1.0838795 -0.6888424 1.0972517 2.3454266 1.022337 -1.6779336 1.8836068 -0.21176857
0.17729695 -0.64749753 0.66401035 1.6868371 -0.9132096 0.71005595 0.70556337 -0.45439628
1.1830935 0.72662634 -1.0228922 1.0592954 0.019208109 0.49811256 0.29908684 1.0542061
-0.54132897 -0.036442704 -0.77714723 0.9167678 -3.6372948 0.07963612 -0.28642964 -0.09165325
-0.153567 -5.015904 8.610445 2.47065 -0.31050116 0.274327 0.10528038 -4.9717836
3.888296 0.45969743 -0.5960218 1.2414681 0.4171066 0.9460122 -0.9908544 -0.5398496
-0.58636 -0.2110579 -0.5331351 -5.7235928 -0.21261969 0.60804427 -0.97134477 0.665437
-0.1117993 -0.9381581 1.13732 -3.8485446 -0.70142037 -1.0269678 0.7114301 0.2137393
0.6098663 -0.998929 -0.8240043 1.0017061 0.14036593 1.1561184 -1.3175128 -0.49583083
-0.7688561 1.0237141 0.66786724 -0.37941185 -1.0334193 0.7059421 -0.1759052 0.2176063
0.61172587 -3.37828 -1.6229594 5.0557904 -0.3358749 -0.048345264 -0.48091432 3.4616218
-1.628188 -0.5034415 -0.2864256 -1.0124583 -0.33933413 -0.0072289044 1.2650316 2.297802
0.28199768 0.38157275 -0.42161167 -1.2224338 -3.640512 -0.27528155 -0.5902907 -0.63087934
0.8968784 5.7524953 -2.3934147 -0.9233985 -0.47427055 -0.69683415 0.84093505 -3.3968248
-0.33354408 -1.4410213 -0.37623608 0.2026084 0.4245207 3.3675442 6.869386 1.7449992
00000000: 69fe 82bf d6f4 573f 803e ac3e 1fca f43e
00000010: 1bab 37bf 12e4 3ac0 7784 91be 4b6e 03bd
00000020: 6ba2 513d 0274 bdc0 03c3 08bf 65b9 a5c0
00000030: 17fa 6abf ebfe 2b3f ee78 473f 8909 17bf
00000040: 7fec 563f 0c4f 4440 41f5 2f3f ef84 143f
00000050: 8c9d 1e3f e01d 4440 d09c 39be e09e dfbe
00000060: f024 68bf 6fb9 b13e 0185 b8be 76a0 40bf
00000070: 148e 13bf a8db 663f 1367 fcbe 1f0f 31be
00000080: 67c1 723e a53b 4b40 a034 06c1 b88f ccbf
00000090: c6ae 883e c818 1a3f 8131 27bc 54bc 9d40
000000a0: 9ded cdbf 66ec 04bf 325e 7bbf d2a5 753f
000000b0: 8b86 893e 758c a23f 03bf a7bf de7d 5f40
000000c0: 2469 733d 17c9 b0be c6cb 973f 5518 dac0
000000d0: e911 a53d 5465 7cbf 84ed 3abf 0643 ac3f
000000e0: e336 a53f 0593 58bf 74ff 04c0 472a 6cbf
000000f0: 23e8 5bbd 9493 95be 7bf1 5f3f 0ada b2c0
00000100: 6848 e0bf 7d99 94bf 8cae ca3e d823 a6bf
00000110: cc29 9a3f d7a3 823e 5c08 e6bd f580 81bf
00000120: 90bc 8abf fa57 30bf be72 8c3f 781b 1640
00000130: f0db 823f 87c6 d6bf 071a f13f dcd9 58be
00000140: 558d 353e 66c2 25bf 95fc 293f 47ea d73f
00000150: 1bc8 69bf 3ac6 353f cd9f 343f a1a6 e8be
00000160: 9c6f 973f 2f04 3a3f 22ee 82bf fe96 873f
00000170: 535a 9d3c 9c08 ff3e e921 993e 3af0 863f
00000180: 8994 0abf f244 15bd 1ff3 46bf 4bb1 6a3f
00000190: 70c9 68c0 4318 a33d e8a6 92be b3b4 bbbd
000001a0: ab40 1dbe 4982 a0c0 62c4 0941 211f 1e40
000001b0: 02fa 9ebe 9774 8c3e 3d9d d73d da18 9fc0
000001c0: d7d9 7840 765d eb3e e294 18bf 6de8 9e3f
000001d0: ff8e d53e db2d 723f a2a8 7dbf 9533 0abf
000001e0: b01b 16bf 901f 58be 8b7b 08bf ac27 b7c0
000001f0: fab8 59be caa8 1b3f 0daa 78bf 145a 2a3f
00000200: 08f7 e4bd 212b 70bf b493 913f 8e4e 76c0
00000210: 4990 33bf ae73 83bf 4820 363f 7ade 5a3e
00000220: 3320 1c3f d0b9 7fbf f2f1 52bf e837 803f
00000230: 16bc 0f3e b0fb 933f 42a4 a8bf 8add fdbe
00000240: c1d3 44bf 1009 833f 59f9 2a3f 4542 c2be
00000250: 1547 84bf 9fb8 343f 7e20 34be 30d4 5e3e
00000260: 119a 1c3f bd35 58c0 22bd cfbf 09c9 a140
00000270: cbf7 abbe af05 46bd 673a f6be 368b 5d40
00000280: 7768 d0bf 8be1 00bf 60a6 92be 3c98 81bf
00000290: 34bd adbe 72e0 ecbb 8eec a13f 300f 1340
000002a0: 0062 903e 815d c33e 7cdd d7be b678 9cbf
000002b0: 26fe 68c0 b4f1 8cbe 4b1d 17bf 4f81 21bf
000002c0: d399 653f 7114 b840 b52d 19c0 d863 6cbf
000002d0: 97d3 f2be b963 32bf 8547 573f 9465 59c0
000002e0: 4ac6 aabe 6373 b8bf 04a2 c0be 9478 4f3e
000002f0: c75a d93e d885 5740 03d2 db40 225c df3f

bias f4 [32]
0.28927094 -0.16981027 -0.36250407 -0.24567716 0.8060601 -0.4112881 -0.5909844 0.5285729
0.5639407 0.9073743 0.4182021 0.73334944 -0.114108995 -0.44932395 -0.23193675 0.8609867
-0.4953928 0.03557125 -0.54078305 0.5525583 -0.21337576 0.62303984 0.7227201 0.67673934
0.051935658 -0.4811371 -0.35007823 -0.42080426 -0.29657745 0.1777889 0.4751711 -0.47261542
00000000: 521b 943e bee2 2dbe 229a b9be cb92 7bbe
00000010: f459 4e3f 5b94 d2be c14a 17bf 8e50 073f
00000020: 6b5e 103f af49 683f 961e d63e cabc 3b3f
00000030: fab1 e9bd ca0d e6be d480 6dbe a069 5c3f
00000040: 20a4 fdbe 29b3 113d c270 0abf 7674 0d3f
00000050: 2d7f 5abe 8a7f 1f3f 2f04 393f ca3e 2d3f
00000060: 7cba 543d 9a57 f6be 743d b3be a873 d7be
00000070: 00d9 97be 4b0e 363e a049 f33e a6fa f1be

weight f4 [64, 32, 3]
-4.1403775 0.8538675 -0.24434456 -5.410552 -5.541108 -0.9169953 -6.069898 0.7899741
-0.123552136 -2.8982975 -5.879978 -2.4546149 -4.3391523 0.71737206 -0.6328023 -8.873852
-8.789733 -1.4824239 -1.6370322 -8.191504 -1.2215797 -3.7591283 0.9714522 -0.7395595
1.0065963 -6.2118697 -1.6780003 1.0863857 0.92260873 -1.6741148 0.80492544 -6.596815
-1.6778038 0.86758566 -0.038890593 -1.5587292 0.86248964 -7.5384455 -0.30838606 -2.479493
-0.22017328 -2.1636426 -5.3122635 0.65813947 -0.2558074 -3.562486 0.88244456 -1.233789
-0.25253338 -6.1873703 0.014607826 -7.2158117 -10.256808 -1.1092293 -0.34228352 -7.283988
-1.3058374 -3.7677088 0.9910937 -1.162752 -0.8033827 -5.304619 -0.37849608 -5.7597747
0.8711798 -0.5673945 0.8682066 -5.9879932 -0.8205063 -4.914657 0.94998735 -1.2257074
-4.0573273 0.87070596 -0.90381384 -8.351212 -6.0451727 -0.5327566 -0.044188146 -3.2967057
8.5879656e-05 -6.033233 -0.058101937 -0.6806104 -0.9695696 -5.978913 -2.9706593 0.8703395
-8.09961 -0.55982953 0.7547379 -5.1428995 -1.3277886 -4.51236 -6.676977 -1.7591438
1.1218137 0.30774212 0.56137073 -0.92997897 0.35547 0.9312134 0.29460466 2.1673777
1.232345 0.31129292 0.067744106 -8.029143 -0.21343948 -0.46416545 -1.2492774 -0.79947025
-0.08990148 0.4876136 1.0992512 0.080519944 -0.012941373 -0.026348291 0.45515436 -2.362719
0.11809095 0.11054582 0.071640834 -0.5703351 -1.7065843 -0.59320176 -0.3735299 0.5870617
0.55825293 0.96274614 -1.0140266 -0.045770045 1.7619945 0.095018886 -0.5195386 0.36850277
0.1467024 -6.5212984 -0.06154242 0.8931786 -0.87770635 -0.12290607 -1.0673672 0.014386887
-0.40936962 -1.9987655 0.5909104 0.21386588 -0.55235696 -2.6386175 0.023194272 -1.0290409
-0.9211203 -0.16783352 0.042380847 -0.82122624 -0.7129203 -1.9133525 1.1756986 -1.8024393
0.15069826 0.96711636 0.3730188 -0.268915 -0.092018634 -0.71657693 -0.5479041 -1.9424487
-0.12914473 -0.78350115 0.45915216 0.36404184 -0.51332885 0.111532256 -0.011619315 0.55594116
0.37056762 0.50233185 -1.3227355 -1.4539933 0.07005415 -1.3020945 0.44388798 -1.3324853
-0.45911276 0.05222524 -1.0199109 -0.18769303 0.27950105 0.24543826 0.07134024 -1.7349784
0.4683335 -0.0052793617 0.20839542 0.9460906 0.4715423 0.1563489 2.560997 0.0011218586
0.22024927 2.7517273 0.6824575 0.04491002 -0.2822695 -0.0014884593 0.10595114 2.2596798
0.43439165 0.6308101 -1.3224535 1.910829 0.34408018 0.8652358 -0.14147456 0.21277659
0.38387328 0.12958977 0.4244215 0.46732557 -0.5329905 0.08938872 0.55076337 -0.122833885
-0.18079898 0.4974792 0.2709292 0.35269782 0.58071595 0.17460197 2.4404297 1.8316385
0.99925154 1.0460137 2.527401 -0.1915228 0.52848667 0.41825143 0.06434295 0.14823881
-0.24145271 0.2076503 0.3885911 0.6152368 0.9584403 1.4958738 0.79194814 1.2577739
1.6254915 0.44778967 -0.004347697 0.12280423 0.2183436 1.1999322 0.6069919 -0.08951008
00000000: f97d 84c0 0f97 5a3f 7635 7abe 3e23 adc0
00000010: c250 b1c0 34c0 6abf 9b3c c2c0 be3b 4a3f
00000020: e708 fdbd b57d 39c0 c828 bcc0 6918 1dc0
00000030: 56da 8ac0 b2a5 373f 55ff 21bf 4cfb 0dc1
00000040: bfa2 0cc1 11c0 bdbf 458a d1bf 6610 03c1
00000050: b95c 9cbf 8f95 70c0 17b1 783f c553 3dbf
00000060: 26d8 803f a3c7 c6c0 b7c8 d6bf b00e 8b3f
00000070: 1630 6c3f 6549 d6bf 980f 4e3f 1c19 d3c0
00000080: 46c2 d6bf 181a 5e3f be4b 1fbd 7084 c7bf
00000090: 1fcc 5c3f f23a f1c0 c7e4 9dbe 03b0 1ec0
000000a0: 1b75 61be 1f79 0ac0 10fe a9c0 d47b 283f
000000b0: 30f9 82be c5ff 63c0 e3e7 613f ccec 9dbf
000000c0: 0e4c 81be f0fe c5c0 aa55 6f3c eee7 e6c0
000000d0: e31b 24c1 3afb 8dbf c93f afbe 6e16 e9c0
000000e0: ae25 a7bf 2422 71c0 51b8 7d3f 0fd5 94bf
000000f0: 7daa 4dbf 70bf a9c0 3dca c1be 1350 b8c0
00000100: a405 5f3f c440 11bf ca42 5e3f a49d bfc0
00000110: b30c 52bf df44 9dc0 5f32 733f fbe3 9cbf
00000120: a0d5 81c0 96e6 5e3f 5860 67bf 909e 05c1
00000130: 0e72 c1c0 bd62 08bf a1fe 34bd 3afd 52c0
00000140: 4a1a b438 3f10 c1c0 4cfc 6dbd 7c3c 2ebf
00000150: b735 78bf 4153 bfc0 481f 3ec0 92ce 5e3f
00000160: 0198 01c1 fd50 0fbf 8136 413f a292 a4c0
00000170: faf4 a9bf 4165 90c0 cca9 d5c0 a02b e1bf
00000180: 9797 8f3f 6090 9d3e feb5 0f3f 1a13 6ebf
00000190: 2a00 b63e 0064 6e3f 6cd6 963e 51b6 0a40
000001a0: 7bbd 9d3f c961 9f3e 6cbd 8a3d 5f77 00c1
000001b0: e18f 5abe 18a7 edbe 52e8 9fbf 15aa 4cbf
000001c0: 441e b8bd 7da8 f93e 43b4 8c3f a4e7 a43d
000001d0: 0d08 54bc 5fd8 d7bc fe09 e93e ca36 17c0
000001e0: abd9 f13d d965 e23d 6eb8 923d 7b01 12bf
000001f0: 5b71 dabf 12dc 17bf 503f bfbe ad49 163f
00000200: aae9 0e3f 8876 763f a0cb 81bf 5f79 3bbd
00000210: 0989 e13f 4399 c23d 7b00 05bf 65ac bc3e
00000220: 2739 163e 7aae d0c0 e813 7cbd 5aa7 643f
00000230: 5db1 60bf 2db6 fbbd 7d9f 88bf fab6 6b3c
00000240: e598 d1be 8cd7 ffbf e745 173f a8ff 5a3e
00000250: 4467 0dbf 1cdf 28c0 ea01 be3c 9db7 83bf
00000260: 8ace 6bbf 8ddc 2bbe 8a97 2d3d e23b 52bf
00000270: f281 36bf bce8 f4bf 4b7d 963f 55b6 e6bf
00000280: a550 1a3e f094 773f 52fc be3e 3aaf 89be
00000290: 4474 bcbd 9671 37bf 7143 0cbf 29a2 f8bf
000002a0: 843e 04be 8893 48bf fe15 eb3e b163 ba3e
000002b0: 8569 03bf 066b e43d f05e 3ebc 2952 0e3f
000002c0: 0abb bd3e d298 003f 664f a9bf 741c babf
000002d0: 8d78 8f3d 08ab a6bf 4945 e33e e18e aabf
000002e0: d410 ebbe 22ea 553d 718c 82bf 9a32 40be
000002f0: c31a 8f3e 2b54 7b3e d51a 923d c613 debf
00000300: 69c9 ef3e 7ffe acbb 9c65 553e fe32 723f
00000310: fe6d f13e ed19 203e 60e7 2340 540b 933a
00000320: 0689 613e 4d1c 3040 89b5 2e3f 92f3 373d
00000330: a185 90be 6818 c3ba e9fc d83d 989e 1040
00000340: 9568 de3e c57c 213f 2846 a9bf 0b96 f43f
00000350: 472b b03e 1880 5d3f b5de 10be 1be2 593e
00000360: 0a8b c43e 2eb3 043e c64d d93e 4c45 ef3e
00000370: 1172 08bf 6f11 b73d d4fe 0c3f 5590 fbbd
00000380: 5e23 39be 98b5 fe3e 3bb7 8a3e cf94 b43e
00000390: cda9 143f dcca 323e 0030 1c40 2173 ea3f
000003a0: f3ce 7f3f c7e3 853f f0c0 2140 8e1e 44be
000003b0: e74a 073f 0d25 d63e 3dc6 833d eacb 173e
000003c0: 613f 77be 48a2 543e 6af5 c63e 2980 1d3f
000003d0: 585c 753f cb78 bf3f 1dbd 4a3f bcfe a03f
000003e0: 1b10 d03f b044 e53e 2077 8ebb c980 fb3d
000003f0: 7795 5f3e 6197 993f d263 1b3f 1051 b7bd

bias f4 [64]
0.9888216 -0.7559806 -0.90201133 0.77232856 0.3928773 1.1110861 0.9466703 0.09767222
0.78049207 0.9274405 0.1645828 0.9695733 -0.27026102 -0.15869744 0.11604732 1.0052806
1.0935407 -0.77285856 0.7714194 1.0775685 1.1365058 1.0338554 0.903878 -0.6761384
0.6352349 -0.5079442 0.9873109 1.0281633 -0.05782517 0.9632305 0.9165832 -0.7494358
0.24032381 -0.11890616 0.055426907 1.1147012 -0.5380015 0.028220726 0.35423282 0.828742
0.7367707 1.0638137 1.0533825 1.0800301 1.0569648 -0.44280815 -0.051099636 0.6243424
0.5197013 0.9764528 0.115678124 1.1478767 -0.48588696 1.0454663 0.66574633 -0.56649804
0.6014198 0.8784491 1.0785445 -0.77589077 1.0129257 -0.42579633 0.70837593 0.95748526
00000000: 6a23 7d3f f287 41bf 37ea 66bf 53b7 453f
00000010: 3727 c93e 1238 8e3f fc58 723f 5f08 c83d
00000020: 54ce 473f be6c 6d3f 6588 283e f535 783f
00000030: a75f 8abe 9581 22be 38aa ed3d 09ad 803f
00000040: 24f9 8b3f 0fda 45bf be7b 453f c4ed 893f
00000050: 0679 913f 6055 843f 8c64 673f 6817 2dbf
00000060: c19e 223f a208 02bf 68c0 7c3f db9a 833f
00000070: 16da 6cbd 4696 763f 32a5 6a3f 06db 3fbf
00000080: 7217 763e 1385 f3bd 5307 633d 87ae 8e3f
00000090: 77ba 09bf 272f e73c 015e b53e 7028 543f
000000a0: 019d 3c3f 0c2b 883f 3dd5 863f 6d3e 8a3f
000000b0: 9f4a 873f c0b7 e2be da4d 51bd e7d4 1f3f
000000c0: 250b 053f d0f8 793f a7e8 ec3d a0ed 923f
000000d0: 2dc6 f8be d7d1 853f 5a6e 2a3f 0406 11bf
000000e0: a6f6 193f 0ae2 603f bf0d 8a3f c7a0 46bf
000000f0: 8da7 813f fa01 dabe 2058 353f c11d 753f

weight f4 [16, 64, 3]
-0.17232355 -0.26461634 -0.08456201 -0.017312178 0.0011827382 -0.10245504 -0.040957797 -0.062158834
-0.012412552 0.0996657 0.061564595 -0.041560013 -0.16213463 -0.0824038 0.0073694405 -0.20826647
-0.16254006 -0.08489009 0.0035551195 -0.0029288218 0.016873943 0.022657925 0.013776452 0.007499871
0.015037598 0.064672224 -0.08437482 -0.026301974 0.005141374 -0.075340934 0.017932141 -0.053861342
-0.018164545 0.006874799 0.06301019 0.007067378 0.006943608 0.031593062 0.039119527 0.16709264
0.15896387 -0.07574713 -0.07036641 -0.13095216 -0.020348873 -0.07290713 -0.08003985 -0.0017258745
-0.20195292 -0.16936107 -0.10369579 -0.08146789 -0.09232805 0.016761143 -0.12485821 -0.16581728
-0.13312747 0.112514876 0.119088076 0.02436183 -0.006767972 -0.10804723 -0.024798257 0.24990387
0.2585236 0.022028854 -0.17235124 -0.16857457 -0.0067484416 0.15316917 0.181142 -0.08514451
-0.27342546 -0.22219434 -0.097009145 -0.03305204 0.026498636 -0.022059722 -0.07847814 -0.16922094
-0.053356018 0.15349188 0.05112976 -0.06750812 0.04130224 0.019226864 -0.026621375 0.1524477
0.062511 -0.06845225 -0.03082733 -0.043027554 0.012583228 -0.011397582 -0.006528578 0.0265975
0.055031773 0.05584636 -0.044454608 0.24896328 0.15494327 -0.047140464 -0.035400413 -3.8174978e-05
-0.07632774 -0.29107425 -0.19205219 0.0051104203 -0.27017432 -0.20448928 -0.12391776 0.07457806
0.06341047 -0.1219835 -0.21279752 -0.21962589 -0.10303946 -0.31668982 -0.25834572 -0.014325829
0.109504655 0.022923289 -0.022683512 -0.2843675 -0.29228088 -0.010352081 -0.13558242 -0.2228799
0.033844408 -0.098939076 -0.108888514 0.03562455 -0.049224332 -0.096796185 0.022806242 -0.13210003
-0.18757114 -0.030826284 0.32853484 0.21786618 0.00096017617 -0.03584972 0.0794208 -0.0028408181
-0.1833394 -0.14763013 0.005431348 0.15784416 0.045742474 0.010547287 0.1668601 0.11280842
-0.07631983 0.091540635 0.09686097 -0.01781028 -0.08213047 0.035623662 -0.000393246 0.12359971
0.08631973 -0.059275284 0.06905775 0.095943145 -0.03895948 -0.31663904 -0.22213756 -0.043718927
-0.03700075 -0.008745498 -0.09811621 -0.3065996 -0.40233967 -0.09649363 0.040574823 0.11401197
0.00094432855 -0.063082 -0.093739286 0.036850967 0.17603925 0.17320131 -0.026954021 0.1818457
0.21430393 -0.005803426 -0.044804674 -0.08775749 -0.036713064 -0.15678479 -0.16529143 0.043051183
1.7947619 1.822966 -2.899614 0.6521399 0.61352825 0.67864865 -0.38052008 0.14768316
0.1824357 1.4612663 1.4471002 0.12139997 0.50137174 0.59033585 0.7408169 1.8684727
1.846146 -1.4773002 1.8725117 1.8452868 -2.7231874 0.1565857 0.3930208 0.8391547
1.0967824 1.1206911 -0.32917243 1.6205071 1.5205452 -0.7890937 0.2656193 0.27239653
0.42825526 -4.317603 -0.10666559 0.4391938 -0.20064759 0.2524972 0.17553821 0.3963533
0.28880864 -0.7341069 0.027351314 0.5121272 0.78630227 1.375149 1.3181543 -2.9912963
1.8192261 1.7498753 -1.7970352 0.30167475 0.32572025 0.6142404 1.3874896 1.3924742
-0.81207716 1.9160573 1.8352108 -4.2790856 1.7725383 1.7598803 -0.8349722 1.8323514
00000000: 9675 30be cb7b 87be d92e adbd 45d2 8dbc
00000010: 1c06 9b3a f3d3 d1bd 5dc3 27bd 439a 7ebd
00000020: 045e 4bbc 881d cc3d 282b 7c3d d53a 2abd
00000030: 9f06 26be 53c3 a8bd 597b f13b ce43 55be
00000040: e770 26be dbda adbd 02fd 683b 7af1 3fbb
00000050: 393b 8a3c 1d9d b93c a1b6 613c 7ac1 f53b
00000060: 4260 763c df72 843d b5cc acbd 3d77 d7bc
00000070: f978 a83b 594c 9abd 6de6 923c b69d 5cbd
00000080: d0cd 94bc fe45 e13b 7d0b 813d 7795 e73b
00000090: 3587 e33b ba67 013d cc3b 203d 551a 2b3e
000000a0: 6dc7 223e 5021 9bbd 441c 90bd 5318 06be
000000b0: aeb2 a6bc 5550 95bd efeb a3bd bd36 e2ba
000000c0: bfcc 4ebe fd6c 2dbe 755e d4bd a3d8 a6bd
000000d0: 7d16 bdbd aa4e 893c a9b5 ffbd 01cc 29be
000000e0: 9152 08be 336e e63d 73e4 f33d 7692 c73c
000000f0: ddc5 ddbb de47 ddbd b725 cbbc cde6 7f3e
00000100: 355d 843e db75 b43c d87c 30be d09e 2cbe
00000110: 0822 ddbb 61d8 1c3e 4a7d 393e 3f60 aebd
00000120: 6cfe 8bbe ea86 63be bbac c6bd 9361 07bd
00000130: ab13 d93c 97b6 b4bc 26b9 a0bd 4148 2dbe
00000140: d78b 5abd fa2c 1d3e 706d 513d b241 8abd
00000150: 8a2c 293d a881 9d3c 1215 dabc 401b 1c3e
00000160: c405 803d b130 8cbd 9989 fcbc a93d 30bd
00000170: e229 4e3c ecbc 3abc aeed d5bb 00e3 d93c
00000180: ff68 613d 27bf 643d 0916 36bd 3bf0 7e3e
00000190: 73a9 1e3e 5c16 41bd 0600 11bd 121e 20b8
000001a0: b851 9cbd af07 95be 54a9 44be 5075 a73b
000001b0: 4a54 8abe a365 51be 98c8 fdbd 62bc 983d
000001c0: 59dd 813d 7cd2 f9bd 98e7 59be 9ce5 60be
000001d0: 5a06 d3bd 2b25 a2be e445 84be e2b6 6abc
000001e0: fa43 e03d 9fc9 bb3c c6d2 b9bc 9e98 91be
000001f0: d7a5 95be c69b 29bc 1ed6 0abe a13a 64be
00000200: 6fa0 0a3d 92a0 cabd f100 dfbd 0ceb 113d
00000210: 749f 49bd 143d c6bd 28d4 ba3c 3b45 07be
00000220: a612 40be 6787 fcbc b835 a83e 5018 5f3e
00000230: 55b4 7b3a 28d7 12bd 5fa7 a23d 052d 3abb
00000240: 53bd 3bbe 5a2c 17be 73f9 b13b e6a1 213e
00000250: 765c 3b3d 87ce 2c3c 60dd 2a3e 1a08 e73d
00000260: 924d 9cbd a879 bb3d 0b5f c63d dde6 91bc
00000270: 0534 a8bd 1eea 113d 962c ceb9 d821 fd3d
00000280: 66c8 b03d a4ca 72bd 266e 8d3d d77d c43d
00000290: fa93 1fbd 831e a2be 0778 63be 9e12 33bd
000002a0: 198e 17bd 4749 0fbc 27f1 c8bd 9ffa 9cbe
000002b0: 77ff cdbe 749e c5bd c931 263d 1c7f e93d
000002c0: d18c 773a 2331 81bd 62fa bfbd 0af1 163d
000002d0: a243 343e af5b 313e aece dcbc c235 3a3e
000002e0: 7d72 5b3e aa2a bebb 1b85 37bd 33ba b3bd
000002f0: 7060 16bd 318c 20be 2842 29be 7056 303d
00000300: c2ba e53f f356 e93f 4793 39c0 a4f2 263f
00000310: 3010 1d3f ebbb 2d3f 87d3 c2be 413a 173e
00000320: 6dd0 3a3e c60a bb3f 943a b93f 8ca0 f83d
00000330: e659 003f 4020 173f 2da6 3d3f 1d2a ef3f
00000340: 834e ec3f 2c18 bdbf 77ae ef3f 5c32 ec3f
00000350: b448 2ec0 0058 203e 063a c93e d8d2 563f
00000360: 5e63 8c3f ce72 8f3f 4a89 a8be c76c cf3f
00000370: 3aa1 c23f 0b02 4abf 41ff 873e 8f77 8b3e
00000380: 4644 db3e ce29 8ac0 7d73 dabd 02de e03e
00000390: 9076 4dbe 5047 813e 4ac0 333e d2ee ca3e
000003a0: bade 933e 6eee 3bbf dd0f e03c c51a 033f
000003b0: 1b4b 493f e204 b03f 48b9 a83f 6671 3fc0
000003c0: 67dc e83f eafb df3f 4005 e6bf 1d75 9a3e
000003d0: cec4 a63e dc3e 1d3f 4299 b13f 983c b23f
000003e0: 4ae4 4fbf 5e41 f53f 30e8 ea3f 45ee 88c0
000003f0: 89e2 e23f c243 e13f bdc0 55bf 7e8a ea3f

bias f4 [16]
-0.17679995 1.1312387 -0.05438496 -0.032150447 1.0090156 0.099844374 0.008568128 -0.14544591
1.0251148 -0.059944484 0.968099 0.009851169 1.1031941 0.13647401 -0.089710385 0.84895587
00000000: 0c0b 35be 6ecc 903f c4c2 5ebd 30b0 03bd
00000010: 6c27 813f 357b cc3d 5561 0c3c c6ef 14be
00000020: f636 833f 5988 75bd 56d5 773f cc66 213c
00000030: 7735 8d3f d8bf 0b3e 14ba b7bd 2c55 593f

weight f4 [2, 16]
2.443315 2.528427 0.06142267 0.22015153 -0.057460777 0.2589877 0.20402946 0.17742087
-0.21950287 0.09030932 -0.22865927 -0.09785533 -0.17304607 0.19989367 0.20068422 -0.021442804
-1.7609411 -1.7984948 2.0558615 1.821356 1.7650161 1.6642852 0.18705103 -0.18046752
2.0608885 1.6131315 -2.2585733 -2.261167 -0.13017179 0.08371038 1.0563277 1.4139358
00000000: 465f 1c40 bfd1 2140 5696 7b3d 676f 613e
00000010: fe5b 6bbd 099a 843e 19ed 503e d1ad 353e
00000020: 5cc5 60be 18f4 b83d a825 6abe 6068 c8bd
00000030: fd32 31be edb0 4c3e 2a80 4d3e d2a8 afbc
00000040: 8566 e1bf 1435 e6bf 3c93 0340 3222 e93f
00000050: 0cec e13f 4c07 d53f 4e8a 3f3e 7acc 38be
00000060: 99e5 0340 187b ce3f 778c 10c0 f6b6 10c0
00000070: c14b 05be 5970 ab3d bf35 873f d9fb b43f

bias f4 [2]
0.1357226 0.9572214
00000000: defa 0a3e 760c 753f
