matrix/result/0817/save/mse_inverse.pt (torch, 42503 bytes, 8 tensors)

weight f4 [32, 2, 3]
0	0xbcdfbac5	-0.027310738
1	0x3ea24ca2	0.3169909
2	0x3e0037e8	0.12521327
3	0x3ca77652	0.020442162
4	0x3d9cac18	0.07650012
5	0xbe6e35ae	-0.23262665
6	0x3ea51835	0.3224503
7	0x3e038d02	0.12846759
8	0x3edf7333	0.43642578
9	0x3e4aec1b	0.1981663
10	0x3edec415	0.43508974
11	0x3e0869c7	0.13321601
12	0x3f01e21f	0.5073566
13	0xbe615229	-0.22003998
14	0x3c3b829f	0.011444717
15	0x3d0bc4ee	0.034123354
16	0x3db6e556	0.08930461
17	0x3eb2b6d3	0.3490511
18	0xbe851ca6	-0.2599842
19	0x3ea0656c	0.3132738
20	0xbea3a170	-0.31959105
21	0x3e2e88ff	0.17044447
22	0x3ece6ae4	0.40315926
23	0x3e80c449	0.25149754
24	0xbeb4226e	-0.35182518
25	0x3e1cf952	0.15329483
26	0x3db85466	0.09000473
27	0x3e843943	0.25824937
28	0x3e6431ce	0.22284624
29	0x3d92d19a	0.071688846
30	0xbe63c818	-0.22244298
31	0x3e65cb47	0.22440825
32	0xbc1499ca	-0.009069869
33	0x3e05be37	0.13060842
34	0x3ec6f281	0.3885689
35	0x3e1eb385	0.15498169
36	0xbcbaa061	-0.022781553
37	0x3b652bbb	0.0034968692
38	0xbe8a4724	-0.270074
39	0xbe8351e7	-0.25648424
40	0xbebce273	-0.36891517
41	0xbeaea9ea	-0.3411401
42	0xbe2e5e97	-0.1702827
43	0xbe8813f0	-0.2657771
44	0x3f13b924	0.5770438
45	0x3e02bc5b	0.12767164
46	0x3e35de30	0.17760539
47	0xbda3a00d	-0.07989512
48	0x3e635ae4	0.22202641
49	0x3e661671	0.22469498
50	0xbebf2782	-0.3733483
51	0xbed922d1	-0.42409375
52	0x3eb0416a	0.34424907
53	0x3dec861f	0.11549019
54	0x3eb26c55	0.34848276
55	0xbebe7968	-0.37202
56	0x3eb115a3	0.3458682
57	0xbe88b475	-0.26700178
58	0x3e9cc4c2	0.30618864
59	0x3e85f77f	0.26165387
60	0xbd4748f8	-0.048653573
61	0xbcc3574a	-0.023845334
62	0xbde1ffa6	-0.11035089
63	0x3ebe8158	0.37208056
64	0xbed25178	-0.4107778
65	0xbe3261c2	-0.17420104
66	0x3dc06934	0.09395066
67	0x3e0ead6d	0.13933344
68	0xbe583296	-0.21113047
69	0xbe5ac20a	-0.21363083
70	0x3e4ba375	0.19886573
71	0x3ec0272f	0.37529895
72	0xbe80c99e	-0.25153822
73	0xbe442637	-0.19155203
74	0xbcd096f2	-0.025462601
75	0xbeb3c38e	-0.35110134
76	0xbd3ee28f	-0.04660278
77	0x3f0bf43b	0.5466954
78	0xbec97b11	-0.39351705
79	0x3ea62f4a	0.32457954
80	0x3e83dbe3	0.25753698
81	0x3e80ff21	0.25194648
82	0x3d1fa5ed	0.0389766
83	0x3e0e6420	0.13905382
84	0xbea5650e	-0.3230366
85	0x3ebe58bb	0.3717707
86	0x3c4e4cac	0.012591522
87	0x3daaee1f	0.08346199
88	0x3e906c65	0.28207698
89	0x3ed03bdb	0.40670666
90	0x3c432846	0.011911457
91	0x3e43d83b	0.19125454
92	0x3eaf8876	0.342838
93	0x3bdc7484	0.006727757
94	0xbe7bf144	-0.24603754
95	0xbe120f97	-0.1426376
96	0xbe8059af	-0.25068423
97	0x3d505e34	0.05087109
98	0x3eb653cd	0.3561081
99	0x3eba869b	0.3643082
100	0x3e39803c	0.18115324
101	0xbb5127f6	-0.0031914688
102	0x3d10c2f4	0.03534217
103	0xbeb7b1aa	-0.35877734
104	0x3f084765	0.5323394
105	0x3eb8f074	0.3612095
106	0xbe2bd205	-0.16779335
107	0x3d96ad7d	0.07357309
108	0xbe87ce58	-0.26524615
109	0xbe1bc4f5	-0.15211852
110	0x3df9eb1c	0.12203047
111	0xbeb3678c	-0.35039937
112	0xbeaad95f	-0.33368966
113	0x3ebdba91	0.370564
114	0x3bc38478	0.0059667192
115	0x3e626072	0.22107103
116	0x3e2bd17d	0.16779132
117	0x3e814638	0.25248885
118	0xbe1bd0cf	-0.15216373
119	0xbe9eaa4c	-0.309893
120	0x3f26290d	0.6490639
121	0x3e4d3a05	0.20041664
122	0x3e994364	0.29934227
123	0x3b11ed02	0.0022266512
124	0x3cd6826b	0.026185235
125	0x3e29c665	0.16579588
126	0x3ea87ecb	0.32909235
127	0x3eaa65fe	0.3328094
128	0x3ec2e57b	0.38065705
129	0xbe7638ea	-0.24045148
130	0x3dfa351a	0.122171596
131	0x3eba3325	0.36367145
132	0x3ebe601d	0.37182704
133	0xbd619a07	-0.055078533
134	0x3e225319	0.15852012
135	0x3e6d0262	0.2314544
136	0x3e636ef3	0.22210293
137	0x3ead3150	0.33826685
138	0xbe156c49	-0.14592089
139	0xbe4503b8	-0.192397
140	0x3da5fbef	0.08104693
141	0xbe379009	-0.17926039
142	0x3e8c94d6	0.27457303
143	0xbdc55764	-0.09635809
144	0xbe950149	-0.29102543
145	0x3e861ea5	0.26195255
146	0x3e3a8db8	0.18218124
147	0x3e2e462b	0.17018954
148	0x3e04992d	0.12949057
149	0x3e968373	0.29397163
150	0xbd778e0d	-0.060438205
151	0x3ec7ac43	0.38998613
152	0x3e8ca364	0.27468407
153	0xbd51420b	-0.051088374
154	0x3e26a99b	0.16275637
155	0x3c96c5ff	0.018404959
156	0x3e13228f	0.14368652
157	0xbe11939e	-0.14216468
158	0xbe9c3273	-0.3050724
159	0xbea4c82d	-0.32183972
160	0x3e98ad5b	0.2981976
161	0x3de6cbe8	0.11269361
162	0x3cd37f3e	0.02581751
163	0xbe97e69e	-0.29668134
164	0xbddcf10a	-0.10788162
165	0xbe74a323	-0.23890357
166	0x3ebabcd4	0.3647219
167	0xbe72574a	-0.2366611
168	0x3eda334e	0.42617267
169	0xbe9a9642	-0.30192763
170	0x3e8d25b9	0.27567843
171	0x3e0b2e8e	0.13591978
172	0x3eb71d4a	0.35764533
173	0x3ea9b8a0	0.3314867
174	0x3ec77181	0.38953784
175	0xbd6f7a59	-0.05846629
176	0xbe84f684	-0.25969326
177	0x3d2f569c	0.042807207
178	0x3e98ee80	0.2986946
179	0x3ed0b5b8	0.4076364
180	0xbca3e13c	-0.020004861
181	0xbea01619	-0.3126686
182	0x3e095c5e	0.13414142
183	0x3ebaaac8	0.3645842
184	0x3e9c26b2	0.30498272
185	0x3daef53a	0.08542867
186	0x3cec9575	0.02887986
187	0x3e104f0f	0.14092658
188	0xbded047e	-0.115731224
189	0x3ea6875f	0.32525155
190	0xbed9d0c5	-0.4254209
191	0x3f060b76	0.5236124

bias f4 [32]
0	0xbe76631f	-0.24061249
1	0x3ed7b623	0.42131147
2	0xbedb2927	-0.42804834
3	0xbc6769ed	-0.014124376
4	0xbe58faf8	-0.21189487
5	0xbeb7890c	-0.35846746
6	0xbbdcb93d	-0.0067359493
7	0xbe8eab94	-0.2786528
8	0xbee2c43e	-0.44290346
9	0xbebcfab8	-0.36910033
10	0x3e0eac83	0.13932995
11	0xbe9fdf8f	-0.3122525
12	0xbdb86f04	-0.090055496
13	0xbe637233	-0.22211532
14	0xbdaf38aa	-0.0855573
15	0xbed04be8	-0.40682912
16	0x3ea7613c	0.3269137
17	0xbeb5af4b	-0.354853
18	0xbebbe51e	-0.3669824
19	0xbe976a9f	-0.29573533
20	0x3e857b8e	0.26070827
21	0xbe252124	-0.16125923
22	0x3d8850e4	0.06656054
23	0xbe594f66	-0.21221694
24	0x3edeab17	0.43489906
25	0xbe573910	-0.21017861
26	0xbea2ca4f	-0.31794974
27	0x3e2e97c0	0.17050076
28	0xbc9816ba	-0.018565524
29	0xbe906958	-0.2820537
30	0x3e73ed30	0.23820949
31	0xbe3e7fef	-0.1860349

weight f4 [64, 32, 3]
0	0x3d5b6db1	0.053571407
1	0x3dd729b5	0.10506002
2	0xbee4fcd2	-0.44724137
3	0xbd0d271e	-0.034461133
4	0x3e018ea4	0.1265207
5	0x3e04dfc2	0.12975982
6	0xba7c965e	-0.00096354436
7	0x3c095d8f	0.0083841225
8	0xbe937723	-0.28801832
9	0xbd0e83e7	-0.03479376
10	0x3c809f74	0.015701033
11	0x3dec080f	0.115249746
12	0xbd76beca	-0.060240544
13	0xbcb99076	-0.022651892
14	0x3d0e8daf	0.03480309
15	0xbdbdbac6	-0.0926414
16	0x3c7b13ee	0.015324576
17	0xbd0a042c	-0.033695385
18	0x3d3e2c74	0.046429113
19	0xbc02c22b	-0.007980864
20	0x3c0eec8a	0.0087233875
21	0xbe16c83d	-0.14724822
22	0xbec07e1e	-0.3759622
23	0xbe186968	-0.1488396
24	0xbcc18714	-0.02362398
25	0xbd5e717b	-0.054307442
26	0x3da5850d	0.08082018
27	0xbd02caab	-0.03193156
28	0x3e0a336e	0.13496181
29	0xbce82d70	-0.028341979
30	0x3d048974	0.032357648
31	0xbc1aa12b	-0.0094378395
32	0xbca1df76	-0.019759875
33	0x3d2953f6	0.041339837
34	0x3d688c7d	0.056774605
35	0x3c85e3f8	0.016344056
36	0xbd4f7124	-0.05064501
37	0xbe7ae31f	-0.24500702
38	0x3dcf23ef	0.10114276
39	0x3cd92ea8	0.026511505
40	0xbcacf3bb	-0.021112313
41	0x3de8d4e0	0.11368728
42	0x3d572fde	0.052535884
43	0x3dc6b8c8	0.09703213
44	0xbd43db98	-0.047816843
45	0x3d657bed	0.056026388
46	0x3dd86a59	0.10567159
47	0xbb90b375	-0.004415924
48	0xbd870910	-0.065935254
49	0x3d1ecdf0	0.038770616
50	0x3a037256	0.0005014291
51	0xbe14eab7	-0.14542662
52	0xbe4821e6	-0.19544181
53	0xba435b55	-0.0007452269
54	0x3d5e32e0	0.054247737
55	0xbdb3cdc7	-0.08779483
56	0xbd425be3	-0.04745091
57	0xbdaac823	-0.08338954
58	0xbd31b156	-0.04338201
59	0xbb2512c1	-0.002518818
60	0xbd2494e0	-0.04018104
61	0xbe91bd39	-0.28464678
62	0xbedac7ab	-0.4273046
63	0xbd9c00df	-0.07617354
64	0x3d089a01	0.033349995
65	0x3def9007	0.11697393
66	0x3b1bdfaf	0.002378445
67	0x3dc41723	0.095747255
68	0x3ddae200	0.10687637
69	0xbd51b0de	-0.051194064
70	0xbca3fa7d	-0.020016903
71	0x3cc67bb0	0.0242289
72	0xbd0cd933	-0.034386825
73	0x3d5f6b1f	0.054545518
74	0x3d612273	0.054964494
75	0xbd98d4e8	-0.07462484
76	0x3d1c0ae5	0.038096327
77	0x3dd38d7b	0.1032972
78	0x3ccc4a9a	0.024937917
79	0xbd83d438	-0.06436962
80	0xbd20af9f	-0.039229985
81	0xbd1457f2	-0.036216684
82	0x3ddaa142	0.10675289
83	0xbbb3aeb3	-0.0054834723
84	0xbce3ba7f	-0.02779889
85	0xbd6078a7	-0.054802563
86	0x3dd84982	0.105608955
87	0x3cc0a680	0.023516893
88	0x3e058a01	0.13040926
89	0xbcb841b2	-0.022492263
90	0xbdef67bd	-0.116897084
91	0x3cd9c6e5	0.026584098
92	0x3dda80aa	0.10669072
93	0x3c9d0d9a	0.019171525
94	0xbe6e2f25	-0.23260172
95	0x3d4c4bb2	0.049876876
96	0x3d6654fc	0.05623339
97	0x3d40aad2	0.047037907
98	0xbd517dd8	-0.051145405
99	0x3d8d0ae6	0.06886844
100	0x3d8b56fe	0.06803702
101	0xbd33f900	-0.043938637
102	0xbd31248a	-0.043247737
103	0xbd5b7abd	-0.05358385
104	0xbd81d65a	-0.063397124
105	0x3d594131	0.053040687
106	0xbdcef301	-0.10104943
107	0xbdf89b52	-0.12139
108	0xbdc88a37	-0.097919874
109	0x3b18e83a	0.0023331777
110	0xbcf52870	-0.029926509
111	0x3cd10c31	0.025518509
112	0x3d9778bd	0.07396076
113	0xbdaa26f5	-0.08308212
114	0xbda24303	-0.07922938
115	0x3cdd7d47	0.027037276
116	0x3a4de692	0.0007854487
117	0xbd4a0f65	-0.049331088
118	0xbe0cf7ef	-0.13766454
119	0x3bb9acdc	0.0056663584
120	0xbdb82dd3	-0.08993115
121	0xbc60a08a	-0.0137101505
122	0xbd903822	-0.070419565
123	0xbd4429dc	-0.047891483
124	0xbde82234	-0.11334649
125	0xbd1b318e	-0.037889056
126	0x3d598957	0.053109493
127	0x3d4a3156	0.049363457
128	0xbe0a319c	-0.13495487
129	0xbde872e1	-0.113500364
130	0xbde1ec45	-0.11031393
131	0xbd4c5a72	-0.049890943
132	0x3d044e01	0.032300953
133	0xbda409ac	-0.08009657
134	0x3dc00553	0.093760155
135	0xbdf1b3d5	-0.11801878
136	0x3d247072	0.0401463
137	0xbd2f3129	-0.042771492
138	0xbd5aceba	-0.053419806
139	0xbd59cc9d	-0.05317365
140	0xbdc89f07	-0.09795957
141	0xbe551664	-0.20809323
142	0xbd2913cb	-0.04127864
143	0x3c6110ea	0.013736943
144	0xbdb57cb7	-0.08861678
145	0xbd6b5254	-0.05745156
146	0x3ce2382f	0.027614681
147	0x3c97f987	0.018551601
148	0xbd88b8d7	-0.066758804
149	0xbc848be0	-0.016179979
150	0x3d930c34	0.07180062
151	0x3cd46fac	0.025932156
152	0x3d9cb730	0.07652128
153	0xbe0104de	-0.12599513
154	0x3d1cc81f	0.038276788
155	0xbdc08a74	-0.09401408
156	0xbe0f4274	-0.13990194
157	0xbae959ec	-0.0017803288
158	0x3c1bef8d	0.009517563
159	0x3c22f048	0.009944983
160	0x3c041c39	0.008063369
161	0x3cf4f4f8	0.029901966
162	0xbcb1d819	-0.021709489
163	0x3d695d08	0.056973487
164	0xbd8ba9cf	-0.06819498
165	0xbdbc6ce1	-0.092004545
166	0x3cbc38ac	0.022976242
167	0xbdc52ffa	-0.096282914
168	0x3d84bec4	0.06481698
169	0xbda1a148	-0.0789209
170	0xbd1fe6de	-0.03903853
171	0x3d810684	0.06300071
172	0x3d92201f	0.07135033
173	0x3d7a486b	0.06110422
174	0xbc4bb638	-0.012433581
175	0xbe21fd17	-0.15819202
176	0xbd62776c	-0.05528967
177	0x3d78c389	0.06073335
178	0xbd326030	-0.043548763
179	0xbddae475	-0.10688106
180	0x3cd22d79	0.025656449
181	0x3d325ef6	0.043547593
182	0x3d20ffb4	0.039306358
183	0xbc08a048	-0.008338995
184	0xbd40552c	-0.046956226
185	0x3b069985	0.0020538282
186	0x3bb44559	0.005501431
187	0x3d34f57d	0.04417943
188	0x3d4921ad	0.04910438
189	0xbda26f9e	-0.079314455
190	0xbde71818	-0.112838924
191	0xbd614443	-0.05499674
192	0xbd98bff7	-0.074584894
193	0x3d3e93c0	0.046527624
194	0x3d6119a0	0.05495608
195	0xbdd23322	-0.10263659
196	0xbda57b27	-0.0808013
197	0xbcc6398a	-0.024197359
198	0xbc04817e	-0.008087514
199	0x3d3a162a	0.045431294
200	0xbbb812a7	-0.005617458
201	0x3d0c17b4	0.034202293
202	0xbd1b8a10	-0.037973464
203	0xbd63da2a	-0.05562798
204	0x3c775d5d	0.015097943
205	0xbd9db292	-0.07700075
206	0xbda9d744	-0.08293012
207	0xbda0352f	-0.07822644
208	0xbde91699	-0.11381263
209	0xbc34c5e0	-0.011033505
210	0x3dbbff67	0.091795735
211	0x3d896fc8	0.06710774
212	0x3dba6e38	0.09103054
213	0x3cdb2012	0.02674869
214	0xbca4d057	-0.020118875
215	0xbca2f200	-0.019890785
216	0x3d632bb9	0.05546162
217	0x3da8bf16	0.08239572
218	0x3d81ee34	0.06344262
219	0x3d89e9c6	0.06734042
220	0xbdd6b01a	-0.104828075
221	0xbc1e1aa3	-0.009649905
222	0xbb6bc4a7	-0.0035975368
223	0x3d95fb83	0.07323363
224	0xbc5645ed	-0.013078195
225	0x3ba88ea3	0.0051439567
226	0x3d75b6f3	0.059988927
227	0xbdace4b3	-0.084420584
228	0xbc1f7afc	-0.009733912
229	0xbcee96ed	-0.029124701
230	0xbce40c7a	-0.02783798
231	0xbd6cacbc	-0.05778192
232	0x3d86c159	0.06579847
233	0xbdde4c2c	-0.108543724
234	0x3c03be88	0.008041032
235	0x3c46db77	0.012137285
236	0x3d1b2992	0.03788144
237	0xbdaf0e3e	-0.08547638
238	0xbd91ff48	-0.07128769
239	0xbd8c001a	-0.06835957
240	0x3d806440	0.06269121
241	0xbbd56fc5	-0.006513568
242	0xbd1291b0	-0.03578347
243	0xbd25572b	-0.040366333
244	0xbda2f91a	-0.079576686
245	0x3c8f7a55	0.017514387
246	0x3d9dfd03	0.07714274
247	0x3d3934ff	0.045216557
248	0x3da12aaa	0.07869466
249	0xbd60e0f2	-0.054902025
250	0x3ca22e81	0.019797565
251	0x3cf0a9b1	0.02937779
252	0x3c54c404	0.012986187
253	0xbd96e259	-0.07367391
254	0x3c059b88	0.008154757
255	0x3d3e1acc	0.046412274

bias f4 [64]
0	0x3d6b53b2	0.057452865
1	0x3d312c41	0.043255094
2	0x3c2dec2b	0.010615389
3	0xbd06da9a	-0.03292332
4	0x3d878e5e	0.06618951
5	0x3d1648e9	0.036690626
6	0xbb8fd868	-0.0043898113
7	0x3d8b5395	0.068030514
8	0x3c5e6ce6	0.013575768
9	0x3da246b1	0.079236396
10	0xbd038096	-0.03210505
11	0x3cd7c0c7	0.02633704
12	0xbd2e76e6	-0.04259386
13	0xbd36f5f7	-0.044668164
14	0x3d2dd0aa	0.042435326
15	0x3b95baeb	0.0045694015
16	0x3d5fb66f	0.05461734
17	0x3db040a3	0.086060785
18	0xbdb9c09a	-0.09069939
19	0xbce4d32e	-0.02793273
20	0x3e17bb9f	0.14817666
21	0x3d6bf4ae	0.05760639
22	0xbda6b736	-0.081404135
23	0x3e0216db	0.12704031
24	0x3e1f60f1	0.15564324
25	0x3bb683e7	0.005569923
26	0xbd44880e	-0.047981314
27	0xbd275437	-0.040851798
28	0x3e169e2d	0.14708777
29	0xbddce389	-0.107855864
30	0x3d4a3a74	0.04937215
31	0x3d9ad9c3	0.07561066
32	0xbd44b303	-0.04802228
33	0x3da44998	0.080218494
34	0xbd522ba8	-0.051311165
35	0xbd88557d	-0.066569306
36	0x3dac4edd	0.084134795
37	0xbd9a1918	-0.075243175
38	0x3d60ad75	0.05485292
39	0x3db5d00f	0.08877575
40	0xbc05da10	-0.008169666
41	0x3d864ac6	0.06557231
42	0x3d4709fa	0.0485935
43	0x3dc7ec35	0.0976185
44	0x3da38e7d	0.07986162
45	0x3dd5d837	0.1044163
46	0xbc3e01ff	-0.011597156
47	0xbce4aafe	-0.027913567
48	0xbd9accbd	-0.07558582
49	0x3d9bb532	0.0760292
50	0xbddf4865	-0.1090248
51	0xbd619f81	-0.055083755
52	0x3dabc1ce	0.08386575
53	0x3d271b8e	0.040797763
54	0xbdeaa20a	-0.11456688
55	0x3d238cd3	0.039929222
56	0xbc0ee7c2	-0.008722248
57	0x3d813225	0.063083924
58	0xbd346993	-0.044045996
59	0x3d474e23	0.0486585
60	0x3c9a798a	0.018856782
61	0xbdd3b4b2	-0.10337199
62	0xbd4d2174	-0.05008073
63	0xbd71c537	-0.05902597

weight f4 [16, 64, 3]
0	0x3d61cada	0.055125095
1	0xbd786ce3	-0.060650717
2	0x3d4a35b1	0.04936761
3	0x3d24ed88	0.04026559
4	0x3ca33e1e	0.01992708
5	0x3d365b4c	0.04452066
6	0xbd028288	-0.031862766
7	0xbd8df96c	-0.06932339
8	0xbc2409eb	-0.01001213
9	0x3b755ada	0.0037438185
10	0x3c8c0ec4	0.017096885
11	0x3c5934b7	0.013257197
12	0xbd197972	-0.037469335
13	0xbd130411	-0.03589255
14	0x3d4ac05b	0.04949985
15	0xbd427e1b	-0.047483545
16	0xbd44b5d2	-0.04802496
17	0x3bc7adba	0.006093708
18	0x3bef6bcb	0.007306551
19	0x3a21408b	0.000615128
20	0xbd55f8b6	-0.052239142
21	0x3d29b669	0.041433726
22	0xbd0ff328	-0.035144
23	0xbd2d596a	-0.0423216
24	0x3cfa8558	0.030581161
25	0xbd00eaae	-0.031473808
26	0x3d0d6dd1	0.034528557
27	0x3d8735c1	0.066020496
28	0x3cdf74d6	0.027277391
29	0xbce47d85	-0.027891884
30	0xbca80801	-0.020511629
31	0xbcd07051	-0.025444182
32	0xbc72dda9	-0.014823356
33	0x3d811f0f	0.06304752
34	0x3d50b4ec	0.05095379
35	0xbb788702	-0.0037922268
36	0xbc018825	-0.007905995
37	0x3d1aca15	0.037790377
38	0xbd25e62a	-0.040502705
39	0xbccdf8e0	-0.025143087
40	0x3cf41609	0.029795663
41	0xbc1484a6	-0.009064829
42	0x3c9a3943	0.018826133
43	0x3d19b617	0.03752717
44	0x3b7a15fa	0.0038160072
45	0x3cb85d17	0.022505326
46	0xbcd96f89	-0.026542442
47	0xbc236a5a	-0.009974087
48	0x3d5d5374	0.054034665
49	0x3cbc5c22	0.022993151
50	0xbcd98533	-0.026552772
51	0xbc94e8cb	-0.01817741
52	0xbd81c0d2	-0.06335606
53	0x3c921259	0.017831014
54	0x3d46d742	0.04854513
55	0x3ca3e88f	0.020008354
56	0x39121ffe	0.00013935563
57	0x39f0205d	0.0004580048
58	0xbd0d7d88	-0.034543544
59	0xbd39ce00	-0.045362473
60	0xba863419	-0.0010238915
61	0xbc18015b	-0.009277667
62	0xbd85c3e5	-0.065315045
63	0xbbe753b1	-0.0070595373
64	0xbd8da4f9	-0.06916232
65	0xbb9cfe58	-0.0047910623
66	0xbca1e41f	-0.019762097
67	0xbce67bfb	-0.02813529
68	0x3c70373e	0.014661608
69	0xbd4eecb0	-0.05051869
70	0x3d094517	0.033513155
71	0xbbd26cae	-0.006421647
72	0xbd8a390a	-0.067491606
73	0xbd1300c3	-0.0358894
74	0x3c66e4d7	0.014092646
75	0xbd853e06	-0.06505971
76	0x3c3f0aba	0.011660272
77	0xbd78b564	-0.060719863
78	0xbd0a423a	-0.033754565
79	0xbce63d87	-0.02810551
80	0x3d47b3a8	0.048755318
81	0xbd93daa5	-0.072194375
82	0x3c3b6961	0.0114386985
83	0x3d586471	0.052830163
84	0x3c5a7e17	0.013335726
85	0x3bca06bd	0.006165354
86	0x3ca2b6c3	0.019862538
87	0x3c03370c	0.00800873
88	0xbc2b2613	-0.010446089
89	0xbd42c253	-0.047548603
90	0xbc37b0a7	-0.011211551
91	0x3cf3a44f	0.029741434
92	0xbd0e9ab2	-0.034815498
93	0x3be8c232	0.007103228
94	0x3d1d2a8f	0.038370665
95	0x3ca052e7	0.01957078
96	0xbc9fa7e0	-0.019489229
97	0xbd5a74ea	-0.053334154
98	0xbd5fdf47	-0.054656293
99	0x3d798fee	0.060928278
100	0x3d4b682f	0.049659904
101	0xbda82891	-0.082108624
102	0xbd3c1323	-0.045916688
103	0x3ccb6929	0.024830418
104	0x3c821671	0.015879842
105	0xbd30e571	-0.043187562
106	0x3d84227c	0.0645189
107	0x3c83c812	0.016086612
108	0xbd81fb87	-0.06346803
109	0xbd0248c9	-0.031807695
110	0xbc30217e	-0.010750173
111	0xbd5d7b45	-0.054072637
112	0xbb38b873	-0.0028186112
113	0xbcdf5ab2	-0.027264927
114	0xbd4cc76c	-0.04999487
115	0xbdbdd466	-0.092690274
116	0x3b28abb0	0.00257371
117	0xbcc475cc	-0.023981951
118	0xbd2c9792	-0.042136736
119	0xbd8ddd55	-0.06926981
120	0x3cd08ba4	0.02545721
121	0xbd29674d	-0.04135828
122	0xbd9af1b3	-0.07565632
123	0xbcd857fd	-0.026409144
124	0xbd36585c	-0.04451786
125	0x3c924971	0.017857285
126	0x3d020992	0.03174741
127	0x3d3e9286	0.046526454
128	0x3cfba21c	0.030716948
129	0x3bed58de	0.00724326
130	0x3bb63b1f	0.005561247
131	0xbd330957	-0.04371008
132	0x3c4198dd	0.011816231
133	0xbdbe654f	-0.09296667
134	0xbdbbe8cf	-0.09175264
135	0xbd48387e	-0.048882
136	0x3d554f4e	0.052077584
137	0xbccd0e35	-0.025031189
138	0xbcd86963	-0.02641744
139	0x3d4e1637	0.050314154
140	0xbbd29932	-0.0064269537
141	0xbd2ada72	-0.041712232
142	0x3caa219a	0.020767976
143	0x3b2509e5	0.00251829
144	0xbd1a9dd6	-0.03774818
145	0x3d60a9e7	0.05484953
146	0x3d3cb80a	0.04607395
147	0xbd882684	-0.06647971
148	0xbd7e1591	-0.062032286
149	0x3d62733e	0.055285685
150	0xbd431442	-0.04762674
151	0xbce84414	-0.028352775
152	0xbcea810b	-0.028625986
153	0x3d613a81	0.054987434
154	0x3d73e5f6	0.05954548
155	0x3d61e980	0.055154324
156	0x3bae58a7	0.005320627
157	0xbd922989	-0.071368285
158	0xbd262ca1	-0.040569905
159	0x3cec1418	0.028818175
160	0x3cfa0ae1	0.030522766
161	0x3d44f0c6	0.048081182
162	0xbd77526d	-0.06038134
163	0xbd9d26fa	-0.0767345
164	0xbd7f5cd7	-0.0623444
165	0x3d50fc8d	0.0510221
166	0x3d07b644	0.033132806
167	0xbcc917df	-0.024547515
168	0xb95f88a6	-0.00021317843
169	0xbda8a783	-0.08235075
170	0x3ceb098c	0.028691076
171	0xbd6baebe	-0.057539694
172	0xbd180dc7	-0.037122514
173	0x3cd22d58	0.025656387
174	0x3d59878d	0.053107787
175	0x3d3ef8a8	0.046623856
176	0xbd9648fb	-0.07338139
177	0x3cfc53f8	0.030801758
178	0x3d81a3a5	0.06330041
179	0x3c0c5c7a	0.00856697
180	0xbd884038	-0.06652874
181	0xbcb5a1d5	-0.022171894
182	0xbd88e302	-0.06683923
183	0xbad186ba	-0.0015985586
184	0xbd169b89	-0.036769424
185	0x3ae1eb95	0.0017236347
186	0x3d547281	0.051867012
187	0xbd9a005b	-0.07519599
188	0xbd8f1d9e	-0.06988071
189	0x3c5c2e36	0.013438752
190	0xbb0d62d8	-0.0021573808
191	0x3d0d4ec5	0.03449895
192	0x3c8a2c51	0.016866835
193	0xbc17e9fc	-0.009272095
194	0x3d6dc5a6	0.05804982
195	0x3d20d451	0.03926498
196	0x3cc8e8f1	0.024525138
197	0x3d330631	0.043707076
198	0x3d2beec3	0.041975748
199	0xbd17ae05	-0.037031192
200	0xbbc895a3	-0.0061213537
201	0xbd3d760a	-0.04625515
202	0xbc04663b	-0.008081014
203	0xbcac5963	-0.021038717
204	0x3c6a613d	0.01430541
205	0xbd9676ac	-0.073468536
206	0x3d1969fd	0.037454594
207	0xbcfc81fd	-0.030823702
208	0x3c25271c	0.010080125
209	0xbd53267d	-0.051550377
210	0x3d91a9aa	0.07112439
211	0x3d113a23	0.035455834
212	0xbd5c5857	-0.053795185
213	0xbc1bc94f	-0.009508445
214	0xbd1ab8a1	-0.037773732
215	0xbd169f2e	-0.0367729
216	0xbd848e45	-0.06472448
217	0x3d5edfcf	0.05441266
218	0x3c925420	0.01786238
219	0x3d2fd29f	0.042925473
220	0xbcace910	-0.021107227
221	0xbd515370	-0.051104963
222	0x3d37fa0f	0.04491621
223	0xbda0e52c	-0.07856211
224	0xbbaa0620	-0.0051887184
225	0x3cb3b144	0.021935113
226	0xbc8d83bb	-0.017274728
227	0xbd42b5d6	-0.047536694
228	0xbce3f723	-0.027827805
229	0xbb3580fb	-0.0027695287
230	0x3d223cb8	0.039608687
231	0x3d76a9c6	0.060220502
232	0x3d4c13b9	0.049823496
233	0x3cf5fcdb	0.030027797
234	0xbd64e1c0	-0.055879354
235	0x3c771f80	0.015083194
236	0xbcde7e85	-0.027159939
237	0x3d4acc03	0.049510967
238	0xbd0ca475	-0.034336526
239	0xbd507bd8	-0.050899357
240	0xbd843d7f	-0.06457042
241	0xbcc49c0d	-0.024000192
242	0xbcb97b5d	-0.022641832
243	0x3c52bafc	0.012861963
244	0x3ae855c7	0.0017725759
245	0xbd296097	-0.04135188
246	0x3d34f29c	0.044176683
247	0x3bc37635	0.005965019
248	0x3d46549d	0.048420537
249	0x3d0e461d	0.034734834
250	0x3d553fbf	0.052062746
251	0xbd1d01b6	-0.03833171
252	0xbc36cc39	-0.011157089
253	0xbdaa169f	-0.08305096
254	0xbbfe26d4	-0.0077560935
255	0xbc8ca1c4	-0.01716698

bias f4 [16]
0	0xba1d8ae2	-0.000600977
1	0x3d07583b	0.033043128
2	0xbc372e74	-0.011180509
3	0x3c8ddf6f	0.017318456
4	0x3cdee806	0.027210247
5	0xbd49c649	-0.049261365
6	0xbc6d220f	-0.014473452
7	0xbd5ac632	-0.05341167
8	0xbc9bb08d	-0.019005084
9	0x3df787c8	0.12086445
10	0x3d8589d6	0.06520431
11	0xbd5ef375	-0.054431397
12	0xbb82f64a	-0.003996645
13	0x3ad69d77	0.0016373832
14	0xbc9eff36	-0.019408803
15	0x3db08a86	0.08620171

weight f4 [2, 16]
0	0xbe54bde4	-0.20775563
1	0x3e38214a	0.17981449
2	0x3e4e131d	0.20124479
3	0x3d42e190	0.047578394
4	0xbd9280df	-0.071534865
5	0x3e688e77	0.22710596
6	0xbe399424	-0.18122917
7	0x3e0a1d40	0.1348772
8	0xbe20e858	-0.15713632
9	0xbcd9f95b	-0.02660816
10	0xbd906778	-0.07050985
11	0xbe64019e	-0.22266242
12	0xbd0af442	-0.03392435
13	0x3e0f80de	0.14014003
14	0x3da779fa	0.08177562
15	0x3e32e7fb	0.17471306
16	0xbe0c6881	-0.1371174
17	0xbdaaedce	-0.08346139
18	0x3e0c5667	0.13704835
19	0xbe135361	-0.14387275
20	0xbe28f28d	-0.16498776
21	0x3dc7e05c	0.0975959
22	0xbe552385	-0.20814331
23	0x3e1624cb	0.14662473
24	0xbd0a58c3	-0.033776056
25	0x3cdc0976	0.02685998
26	0xbe3f70e5	-0.1869541
27	0x3d7c396a	0.06157819
28	0x3d4e210e	0.050324492
29	0xbdbef6ba	-0.09324403
30	0xbe8b2c22	-0.27182108
31	0x3e14c6d2	0.14528969

bias f4 [2]
0	0x3fc09747	1.5046166
1	0xbda18d1b	-0.07888242
