sort/save/light.pt (torch, 43399 bytes, 8 tensors)

weight f4 [32, 4, 3]
000000 f9 e3 8e 3d 05 74 bc ba e3 61 85 3e cf dd 2d 3d
       0.06977076 -0.0014377838 0.26051244 0.04244786
000010 ac 0d 52 bb 18 95 a9 3d 63 8a 4d be 76 76 b8 3b
       -0.0032051606 0.082803905 -0.20072322 0.005629356
000020 5a 37 57 3e 7c 17 01 3e f4 91 32 3e 1d c8 d7 bd
       0.21017209 0.12606615 0.17438489 -0.105362155
000030 82 e1 87 be 70 c2 8c be 86 2c 76 bd f2 99 56 bd
       -0.26539236 -0.27492094 -0.060101055 -0.052392907
000040 2c ab a2 bd 47 3b 7e be 20 18 10 3e ce d0 83 be
       -0.07942805 -0.248273 0.14071703 -0.25745243
000050 69 89 73 3e 12 c6 cf 3d 4c fb 37 bd f3 6b 66 3d
       0.23782887 0.10145201 -0.04491739 0.056255292
000060 fb 3c 2f bc 50 03 2c 3f 3f 10 3d 3e d4 0e fa 3d
       -0.010695691 0.67192554 0.18463229 0.122098595
000070 25 5d 0b ba a7 f9 9d bc 5c ac b3 3d 0c 2c 06 ba
       -0.0005316309 -0.019284083 0.08773109 -0.0005118258
000080 38 f7 80 be fa 2c 2d be 2b 12 2c bf 1d d7 1e be
       -0.25188613 -0.16911688 -0.6721522 -0.15511747
000090 bd ae 7d bd 29 bb 31 3e e1 c4 10 3e b9 3f 51 3e
       -0.06193422 0.17356552 0.14137603 0.20434465
0000a0 8e ee 35 3e 86 8e 4b be 54 dc 1e 3e 46 91 0d 3e
       0.17766783 -0.19878587 0.15513736 0.13824949
0000b0 58 c3 32 3e 47 97 8c bd d7 2b ce be f8 bb 05 bd
       0.1745733 -0.06864791 -0.40267822 -0.032649964
0000c0 67 dd 09 be 8a 6b b3 3e 4c 9d 05 3d c0 c4 6e be
       -0.13463365 0.35042983 0.032620713 -0.23317242
0000d0 96 df bd 3e ee 44 bb bd f8 98 d6 3d e7 8f c1 be
       0.37084645 -0.09144007 0.10478395 -0.378051
0000e0 c4 31 b9 bc 96 0c 8e 3d ed 93 c3 be 36 08 65 3e
       -0.022606738 0.06935994 -0.38198796 0.22366413
0000f0 c3 7e e0 bd 41 13 93 bb 83 b2 e7 bd 3b 4f a3 bd
       -0.10961678 -0.004488379 -0.11313345 -0.079740964
000100 b8 18 f4 3e 48 74 25 be f6 a6 7c be 68 54 f5 bb
       0.4767511 -0.16157639 -0.24673066 -0.0074868686
000110 a2 fe cf bd f2 70 65 3e c9 66 ee be db 66 e2 3d
       -0.10155989 0.22406366 -0.46562794 0.110547744
000120 ee c7 06 3e 6a cc d8 3e b9 c3 97 bd 73 93 2f be
       0.13162205 0.42343456 -0.07410378 -0.17146091
000130 68 a7 12 3d dc 52 8a bd 79 4a 43 3e 95 09 c2 bb
       0.035804182 -0.067540854 0.19071378 -0.0059215524
000140 30 4d 28 be f0 3f fa 3c cf c3 7d bb a5 1a 60 be
       -0.16435695 0.030548066 -0.0038721447 -0.21885164
000150 0d b6 87 bc bb db 09 bf b6 38 5c 3e 27 be 88 be
       -0.0165663 -0.5385091 0.21506009 -0.26707575
000160 06 23 ff b9 3b f6 19 3e 96 c1 4d be 3c 7a 1c bb
       -0.00048663485 0.15035336 -0.20093378 -0.0023876568
000170 cc e9 87 bc 40 2d e3 3d 0b e7 09 3f 85 7c 83 be
       -0.016590975 0.11092615 0.5386817 -0.25680938
000180 98 22 24 be 5f 5c 47 39 41 8b 39 3d 01 6d 0d 3e
       -0.16028821 0.0001901253 0.04529882 0.13811113
000190 33 62 02 38 74 72 67 3e 82 24 8f 3e 67 cc 8f 3e
       3.108587e-05 0.22602254 0.2795754 0.28085634
0001a0 c9 7a d6 bd df ab 7c bc 49 63 8f be 45 d0 25 3d
       -0.10472638 -0.015421837 -0.28005436 0.040481824
0001b0 fb ab e5 bd 29 e7 66 ba af 59 80 3e 86 5a 89 3e
       -0.11214443 -0.0008808249 0.25068423 0.26826876
0001c0 f0 a2 fd be 88 70 1b 3e dd 7e bc 3c e3 30 fe 3e
       -0.49538374 0.15179646 0.023009712 0.49646673
0001d0 a6 97 d2 3d 08 76 88 be 14 51 99 39 2c b5 0c 3d
       0.10282831 -0.2665255 0.00029242842 0.034352466
0001e0 7e 3c e0 bb f8 71 20 be 67 b3 d9 bc 5a 7d 88 be
       -0.0068431487 -0.15668476 -0.026574804 -0.26658136
0001f0 38 40 ef bd 5a 0a 5f 3c 8c 86 b8 3d ab b4 7f be
       -0.11682171 0.013613308 0.09010038 -0.24971263
000200 f0 9d df bc 8a 59 8b be d2 f3 8e be 65 75 28 bd
       -0.02729699 -0.2721675 -0.27920395 -0.04112758
000210 6f 70 a9 bd ef 40 5d be 85 d4 73 be 57 d9 e7 bb
       -0.08273398 -0.21606801 -0.23811539 -0.0070754695
000220 4e d1 58 3e a7 0e 80 3d fa 35 8b 3e 23 32 34 bc
       0.21173593 0.06252795 0.27189618 -0.010998282
000230 d4 bd 81 be 5d 2c 13 be b4 66 83 3c 7f 5b 78 be
       -0.2534014 -0.14372392 0.016040184 -0.24253653
000240 c2 53 8b 3e be eb e2 be 7e 06 6a be f2 1d c4 bd
       0.2721234 -0.44320482 -0.22854039 -0.09576024
000250 34 2f ea b7 81 ac e9 bd a3 c7 7f be 14 cf e2 3e
       -2.7916954e-05 -0.11409856 -0.24978499 0.44298613
000260 4a 28 49 be 48 74 26 3e 92 b4 32 b9 0b 24 34 be
       -0.19644275 0.16255295 -0.0001704267 -0.17591874
000270 df 02 04 bd ed 49 c6 bb 48 34 1b 3e 5a 92 59 bd
       -0.0322293 -0.006051293 0.15156662 -0.053118087
000280 06 c5 d5 be 8c 29 2c 3d 15 4a 25 be 5c 3c 2c bc
       -0.4175188 0.04203181 -0.16141541 -0.010512438
000290 45 3f 94 3d 1b 34 98 bd 80 c2 dd 3e 25 be 45 3e
       0.0723863 -0.07431813 0.43312454 0.19310816
0002a0 e2 46 5d 3e df 3c 02 3e 3c 99 82 bd 3d 3a 70 3e
       0.21609071 0.12718533 -0.063768834 0.23459716
0002b0 04 fe b7 bc 29 cf 85 be e8 b7 80 3c ec 37 a4 3e
       -0.022459991 -0.26134613 0.015712693 0.32073915
0002c0 6d 08 18 be 6d a0 92 3c 62 2e 67 3e 7e c0 7b be
       -0.14846964 0.017898763 0.22576287 -0.24585149
0002d0 02 ad fc 3d de 75 83 3d 5f 22 73 3e fa 81 e6 bd
       0.12337686 0.06418966 0.2374358 -0.1125526
0002e0 ca a7 7d bc b3 4d 66 be 2a d9 a2 3c 5f 32 b3 3e
       -0.015481899 -0.22490577 0.019878943 0.34999368
0002f0 bb 13 7e be fe 81 7a 3e 48 a1 3c 3c 93 6f 0b be
       -0.24812214 0.2446365 0.011513062 -0.13616781
000300 aa d4 b4 bc eb e1 58 3b ac 5f 37 3e 49 ac cd bd
       -0.022074062 0.0033093642 0.1790759 -0.100426264
000310 e9 0f ea be 5a 43 73 3e d4 1e 6a 3e 87 d2 14 3c
       -0.45715263 0.23756161 0.22863322 0.009083397
000320 25 12 c4 3d 7c 7d 02 3b 83 dc e4 3e 89 a1 5b 3e
       0.09573773 0.001991122 0.44699487 0.2144834
000330 00 b6 80 be ae bd 1c be e9 80 e0 bb ce 5c 2b 3d
       -0.25138855 -0.15306732 -0.006851305 0.041836552
000340 71 23 20 be 62 74 80 be ea ab 89 be 20 2b 15 be
       -0.1563852 -0.25088793 -0.26888973 -0.14567232
000350 78 ef 75 bb 5f 23 8a bd ce c7 c7 3e 0e 65 3f 3e
       -0.0037526768 -0.06745028 0.39019626 0.18690893
000360 80 f6 8d be 17 7f 0a bb 91 9a 30 3e b5 e8 31 be
       -0.27727127 -0.002113288 0.17246462 -0.17373927
000370 33 51 96 3e bc 86 1e 3e 9f 56 81 3d ad 9a d8 b9
       0.29358825 0.15481085 0.0631535 -0.00041313973
000380 80 46 33 3e ce 33 06 3d 88 a0 0f 3c 23 0a ae 3d
       0.17507362 0.03276425 0.008766301 0.08498027
000390 00 62 1d be 56 39 32 b8 e0 d2 df 3d 81 00 2f 3e
       -0.15369415 -4.2491905e-05 0.10928893 0.17090036
0003a0 af 4a de 39 50 6c 88 bd 8d 0f 0b 3e 31 a4 e3 be
       0.00042398783 -0.06661284 0.13580151 -0.44461206
0003b0 23 87 25 be 76 15 33 be bc 5f e3 3e 89 e3 9f 3b
       -0.16164832 -0.17488655 0.44408977 0.004879419
0003c0 be a7 37 3e 77 1b 52 bb b3 73 c2 3d 99 57 29 3e
       0.17935082 -0.0032059827 0.09494724 0.16537322
0003d0 f7 66 9c 3d fe 34 ce bd 37 e4 49 be 07 97 85 bd
       0.076368265 -0.10068701 -0.19715963 -0.06522947
0003e0 e1 21 80 3e 59 2a e7 3d 0f cc a4 3a 7e 0d 09 3e
       0.25025848 0.11287374 0.0012573021 0.13384053
0003f0 4c 49 31 3e d5 53 e7 3e 39 50 14 3e bb ef 83 bd
       0.17313117 0.45181146 0.14483728 -0.06442209

bias f4 [32]
000000 f2 83 dd 3d 30 39 dc bd 5e ff 3f 3c 9a bd 60 bd
       0.10816182 -0.10753095 0.011718599 -0.05486832
000010 03 08 21 3e 90 84 e5 3d 37 77 98 3d 33 e4 24 3d
       0.15725712 0.11206925 0.074446134 0.04025669
000020 71 1d 36 3b cd a3 76 3b 7a d8 1e 3d ef fe e0 3c
       0.0027788545 0.0037634254 0.038780667 0.027465312
000030 d1 f6 30 3c 4d f5 27 3e 25 e8 26 be 65 eb 85 3d
       0.010801033 0.16402169 -0.16299494 0.065390386
000040 e6 33 4e 3d e0 e5 76 3d c8 85 c8 3c 4c fa 01 3c
       0.050342463 0.06027782 0.024477854 0.007933211
000050 cc e3 cc bd 37 14 6f bf e0 54 43 be 0e bf 5e 3d
       -0.10004386 -0.9339022 -0.19075346 0.054381423
000060 70 a4 10 be 8f d5 a9 3c 6f b4 8d 3c 68 9a 80 3e
       -0.14125228 0.020731715 0.017297952 0.25117803
000070 5a 51 17 be 43 6c c7 39 38 24 a8 3d 1c 6c 8e 3c
       -0.14777127 0.000380369 0.08210033 0.017385535

weight f4 [64, 32, 3]
000000 97 3c e8 bc da 20 86 bb 45 d7 74 3d 18 46 9f 3d
       -0.028349204 -0.0040932717 0.05977561 0.07777041
000010 de f6 eb 3a a8 58 cc bd fa 96 c3 bd f9 cc e8 bd
       0.0018002649 -0.09977847 -0.09550281 -0.113672204
000020 9d fc c3 bd 60 91 e0 bc 0f cb 08 bd f8 cd 8f 3c
       -0.095696665 -0.02741307 -0.033396777 0.017554268
000030 49 49 d0 3d d0 17 1a bc 2c d4 d0 3d 0d 4a 70 bd
       0.10170228 -0.009405091 0.101967186 -0.05866437
000040 d1 b0 b6 bd f1 72 9d bd 41 0b 28 3d c3 1b 89 3d
       -0.08920444 -0.07687939 0.041026358 0.06694748
000050 3b 4d cb bd e1 27 3b bd 0b ba 98 bd c1 94 f7 bc
       -0.0992684 -0.04569233 -0.0745736 -0.030222299
000060 13 a9 b1 bd 21 59 69 bd 4b e0 b3 bc 79 47 63 3d
       -0.086748265 -0.056969766 -0.021957537 0.055488084
000070 1d 62 26 bc 43 a9 80 3d c3 51 4a bd 6f a7 9d bd
       -0.010155228 0.06282284 -0.04939438 -0.07697951
000080 38 ba 22 bd c2 ac 54 bc cc e9 69 bd 6f 72 cc bd
       -0.039728373 -0.012980642 -0.05710773 -0.09982764
000090 11 69 92 3d fc 54 22 bd 9b 4e 54 bc 1a f1 4c 3d
       0.07148946 -0.03963183 -0.012958194 0.05003462
0000a0 50 67 94 3d d0 fe a1 bd 3b b3 81 3d ab f5 40 bb
       0.07246268 -0.0790993 0.063330136 -0.0029443305
0000b0 ab 5c 58 bd 8a 4f 9b bd 1f 7f 53 bd 0b d4 5c bd
       -0.05282275 -0.0758353 -0.051634904 -0.053913157
0000c0 49 d7 b3 3d b4 42 0e 3d 91 87 a4 3c 03 f4 89 bd
       0.08781297 0.03473158 0.020084174 -0.06735995
0000d0 79 f0 bb bd e0 8d 3d 3c 13 bf 6d bd a1 28 c1 bd
       -0.09176726 0.01156947 -0.05804355 -0.094315775
0000e0 2e 90 27 bc d7 eb a4 bc 65 88 e0 3b 2d 0d 58 bc
       -0.010227246 -0.020131988 0.006852197 -0.013186735
0000f0 cc f7 68 3d 16 0a 71 bd 79 8f c4 bd 1f 65 ff bc
       0.056876943 -0.05884751 -0.09597678 -0.031176148
000100 60 28 ab bd ff 36 60 3d 40 5c 5b 3d f2 2e 71 3c
       -0.0835731 0.05473995 0.053554773 0.014720665
000110 19 f4 48 bd ad 1b 7a 3c 49 06 01 3d 17 32 9e bd
       -0.049060915 0.0152653875 0.031500135 -0.07724398
000120 8d 3a 59 bd 62 13 3b bd 07 fd 36 bd 8a 09 4a bd
       -0.053034354 -0.04567278 -0.0446749 -0.049325503
000130 84 c0 fc 3c 8e 30 00 bd c5 d9 a1 3d d2 1a e9 bd
       0.030853517 -0.031296305 0.07902864 -0.11382069
000140 93 0f 78 bd 53 30 dc bc 6a d8 9e 3d 8e c7 cc bd
       -0.060561728 -0.026878512 0.077561215 -0.099989995
000150 af 19 83 bb 9d 7e 61 3d d2 96 c0 3b d0 21 6b 3d
       -0.0040008645 0.05505239 0.005877354 0.057405293
000160 ec fb e6 bd f9 32 5d 3d f2 46 d6 3c f9 ed f0 3c
       -0.11278519 0.05400369 0.026156876 0.02941035
000170 d7 65 fd 3b 78 bf 48 bc ab 26 44 bc dd d4 1b 3d
       0.0077330875 -0.012252681 -0.01197211 0.0380448
000180 18 5f c9 3d d6 b1 d8 ba 4c de c9 bd c5 d4 18 bd
       0.09832591 -0.0016532491 -0.09856853 -0.037312288
000190 a5 a9 cc bc 1b 0f 96 3d 18 e9 7c bd e2 6b 86 be
       -0.024983237 0.073271 -0.061745733 -0.26254183
0001a0 1d 3e 0f 3d d8 d8 c8 3d 28 d9 a0 3d 09 36 0b bd
       0.034971345 0.09806985 0.07853919 -0.03398708
0001b0 93 2c 9c bd ab 85 66 bd 16 66 25 3b 7d 88 27 bd
       -0.07625689 -0.05627982 0.002523785 -0.04090165
0001c0 d0 5b 95 3e 39 6d 67 bd 33 74 c8 bb fb 58 3d 3d
       0.2917161 -0.056500647 -0.0061173677 0.046227437
0001d0 82 f9 9e 3d e6 83 ac bd 8c 6c 40 be ee 5b 9c 38
       0.077624336 -0.08423595 -0.18791407 7.455783e-05
0001e0 9c 0e 82 3d 54 8a c8 3d 83 18 50 bd 8f 59 3c bd
       0.06350443 0.09792009 -0.050804626 -0.045983847
0001f0 ce 8c 2c 3c e9 7b b4 3b 88 00 cf bd 30 0c 48 3d
       0.010531617 0.0055079353 -0.10107523 0.048839748
000200 9b dd 88 bc c8 be 88 3d 1a a2 dc 3d b1 94 72 3d
       -0.016707232 0.06677014 0.10773106 0.059223834
000210 bc c3 82 3d 0f 59 e0 3e 00 e0 c9 3d 20 33 1a bd
       0.063849896 0.43817946 0.09857178 -0.037646413
000220 5c dc f5 bd 9f 3c 46 bd 57 f0 a3 3d 7a 47 6c 3d
       -0.12004921 -0.048397657 0.080048256 0.057685353
000230 8e cc a6 bd ae 7e c1 3c 04 cb 98 3d df 4c 87 bd
       -0.081444845 0.023619976 0.07460597 -0.06606459
000240 ba f9 78 bd 93 a2 95 3d 30 8e 4d bc 24 e8 94 3d
       -0.060785033 0.07306399 -0.012546107 0.0727084
000250 2d d7 8e 3d 47 a9 6a bc 4a 4f 96 bd 57 03 3d bc
       0.06974635 -0.014322585 -0.07339342 -0.011536441
000260 3f cb 55 bc f0 8c 5a bd cf ba 2e 3e a2 b2 13 3c
       -0.013048946 -0.053357065 0.1706345 0.009014757
000270 e7 43 3e 3b c1 25 f3 3c 99 18 72 3d 44 1f 18 bc
       0.0029032172 0.029681088 0.05910549 -0.009284798
000280 17 25 0f be a8 d3 74 bc 20 94 7d 3d 93 fd 18 bc
       -0.13978992 -0.014943041 0.06190884 -0.009337801
000290 5f 54 b0 bc ac 49 ad bd 0c 2f ed 3d d3 09 bf bc
       -0.021524606 -0.084613174 0.11581239 -0.023320114
0002a0 da 26 98 3d 70 37 94 3d f0 f8 ea b9 04 3f 9e 3d
       0.07429285 0.07237136 -0.0004481743 0.07726863
0002b0 20 d1 58 3d 3d f4 39 3d 74 d4 0e 3c d8 02 15 3e
       0.052933812 0.04539894 0.008717645 0.14551866
0002c0 b3 3d cc 3d 89 c8 2a bd 31 78 84 3c 0b e1 8a bc
       0.09972706 -0.04169515 0.016170593 -0.016953012
0002d0 09 2b 8e bd 5b 54 84 bc ac fc 83 3b f2 c0 96 bd
       -0.06941802 -0.016153505 0.0040279236 -0.0736102
0002e0 0a 42 87 3e 02 58 79 bd 78 e9 96 bd 39 1f 75 3d
       0.2641757 -0.060874946 -0.073687494 0.05984423
0002f0 ae 7e 13 3b 06 83 68 3d 69 9e 00 bd d2 a8 cc bd
       0.0022505927 0.05676558 -0.03140107 -0.099931374
000300 55 1c 57 3d c5 eb 2c 3e a3 f9 95 3d a8 c4 bc 3c
       0.052517254 0.16886814 0.07323005 0.023042992
000310 9f f2 a8 3d 9c eb ac 3d cd 3f 65 bd 8c b4 45 3e
       0.08249401 0.084433764 -0.05596905 0.19307154
000320 3b a3 82 bd 1d 01 68 bd 5e 51 c7 3d 93 6f 8f 3d
       -0.0637879 -0.056641687 0.097323164 0.07003703
000330 94 ef 69 3a 04 45 36 bb 8c e5 21 bd 34 d3 0a bd
       0.00089239446 -0.0027812133 -0.039525554 -0.033892825
000340 4b 23 50 be 1d 58 bd bd 18 26 1c 3d 0f 51 23 3d
       -0.20325963 -0.09245322 0.038122267 0.039872225
000350 4a 25 a1 3d e4 77 62 bd 5a 78 41 3d df 91 bc 3d
       0.078684404 -0.055290118 0.047233917 0.0920751
000360 3d cc 64 bd f4 57 e9 3c 14 66 86 3d 76 0c a6 3d
       -0.05585884 0.028484322 0.065624386 0.081078455
000370 76 45 c5 bc ac e8 ca 3d ed 86 ae 3d 85 16 ba 3d
       -0.024080973 0.0990766 0.08521829 0.090863265
000380 1c 58 a2 3c dd c8 75 3d 3b 7d bd 3d 44 91 47 3c
       0.019817404 0.06000601 0.092524014 0.01218063
000390 14 7e 3e 3b 31 e8 e2 bc 07 0e 8b 3a df f9 ae 3c
       0.0029066848 -0.027698608 0.0010609039 0.021359382
0003a0 2c 88 98 3e 09 16 75 3d b3 be 46 3d fb 11 a5 3d
       0.2979139 0.059835467 0.04852171 0.0806007
0003b0 01 34 27 bd 64 f3 85 bd af dd 64 3c 13 55 ab bd
       -0.04082108 -0.06540564 0.013968869 -0.08365836
0003c0 d0 e5 30 bc a7 e0 27 3e fc b4 b8 bd c8 07 93 bc
       -0.010796979 0.16394292 -0.09018895 -0.017948046
0003d0 dd 49 6b bd fd 9a 3d 3d ab 11 d7 bc 90 04 5b 3d
       -0.05744349 0.046290386 -0.026253542 0.053471148
0003e0 4a b7 aa 3b e6 37 b0 3c a5 7f 26 3e 4f 80 b1 3c
       0.005209838 0.02151103 0.1625963 0.021667628
0003f0 6c eb e8 bc 80 39 9d 3c 4c ec b7 bc 0b 9e ab bd
       -0.02843257 0.019192457 -0.022451542 -0.08379754

bias f4 [64]
000000 16 f6 7a 3d 15 72 d4 3d cc 4c 90 3d 51 d9 3f bc
       0.061269842 0.10373322 0.07045898 -0.011709527
000010 97 a9 fb bd 11 a1 99 bc 54 f8 f1 bd 0b 5d 40 be
       -0.12288206 -0.01875356 -0.11814943 -0.18785493
000020 01 5b b0 3d dc 73 5c bd 30 fb c7 bd fd 32 eb 3d
       0.086111076 -0.05382143 -0.09764707 0.114843346
000030 01 8d 32 be 24 53 55 be 91 f3 b1 3c 4d 5f 91 bd
       -0.17436601 -0.20832497 0.021722587 -0.07098255
000040 95 73 ba bc fe d8 d1 3d b3 0e 7d be ea fd 74 bd
       -0.022760192 0.10246466 -0.24712639 -0.059812464
000050 c3 a6 ea bd 3a 86 06 3e 04 a6 e9 bd a1 11 c1 bd
       -0.114575885 0.13137141 -0.11408618 -0.094271906
000060 41 36 fd bc d1 56 d9 bc 60 f2 90 bc ea 90 eb bc
       -0.03090966 -0.026530655 -0.017693698 -0.028755624
000070 94 9b 2b 3e a3 3f 19 be c4 df 9c 3d 90 cf f6 bd
       0.16758567 -0.14965682 0.076598674 -0.12051308
000080 0b 92 18 be 2a a6 ea 3c 07 b2 49 bd dc ad 12 3d
       -0.14899461 0.028643686 -0.049242046 0.035810336
000090 c4 00 33 bd 31 44 bb bd b2 94 86 3d ec b1 1d 3e
       -0.043701902 -0.09143866 0.0657133 0.15399903
0000a0 ec 37 a1 bd cf d7 99 bd 13 45 01 be c1 cb d4 bd
       -0.078719944 -0.07511865 -0.12624006 -0.103904255
0000b0 41 8b 88 be 25 2f e8 bd ad 6b b9 bd c1 61 26 bc
       -0.26668742 -0.11337117 -0.09053741 -0.010155142
0000c0 8c db 91 3e 13 40 16 bd 4b e3 c9 bd af 21 b1 bc
       0.28487813 -0.0366822 -0.09857806 -0.021622507
0000d0 4a c1 93 bd 1e 2d ad bd c5 d1 0d 3e 0e 19 b8 3d
       -0.07214601 -0.08455871 0.13849552 0.08989154
0000e0 25 67 9c bd 93 18 da bd b4 a7 6d 3d 7a 45 84 bd
       -0.07636861 -0.106492184 0.058021262 -0.06458564
0000f0 64 cd 90 3d e7 89 17 3e 99 f8 2d 3e b1 51 03 3d
       0.07070425 0.147987 0.16989364 0.03206033

weight f4 [16, 64, 3]
000000 10 2a 7b bd 2a 68 0d bd 79 b2 4b 3d 63 83 01 bd
       -0.06131941 -0.034523167 0.04973075 -0.03161944
000010 36 de ef 3d d8 3f a4 3a 52 e0 cb 3b 5d 57 69 3d
       0.11712305 0.0012531234 0.0062218094 0.05696808
000020 6f ae 02 bd ee 9a 00 bd 95 d2 71 3f f2 4f 9b bb
       -0.031904634 -0.031397752 0.9446195 -0.004739755
000030 33 c3 8b 3d ac 76 1c 3e 3c e4 98 3b 65 7c 8a 3d
       0.06824341 0.15279645 0.0046658795 0.067620076
000040 58 cf 8c 3d 00 62 13 bd 81 f6 c0 bc e2 2b fe b9
       0.06875485 -0.035982132 -0.023555042 -0.0004847935
000050 c6 06 2d bd 1e 3b 5a bd 84 b3 f9 3d 6b c1 14 bd
       -0.042242788 -0.053279035 0.12192443 -0.03631727
000060 f6 50 06 bd 88 a3 9f bd 28 36 58 bd 0a 0d 29 bd
       -0.032792054 -0.07794863 -0.052786022 -0.0412722
000070 7b 0a d2 3c 13 86 90 3d 81 8c 09 3d f5 2b 1b 3e
       0.025639763 0.07056823 0.03358126 0.15153487
000080 c5 03 fc bc df d4 0d 3c 6d 8a be 3e b0 37 89 bd
       -0.030763516 0.008656709 0.37214985 -0.06700075
000090 fe 24 8f bd cf 83 60 bc c0 56 12 bd e7 fe 88 bd
       -0.069894776 -0.013703301 -0.035727262 -0.06689244
0000a0 fe d1 5a 3d 71 55 66 bd f7 cd 29 bc 54 18 d0 bc
       0.05342292 -0.056233827 -0.010364047 -0.025402226
0000b0 82 82 92 3d 07 08 4b 3c f5 eb ee 3c 00 f4 c4 3b
       0.07153799 0.012392051 0.029165247 0.0060105324
0000c0 dc 6b 1b 3d cc 88 1c bf 6e 39 40 bd bd 6c 86 3d
       0.03794466 -0.61146235 -0.04692977 0.06563709
0000d0 7b f4 66 3b e5 05 1e bd de 9b 41 bd 29 73 6d 3d
       0.0035240937 -0.03857984 -0.047267787 0.057971153
0000e0 d9 79 6f 3d e3 fb 8a 3d 9a 17 f7 bb 31 91 d4 3c
       0.058465812 0.06786325 -0.0075406553 0.025948139
0000f0 f9 f3 bb bc a6 87 13 3e d2 92 0e 3c 08 c1 2c 3a
       -0.022943484 0.14407215 0.008701997 0.0006590043
000100 16 43 e3 3c de 28 cf 3b b9 48 43 3c ab 76 93 3d
       0.02774195 0.0063220104 0.011919194 0.072003685
000110 f6 74 f3 3c e4 5f 7a bd 4a dd 14 bc 4f 59 65 3d
       0.029718857 -0.061126605 -0.009085963 0.055993374
000120 fe 32 21 bd d7 f7 0e bd 5f 21 1b 3d e8 6f 26 3c
       -0.03935527 -0.034904327 0.037873622 0.0101585165
000130 1c ac 57 3f 82 c4 c0 bb f0 5b 10 3d 79 c3 41 bd
       0.84246993 -0.0058828006 0.03524393 -0.047305558
000140 b9 98 db bc 25 69 8e bd eb 51 2a 3e 40 83 1c bd
       -0.026806222 -0.069536485 0.16632812 -0.038211107
000150 d3 3f 62 3d 54 a4 76 3b 27 79 8b bd 30 d5 9a bb
       0.05523665 0.0037634568 -0.06810217 -0.004725121
000160 a6 93 cb 3c e9 de 0a 3d 52 68 83 3d 0d 7b c2 be
       0.024850678 0.03390399 0.06416382 -0.37984505
000170 9e 45 88 3d 6a 8d 58 3d 74 50 f1 bc 4e 94 62 bd
       0.066539034 0.052869238 -0.029457308 -0.055317216
000180 82 ac 08 3c 07 63 d5 3c aa 4f 62 bd f8 f1 51 3d
       0.00834191 0.026048196 -0.055251755 0.05125615
000190 d3 a4 59 3e bf 0b 0d bd 2e 87 60 3d 3c e3 14 3d
       0.21254282 -0.03443503 0.054816417 0.03634952
0001a0 14 3f fe bb 0e c3 fc 3c b0 4e 1e bd 80 99 2d bc
       -0.0077589843 0.030854728 -0.03864926 -0.010595679
0001b0 5b 7c 8c 3d 64 bf 40 bc 45 da df bc cd 90 f4 bc
       0.068596564 -0.011764381 -0.027325759 -0.029854203
0001c0 7f 4c a5 3c a5 68 fe bc ce d4 53 3d 44 61 06 be
       0.020178078 -0.031055758 0.05171662 -0.13123041
0001d0 49 f6 83 bd 02 86 7a bd 0c d4 02 3d 92 24 8a bd
       -0.064434595 -0.061162956 0.031940505 -0.067452565
0001e0 b9 fe 4c bc 46 e1 5b bd 24 ff 80 3d 7f cd df 3b
       -0.0125119025 -0.053681634 0.06298664 0.006829917
0001f0 1d 05 86 3d d8 49 ac 3c c9 04 b6 39 af 22 c7 bc
       0.06543944 0.021031305 0.0003471731 -0.02430853
000200 3f 6d 91 bd d6 6f 03 3d 62 2c e0 3d 9d e9 76 bd
       -0.07100915 0.032089077 0.10945965 -0.060281385
000210 00 91 13 bd 13 07 37 3e ea 28 10 3d af f2 2c 3b
       -0.036026955 0.17873792 0.03519527 0.0026389768
000220 f7 79 de 3c 5a 30 fa ba 44 9a 9f bc 78 b7 bc bd
       0.027157767 -0.0019087896 -0.01948274 -0.092146814
000230 5a 86 f0 3c 07 b8 82 3d dc 0a b2 3e fa c7 fa 3b
       0.029360939 0.06382757 0.3477391 0.0076532336
000240 f4 b7 2c 3d 16 90 8a 3e d6 48 e4 ba 8d 1e 21 3c
       0.04216762 0.27063054 -0.0017416726 0.009833944
000250 26 73 e2 3c 7f 48 74 3d 40 4f 58 3d b7 9e 2a 3c
       0.027642798 0.05963945 0.052809954 0.010413817
000260 98 04 8e 3c 05 5d 89 bd 21 fd 9e 3c 27 df 90 3d
       0.017336175 -0.06707195 0.01940781 0.07073813
000270 31 6a c5 3c 34 b2 f1 3d 8a a2 f6 bc ff 9e ef bc
       0.024098488 0.11801568 -0.030106802 -0.02925062
000280 70 7d d4 bb 04 c0 10 bd 20 1d 08 3d 24 56 6f 3e
       -0.00648468 -0.03533937 0.0332309 0.23372704
000290 2a 93 5c 3a 68 ae f4 bc 3a 1f 28 bd 15 76 f9 bc
       0.0008414263 -0.02986832 -0.041045405 -0.030451814
0002a0 f8 56 6b 3c 67 b4 7e ba 6c 93 30 bc ca bd 6a 3d
       0.014363997 -0.0009716213 -0.010777336 0.057309903
0002b0 ce fe 6c bc 96 62 01 3b 62 40 a2 bc aa 16 28 bd
       -0.014465047 0.00197426 -0.01980609 -0.04103724
0002c0 ae 57 f8 bc d0 bc 41 3d 21 a0 27 3e a1 61 4e bd
       -0.030315246 0.047299206 0.16369678 -0.050386075
0002d0 4a ee 76 3d 00 f1 9c 3d 4a 90 9f 3c bd 14 55 bc
       0.060285844 0.076631546 0.019477982 -0.013005433
0002e0 f4 56 1a 3d ec b8 18 bd 7a 86 16 3d c2 2c bb 3e
       0.03768058 -0.03728573 0.03674934 0.36557585
0002f0 27 a5 f4 bc 51 dd 5a bc 8a 4b 13 bd 8a e4 23 3d
       -0.029863907 -0.01335843 -0.03596071 0.040012874
000300 58 31 81 3d 13 7b a5 3a c0 e1 3b bb ee 68 50 3d
       0.0630824 0.001262518 -0.0028668493 0.05088132
000310 45 d0 02 3e c2 a1 26 3d c0 6e 47 3d 10 36 9b bb
       0.12774761 0.040681608 0.048689604 -0.0047366694
000320 bd e1 5d bc c7 fa 0a 3b 84 18 c5 3f 2a 00 90 3d
       -0.01354259 0.0021206604 1.5398107 0.07031281
000330 c9 2c 80 3d 68 31 9e 3d 8a fb 10 ba 28 13 5f 3b
       0.06258542 0.07724267 -0.00055306463 0.0034038518
000340 fe fd 5b 3a 60 e9 23 bd 11 6c c1 3c 05 ab 81 3d
       0.0008392035 -0.040017486 0.0236111 0.063314475
000350 c0 6a 6b 3d 2d ce 0a 3b 89 97 c6 bd 54 c9 02 bd
       0.05747485 0.002118002 -0.09696872 -0.031930283
000360 9b 6e a4 ba 91 a8 62 3d 82 85 14 bc 53 cc c6 bc
       -0.001254517 0.05533654 -0.009065034 -0.024267351
000370 d8 08 37 bd 21 e8 46 bd 95 c0 15 bd 06 66 ea 3c
       -0.04468617 -0.04856122 -0.036560614 0.028613102
000380 9b 83 87 bb 8e c6 86 bd 07 1b 2c 3f 03 c6 4a bd
       -0.0041355616 -0.0658084 0.6722874 -0.049505245
000390 57 d8 de 3b 36 18 2d bd d2 43 8c 3d 11 19 1f bd
       0.006800692 -0.042259417 0.06848873 -0.038842265
0003a0 72 80 93 3d d0 3a 5b 3d eb e4 63 3c 07 d0 91 bc
       0.072022334 0.053522885 0.013909559 -0.01779939
0003b0 4d c0 87 bd 0e a3 83 bd ed a8 d5 3c 77 25 01 3d
       -0.06628475 -0.064275846 0.026081527 0.03152987
0003c0 e0 50 17 3d 28 2d ce 3d 82 2b a5 3c 4c 23 39 3d
       0.036942363 0.100672066 0.020162348 0.045199677
0003d0 25 76 41 3e 25 39 90 bd 88 66 e2 3c f5 5f 05 3d
       0.18892725 -0.070421495 0.027636781 0.032562215
0003e0 db fa 5d ba 79 fd 6d 3d 63 ba ef bc 16 ab 56 3b
       -0.00084678613 0.05810306 -0.02926368 0.0032755784
0003f0 c1 a4 7d 3d 1b 70 49 bd f6 fa 12 bd b3 e6 84 bd
       0.0619247 -0.049179178 -0.035883866 -0.06489315

bias f4 [16]
000000 20 d7 55 3d 37 dd 83 3b 4b 0e 04 bd a1 be 21 bc
       0.052207112 0.0040241736 -0.032240193 -0.00987211
000010 3f 91 da bc 5a 8d 95 3e 09 8b 62 3c 1f df 85 3d
       -0.026680587 0.29209405 0.013827094 0.065366976
000020 ef 3f 0d be 58 62 23 3d a7 76 64 3d 07 5b 2c 3e
       -0.1379392 0.03988871 0.05577722 0.16831599
000030 86 44 77 3d 21 d8 bf bc 05 df aa bd 66 fd 8e 3c
       0.060368083 -0.023418488 -0.08343319 0.017454814

weight f4 [4, 16]
000000 04 e1 d3 3e 5a 76 52 3e b0 3f d7 3d ca 60 59 3e
       0.4138261 0.2055296 0.10510194 0.21228328
000010 94 b0 7d be 73 bc 2d 3e 55 f5 4d 3e 44 67 52 3e
       -0.2477439 0.16966419 0.20113118 0.20547205
000020 0a 47 ab bd 4f 02 80 3d 75 4c 05 be 5e f0 85 3e
       -0.08363159 0.0625044 -0.13017447 0.26159948
000030 01 49 a4 b9 9d 8d 9e 3e e7 18 57 bd f4 78 23 3d
       -0.0003133491 0.30967417 -0.052513983 0.03991027
000040 f7 ee e2 bd 30 f8 04 bf 39 26 13 be a3 57 8e bc
       -0.11080735 -0.51941204 -0.1437005 -0.017375773
000050 75 6d a7 3e d8 f5 40 be 48 44 03 be d7 67 eb 3e
       0.32700697 -0.18843782 -0.12819016 0.4597766
000060 fa 3c 4e be 75 7c 21 3d 07 63 9d 3d d3 ff b2 bd
       -0.20140448 0.039425332 0.076849036 -0.08740201
000070 50 aa 38 be 86 8c 2b 3e 9b 46 7d 3d 86 a0 72 3e
       -0.18033719 0.16752824 0.061834913 0.23694047
000080 72 52 d0 3c a5 0a 16 3f 8f 8d 4b be 51 32 b5 3c
       0.025429938 0.5860999 -0.19878219 0.02211872
000090 cf 56 90 3e 81 80 48 bf 04 84 f0 bd 92 9e f8 3d
       0.2819123 -0.7832108 -0.1174393 0.1213962
0000a0 ac 31 27 3e a8 24 17 be 42 d7 4f 3e af 40 90 3e
       0.16327542 -0.14760077 0.20296958 0.2817435
0000b0 b8 25 ac 3d 74 13 27 3e ac 09 58 3e 33 48 79 bd
       0.08405632 0.16316015 0.2109744 -0.06085987
0000c0 52 05 6b 3e 26 30 4e be 0e 7c a1 3d a8 5d 30 bd
       0.22951248 -0.20135555 0.0788499 -0.043058068
0000d0 94 95 a4 3e 6a f7 17 3f bc 70 d1 3d 40 99 ee 3c
       0.3214537 0.593619 0.102265805 0.02912581
0000e0 c7 4b 79 3e e3 e7 66 bc 4b 9d 42 be ef 82 d7 3d
       0.24345313 -0.014093372 -0.19005315 0.105230205
0000f0 76 03 c2 bb 73 c1 8f 3e 2e dd 89 bd 3f d6 90 bd
       -0.0059208227 0.28077278 -0.0673164 -0.07072114

bias f4 [4]
000000 39 e7 0d 3e 36 4f 1d 3e 74 4a 96 3e 4d 25 87 3d
       0.13857736 0.15362248 0.29353678 0.065989114
