sort/save/more_light.pt (torch, 11457 bytes, 6 tensors)

weight f4 [32, 4, 3]
0.1446967 -0.2155192 -0.2845641 -0.027443657 -0.2141747 -0.11024515 0.096584186 -0.21781021
0.12008727 0.057517584 0.5551461 0.26678708 0.093769155 -0.11948371 0.16340691 -0.13199513
-0.041661356 -0.11091858 0.22425665 -0.26279595 0.18890586 0.23451237 -0.15704007 -0.22676389
-0.09876578 -0.21161671 0.21910049 0.072966814 -0.18479018 0.17543149 -0.2048708 -0.2500564
-0.071901776 -0.14845587 -0.013562102 -0.051204942 0.15757997 -0.14854302 0.08152461 -0.056265444
-0.21908964 0.0079417415 -0.20635569 0.52832687 -0.27702937 0.04431417 -0.21805578 -0.16269106
0.009232048 0.5829302 -0.055935185 -0.12391349 -0.001621978 -0.20701018 0.16219428 -0.033522204
-0.092339784 0.18887456 0.009829703 0.029893365 0.04133048 -0.0765017 0.2831004 -0.09643862
-0.09300529 0.13981828 -0.015756432 0.36748096 0.17001127 -0.28586984 -0.15075374 -0.07900175
0.18288632 -0.29788464 -0.070871115 -0.24203818 -0.14991772 -0.28088328 0.28842947 0.50842905
-0.21806318 -0.1553862 -0.15162867 0.24298126 -0.076761715 -0.27502534 0.057566073 0.033348784
0.2751265 0.27723444 0.21909212 -0.27982873 -0.25795937 -0.28723684 0.2910167 0.18369292
-0.19474901 -0.3553114 -0.044326488 0.25720957 0.3705851 0.15739916 -0.24706002 0.379345
-0.15497592 -0.12894078 -0.392255 -0.12238543 0.06607913 -0.0646891 0.20895705 0.2350401
0.7709985 0.061679773 -0.10839571 -0.056835935 -0.07679733 0.1846965 -0.089528196 0.20076974
0.17768335 0.27844736 -0.048348237 -0.066935115 0.5873274 -0.14075758 -0.005531541 -0.05960375
0.109474204 0.18439962 0.56794393 -0.15074518 0.24929066 0.071378216 -0.058477562 -0.012220727
-0.2743425 -0.10966238 -0.15070954 0.05896543 -0.28830367 -0.1504584 0.19025183 -0.27685866
0.19326073 0.032855764 0.20616026 -0.19282448 0.32785675 -0.1625125 0.23541513 0.14575846
0.23982148 0.0011477687 0.26058784 0.16522297 0.18912628 0.33636078 0.06696846 0.20036893
0.3947672 -0.051406603 0.08941997 -0.06911244 0.21726835 0.16234396 0.23640773 0.14469168
0.036759432 0.13395086 -0.18735345 0.08711287 0.11945524 0.053593706 0.15473697 -0.084710546
-0.07440792 -0.09148958 0.22331744 -0.10602044 -0.052542053 0.48407483 -0.21365777 0.24105218
-0.124942884 -0.019324861 0.14681566 -0.120181136 -0.06869977 0.10096541 -0.1769304 0.064694986
-0.015557079 -0.05704115 0.1601624 0.28623667 -0.09362538 -0.28075066 0.074420065 0.8574566
-0.20526063 0.014423557 -0.12497315 0.26626047 -0.008656082 0.24657528 -0.21687071 -0.165771
-0.1871174 -0.1758197 0.16487375 0.2553732 0.23415782 -0.053419027 0.24990591 -0.008889573
0.06685315 0.7542389 0.025146263 0.13601872 -0.08285585 0.111131355 -0.075704075 -0.066863015
0.16220236 -0.05994771 -0.098403834 -0.18094221 -0.08846801 0.7634151 0.10884528 -0.13239238
-0.0022958717 -0.19509687 0.21667807 -0.76002 -0.0742098 -0.13860327 -0.0015427995 0.21339233
-0.2756529 0.35282427 -0.091905534 0.026787717 0.33083236 -0.18203233 -0.06563982 0.41274056
0.073784634 -0.15359466 -0.27007046 0.05002142 -0.009049488 0.019375825 -0.1285281 -0.03336816
00000000: 5f2b 143e 11b1 5cbe 63b2 91be 85d1 e0bc
00000010: 9d50 5bbe 36c8 e1bd eecd c53d a409 5fbe
00000020: 51f0 f53d 8f97 6b3d 0e1e 0e3f 5198 883e
00000030: 0b0a c03d e0b3 f4bd 2454 273e bb29 07be
00000040: 19a5 2abd 4829 e3bd 89a3 653e 318d 86be
00000050: 8a70 413e 0324 703e 1dcf 20be cb34 68be
00000060: b745 cabd 0db2 58be e15b 603e a06f 953d
00000070: a339 3dbe 50a4 333e a7c9 51be 6407 80be
00000080: 3d41 93bd d104 18be 9433 5ebc 46bc 51bd
00000090: a55c 213e a91b 18be 60f6 a63d 9876 66bd
000000a0: 0959 60be 141e 023c e84e 53be 6e40 073f
000000b0: cbd6 8dbe c682 353d 044a 5fbe 7c98 26be
000000c0: 0442 173c ea3a 153f 4b1c 65bd 5bc6 fdbd
000000d0: 8d98 d4ba 7afa 53be 4216 263e 944e 09bd
000000e0: a41c bdbd 5568 413e c30c 213c eee2 f43c
000000f0: 264a 293d ecac 9cbd 89f2 903e 9c81 c5bd
00000100: 8f79 bebd 862c 0f3e a213 81bc 7726 bc3e
00000110: 6f17 2e3e 885d 92be 305f 1abe abcb a1bd
00000120: 8d46 3b3e 5684 98be e024 91bd dbd8 77be
00000130: 0884 19be efcf 8fbe 07ad 933e 6828 023f
00000140: f44b 5fbe 8f1d 1fbe 8c44 1bbe 14d0 783e
00000150: 3f35 9dbd 1fd0 8cbe 67ca 6b3d bc98 083d
00000160: 61dd 8c3e acf1 8d3e af59 603e b645 8fbe
00000170: 4013 84be b510 93be 2400 953e ff19 3c3e
00000180: 496c 47be 60eb b5be b18f 35bd f9b0 833e
00000190: 55bd bd3e 3f2d 213e 4dfd 7cbe 8239 c23e
000001a0: 02b2 1ebe 0d09 04be a6d5 c8be 36a5 fabd
000001b0: 7f54 873d b87b 84bd d6f8 553e 5aae 703e
000001c0: 2860 453f eea3 7c3d 92fe ddbd cccc 68bd
000001d0: eb47 9dbd 1421 3d3e 8f5a b7bd 9596 4d3e
000001e0: a0f2 353e a790 8e3e cd08 46bd 4715 89bd
000001f0: 175b 163f c122 10be ee41 b5bb 1023 74bd
00000200: 0334 e03d 41d3 3c3e c664 113f f25c 1abe
00000210: 0d46 7f3e be2e 923d 2b86 6fbd 7239 48bc
00000220: 9f76 8cbe ab96 e0bd 9a53 1abe bc85 713d
00000230: 8a9c 93be c411 1abe 60d1 423e 6bc0 8dbe
00000240: 24e6 453e c493 063d ad1b 533e c873 45be
00000250: d7dc a73e ad69 26be aa10 713e b541 153e
00000260: c393 753e ba70 963a c56b 853e 3630 293e
00000270: 52aa 413e 7b37 ac3e c326 893d 832d 4d3e
00000280: ed1e ca3e bb8f 52bd d121 b73d d38a 8dbd
00000290: 987b 5e3e 7f3d 263e de14 723e 0e2a 143e
000002a0: 0f91 163d 6a2a 093e 95d9 3fbe 3b68 b23d
000002b0: f3a4 f43d 1385 5b3d 5e73 1e3e b97c adbd
000002c0: 2e63 98bd e45e bbbd 54ad 643e 3f21 d9bd
000002d0: 5636 57bd a8d8 f73e 1ac9 5abe 62d6 763e
000002e0: 0ee2 ffbd 2c4f 9ebc d856 163e 8721 f6bd
000002f0: 77b2 8cbd f4c6 ce3d 3e2d 35be ce7e 843d
00000300: 1ee3 7ebc fba3 69bd 9d01 243e 9d8d 923e
00000310: aabe bfbd 8dbe 8fbe 8c69 983d 4782 5b3f
00000320: d82f 52be c850 6c3c ecf1 ffbd 4b53 883e
00000330: 3dd2 0dbc 3b7e 7c3e 5b13 5ebe dfbf 29be
00000340: b49b 3fbe 140a 34be aad4 283e 47c0 823e
00000350: 11c7 6f3e e9cd 5abd 56e7 7f3e 92a5 11bc
00000360: 4eea 883d cd15 413f 89ff cd3c 7e48 0b3e
00000370: 54b0 a9bd d698 e33d bd0a 9bbd 7aef 88bd
00000380: 6018 263e bb8b 75bd f387 c9bd ea48 39be
00000390: b72e b5bd 2c6f 433f 46ea de3d de91 07be
000003a0: 5676 16bb 79c7 47be dbe0 5d3e ac90 42bf
000003b0: 4ffb 97bd 04ee 0dbe c337 caba 8583 5a3e
000003c0: 6022 8dbe 62a5 b43e f838 bcbd ea71 db3c
000003d0: dc62 a93e af66 3abe 2c6e 86bd bb52 d33e
000003e0: 661c 973d eb47 1dbe ad46 8abe 43e3 4c3d
000003f0: 4e44 14bc 0dba 9e3c df9c 03be 0dad 08bd

bias f4 [32]
0.023595164 0.10214078 -0.06214844 1.3122424 1.2517711 2.194933 1.528133 -0.17094165
0.096615 -0.23147258 -0.24210837 1.6876835 0.47871527 -0.9873774 -0.13018937 2.8360662
1.3221825 2.2181563 0.88596445 0.05364698 1.1965797 -0.36335975 0.16222216 1.7730465
2.396941 -0.18131936 2.8656726 1.7219442 2.154658 0.48307618 0.20654675 -3.4325197
00000000: a54a c13c 2f2f d13d 5d8f 7ebd 8ff7 a73f
00000010: 093a a03f c879 0c40 dd99 c33f 540b 2fbe
00000020: 16de c53d 2607 6dbe 42eb 77be 0306 d83f
00000030: 2b1a f53e c4c4 7cbf 5d50 05be 1c82 3540
00000040: 473d a93f 46f6 0d40 91ce 623f f0bc 5b3d
00000050: 8629 993f 4a0a babe 911d 263e 30f3 e23f
00000060: 7b67 1940 c8ab 39be 2e67 3740 ab68 dc3f
00000070: ebe5 0940 c355 f73e fe80 533e 67ae 5bc0

weight f4 [16, 32, 3]
-0.06659197 0.031844273 -0.019411558 -0.09832971 -0.092885256 -0.045729913 -0.083168775 0.069668025
0.07327202 0.061939843 -0.015553666 -0.026416551 0.08254706 -0.02112963 0.066168 -0.01055104
0.06962407 -0.095975466 0.06498124 0.018211078 0.08849382 -0.013583286 -0.018698525 -0.06916814
-0.022697652 -0.0040325345 0.035222076 -0.03734576 -0.0746813 0.02206963 0.06715523 0.043112732
-0.090984195 -0.08856418 0.04381439 -0.021520993 -0.028025191 -0.108642146 -0.015209517 -0.05317534
0.077939585 0.09385142 -0.092251234 -0.0024843614 0.054313455 0.04479328 0.008423066 0.07692589
-0.03668676 0.026350088 0.079240724 -0.08607001 -0.06289908 -0.038389362 0.089488424 -0.041436024
0.066790745 -0.010104825 -0.054602437 0.032248355 -0.07087183 -0.082905285 0.085628435 -0.07724215
0.050152827 -0.07830568 -0.06297962 0.045169808 0.020991521 -0.06801689 -0.059883717 0.013358189
-0.03534478 -0.035359588 0.016992226 0.0427581 -0.065901585 0.066903524 0.05831578 0.044466913
0.013417404 0.087267965 -0.055135105 0.0980868 -0.09942959 -0.0064116325 0.0876821 0.06257095
-0.07184235 0.043154225 0.068034984 -0.053744815 0.06958255 0.041871328 0.0027141597 0.062013805
-0.04151366 -2.258019 -0.077517636 -0.016322227 -0.06542767 0.00025238702 0.0934976 0.009272011
-0.10115198 -0.05828563 0.28725034 0.08931597 0.075006865 -0.2367187 0.057541613 0.08159333
0.18186234 -0.007708474 0.020957734 -0.2100314 -0.058879647 -0.053329676 -0.19018857 0.052092075
-0.07432957 -0.017213246 -0.024746252 -0.09030489 0.198749 0.025429294 0.090883985 0.086897306
0.033224724 -0.0015988444 -0.07314525 -0.020208992 0.08857525 -0.1144469 0.04232584 0.08991279
0.1368468 -0.05345013 0.05741094 0.030669376 -0.031280138 0.07864806 0.21281822 -0.021757029
-0.07953867 -0.12643576 -0.022990663 -0.09276453 -0.18455021 -0.06932078 -0.09656209 -0.055007275
-0.07538652 -0.08801385 -0.032569084 0.046723146 0.06588361 0.124188416 0.0038694516 0.04690616
-0.022666398 0.02633697 -0.0073933555 -0.052666865 0.053149074 0.0617232 1.0554552 -0.017304303
-0.033631895 0.10139319 -0.08472333 -0.09373207 0.029167328 0.07007134 0.10037401 -0.16703133
-0.011145252 0.0929902 -0.029496033 0.06400567 0.025342228 0.2488716 -6.702661e-05 -0.040130775
-0.007155303 0.04304946 -0.03034758 -0.042568862 0.08631885 0.012630605 0.032839905 -0.026704842
0.017444829 1.2954575 -0.03579806 0.0544109 -0.061094325 0.08448803 -0.015040034 -0.04897847
0.050717283 0.07340396 0.09472865 -0.01081636 0.026845442 0.27639055 -0.014829538 0.07402475
0.17149188 0.00966844 -0.008486136 -0.008381085 -0.069690265 -0.048409276 -0.053771865 0.025876567
0.007768955 0.16713123 0.07412424 -0.002336405 0.040232025 -0.04943785 -0.05944702 0.35307303
0.048002236 -0.02080959 0.58986545 0.007592683 0.054678615 0.03535113 -0.08832897 -0.044812176
0.5222803 -0.09871842 0.07214717 0.31367293 0.026897758 0.07842341 0.064360194 -0.09985699
-0.01591963 -0.35414895 -0.08173028 0.068750836 -0.20184372 0.062200163 -0.049449217 -0.06659266
-0.03108705 0.083252065 -1.5626415 -0.062172774 0.0073262434 -0.20953926 -0.09704114 0.0248522
00000000: 5f61 88bd 246f 023d fd04 9fbc 1661 c9bd
00000010: a03a bebd 4a4f 3bbd 6454 aabd 1cae 8e3d
00000020: a40f 963d a2b4 7d3d ced4 7ebc 8667 d8bc
00000030: 6f0e a93d 0c18 adbc 1783 873d 45de 2cbc
00000040: 1097 8e3d c98e c4bd e214 853d 662f 953c
00000050: 3f3c b53d 6e8c 5ebc a62d 99bc 07a8 8dbd
00000060: 6df0 b9bc 5a23 84bb 0645 103d def7 18bd
00000070: 82f2 98bd 5ecb b43c ae88 893d fa96 303d
00000080: ec55 babd 2361 b5bd b876 333d cb4c b0bc
00000090: 1695 e5bc c67f debd 5731 79bc 63ce 59bd
000000a0: ca9e 9f3d 2c35 c03d 37ee bcbd abd0 22bb
000000b0: c977 5e3d 2979 373d e600 0a3c 528b 9d3d
000000c0: db44 16bd 24dc d73c f648 a23d 7945 b0bd
000000d0: 3cd1 80bd 2a3e 1dbd b545 b73d d2b8 29bd
000000e0: 96c9 883d b58e 25bc cea6 5fbd da16 043d
000000f0: 4025 91bd 3fca a9bd f65d af3d 2231 9ebd
00000100: 0d6d 4d3d ba5e a0bd 76fb 80bd fa03 393d
00000110: 69f6 ab3c 704c 8bbd a148 75bd 4edc 5a3c
00000120: b0c5 10bd 37d5 10bd 4833 8b3c 1e23 2f3d
00000130: 69f7 86bd b704 893d 87dc 6e3d f022 363d
00000140: acd4 5b3c 8cb9 b23d 59d5 61bd bbe1 c83d
00000150: bea1 cbbd ac18 d2bb ac92 b33d 3325 803d
00000160: 1522 93bd 7cc2 303d ed55 8b3d 8623 5cbd
00000170: 4c81 8e3d 4581 2b3d 0be0 313b 3002 7e3d
00000180: 3a0a 2abd 6283 10c0 91c1 9ebd 31b6 85bc
00000190: f1fe 85bd d052 8439 ab7b bf3d a2e9 173c
000001a0: c528 cfbd eabc 6ebd 7a12 933e 4beb b63d
000001b0: 339d 993d 6366 72be c1b0 6b3d 671a a73d
000001c0: 1f3a 3a3e 5e97 fcbb 8eaf ab3c 7912 57be
000001d0: c92b 71bd 3870 5abd cbc0 42be 805e 553d
000001e0: 1a3a 98bd cb02 8dbc a7b8 cabc c5f1 b8bd
000001f0: dc84 4b3e 1851 d03c 6221 ba3d 37f7 b13d
00000200: a616 083d 5190 d1ba 2dcd 95bd 548d a5bc
00000210: f166 b53d 2363 eabd dc5d 2d3d 3224 b83d
00000220: 9121 0c3e 86ee 5abd bc27 6b3d 583e fb3c
00000230: 9a1f 00bd 3c12 a13d 05ed 593e cc3b b2bc
00000240: 2ce5 a2bd 6078 01be ea56 bcbc 54fb bdbd
00000250: bbfa 3cbe 0ef8 8dbd 58c2 c5bd 4f4f 61bd
00000260: 3f64 9abd 9b40 b4bd 2967 05bd c560 3f3d
00000270: fced 863d 7f56 fe3d a096 7d3b ac20 403d
00000280: e2ae b9bc a1c0 d73c f643 f2bb 36b9 57bd
00000290: d8b2 593d 77d1 7c3d 2819 873f c1c1 8dbc
000002a0: 99c1 09bd 3ca7 cf3d 6d83 adbd 99f6 bfbd
000002b0: 52f0 ee3c 9081 8f3d e490 cd3d 430a 2bbe
000002c0: 939a 36bc a571 be3d aaa1 f1bc 6815 833d
000002d0: 819a cf3c 32d8 7e3e a390 8cb8 2b60 24bd
000002e0: 0877 eabb a154 303d 7d9b f8bc b05c 2ebd
000002f0: f0c7 b03d 99f0 4e3c 2383 063d 1dc4 dabc
00000300: 75e8 8e3c 8dd1 a53f fda0 12bd f7dd 5e3d
00000310: 0b3e 7abd 0f08 ad3d 7a6a 76bc a69d 48bd
00000320: edbc 4f3d d154 963d 1801 c23d 1a37 31bc
00000330: f9ea db3c 1083 8d3e 97f7 72bc 4a9a 973d
00000340: 919b 2f3e 6068 1e3c 6f09 0bbc d150 09bc
00000350: c5b9 8ebd ce48 46bd e33f 5cbd 18fb d33c
00000360: b892 fe3b 7324 2b3e 73ce 973d 5f1e 19bb
00000370: 56ca 243d 587f 4abd b87e 73bd fdc5 b43e
00000380: fe9d 443d e078 aabc 6c01 173f 0bcc f83b
00000390: aff6 5f3d 59cc 103d d2e5 b4bd f98c 37bd
000003a0: 29b4 053f e22c cabd e5c1 933d bd99 a03e
000003b0: b058 dc3c 749c a03d 47cf 833d d281 ccbd
000003c0: e269 82bc 0353 b5be 3462 a7bd 3dcd 8c3d
000003d0: 1fb0 4ebe 99c5 7e3d 438b 4abd bc61 88bd
000003e0: 45aa febc 0f80 aa3d a304 c8bf e1a8 7ebd
000003f0: fc10 f03b 7691 56be 81bd c6bd d796 cb3c

bias f4 [16]
0.023743864 0.43683487 -0.18086395 0.0465045 0.057916038 -0.023376312 -0.026441036 -0.99496037
2.0991952 -0.21882331 0.20971037 -0.94152176 -0.09582658 0.391751 -0.68805337 -1.4448186
00000000: 7e82 c23c d2a8 df3e 6634 39be 817b 3e3d
00000010: 5e39 6d3d ae7f bfbc df9a d8bc b9b5 7ebf
00000020: 3759 0640 3813 60be 51be 563e 9207 71bf
00000030: ba40 c4bd 9693 c83e 4424 30bf d1ef b8bf

weight f4 [4, 16]
0.00342387 0.037949625 0.101696305 -0.09392991 -0.092362076 -0.12589616 -0.04218741 -0.34947643
0.8755413 0.17786643 -0.9004938 0.06567231 0.15595435 0.5523045 0.0065327724 -0.04002677
0.012563959 -0.18140431 -0.27534953 -0.09867137 -0.1893941 0.018474847 -0.2113697 -0.8283583
-0.6939385 0.39612934 0.4716665 -0.12156242 -0.05390104 -0.09774542 0.49717447 -0.0019804863
-0.081886075 -0.41552916 -0.72355205 -0.06900727 -0.034184657 0.11437628 -0.17677225 0.8356392
-0.18198991 0.15399379 -0.32722354 0.25397497 0.103481114 -0.10489361 0.45979917 0.40633634
-0.009570679 0.552341 0.90126425 -0.23093158 -0.12057023 -0.10320872 0.078585744 -0.1878333
-0.014326238 0.31033966 0.4347313 0.41978773 -0.113564834 0.41574734 -0.2926033 0.38022378
00000000: 0263 603b 1171 1b3d 2746 d03d 535e c0bd
00000010: 5428 bdbd ecea 00be b5cc 2cbd 93ee b2be
00000020: 7a23 603f 9e22 363e c386 66bf 347f 863d
00000030: 7fb2 1f3e d463 0d3f de10 d63b 1cf3 23bd
00000040: 10d9 4d3c 0dc2 39be 9dfa 8cbe 3714 cabd
00000050: 87f0 41be 9058 973c 4c71 58be 4a0f 54bf
00000060: f4a5 31bf 77d1 ca3e 467e f13e b8f5 f8bd
00000070: 56c7 5cbd c02e c8bd a78d fe3e 0ccb 01bb
00000080: e3b3 a7bd 3dc0 d4be b53a 39bf af53 8dbd
00000090: 3605 0cbd 1c3e ea3d c903 35be 73ec 553f
000000a0: 905b 3abe 8cb0 1d3e d889 a7be 0209 823e
000000b0: e8ed d33d 76d2 d6bd cc6a eb3e 510b d03e
000000c0: 56ce 1cbc 3866 0d3f 41b9 663f 5479 6cbe
000000d0: 86ed f6bd 185f d3bd 90f1 a03d 5f57 40be
000000e0: 99b8 6abc d7e4 9e3e 1a95 de3e 6bee d63e
000000f0: ae94 e8bd d6dc d43e 1ad0 95be b1ac c23e

bias f4 [4]
0.8090193 0.31131312 -1.2994393 -0.10663098
00000000: e41b 4f3f 6f64 9f3e 0754 a6bf 5861 dabd
