sort/save/origin.pt (torch, 43399 bytes, 8 tensors)

weight f4 [32, 4, 3]
-0.05562024 0.10867841 -0.1810271 0.13836117 -0.010706842 0.11027502 0.07932839 0.0487205
-0.18266687 0.2882967 0.20658863 -0.21868691 -0.021443035 -0.22139806 -0.008322966 0.04253654
-0.17114176 -0.16869554 -0.012021512 -0.26973808 0.011102795 -0.03107947 -0.25588006 -0.18020202
0.021333328 0.09603052 0.076758206 0.06377087 0.080208875 -0.24865595 0.19329894 -0.09094907
-0.115523 -0.13783462 -0.020350114 -0.13091715 -0.16784 0.002894438 -0.2572232 0.07757544
0.06585009 0.015700338 0.16628534 -0.0059772674 -0.28009617 0.042538367 0.106629714 -0.28710595
0.26067814 0.43688366 0.21940431 0.040269602 -0.3576919 0.02228467 0.2327182 -0.05187063
0.052943338 0.07815498 -0.048524 0.11744107 0.25547913 0.032699157 -0.20884806 0.1429475
0.2793008 0.20448494 -0.011485774 -0.33162484 -0.25359967 0.1667201 0.026387073 -0.051429864
0.20359474 0.13492137 -0.07382868 0.27634683 -0.036198046 0.25593147 0.26568273 0.12320522
-0.16586722 -0.15492241 0.11617771 0.11782026 0.02954662 0.00012831863 -0.12588313 0.21350056
-0.51896703 0.2000184 0.2821669 0.5197486 -0.06993963 0.12604189 -0.00052417966 -0.023155794
0.07584651 -0.032079715 -0.17143224 -0.05582661 0.23168597 0.041953623 -0.2561955 0.27196547
0.06487056 0.278127 0.09920124 -0.07874303 0.2002162 0.00035992992 0.08598791 -0.1809984
0.0019113515 0.18794906 0.25210696 0.4448411 0.25436836 0.033571918 -0.4471022 0.23526523
0.22409901 0.01029377 -0.04965981 -0.16533361 0.13711634 -0.03822848 -0.23460515 0.39102098
0.25679296 0.25910324 -0.012920816 -0.04491639 0.069996715 0.13148613 0.15205759 -0.09119701
0.02972964 -0.27254108 -0.18496045 -0.46605575 0.14565994 0.03705724 0.3803052 -0.0034111645
0.17354578 -0.017002504 0.11958089 0.07064946 0.01251913 0.18113764 0.17065571 0.12533726
-0.1125719 -0.26241946 0.23569125 -0.28108105 0.11354297 -0.0010361382 0.008030595 0.034033906
0.50923216 -0.19740048 0.17164312 -0.5076782 0.090107806 -0.21582332 -0.00054020836 -7.6052193e-06
-0.2330762 -0.60932153 -0.17257792 -0.24600358 -0.008950615 -0.20023032 -0.14691147 -0.008697816
0.25924128 -0.18273704 0.6204056 0.10072064 0.0070909206 0.2636697 -0.17798969 -0.26227567
0.05771834 -0.26084965 0.16263603 -0.009170018 0.24262577 0.262486 0.008972673 0.18891175
-0.19001062 0.0001795345 -0.083719835 -0.0076629985 -0.46394792 -0.114529885 0.0420261 0.00029957053
0.13533013 -0.22766975 0.4636615 0.23611312 -0.09565982 0.56589925 0.20162517 -0.09033146
-0.0068083196 0.084354274 0.2181278 -0.0077954163 0.046524808 0.23577027 -0.555305 0.138433
0.26230004 -0.007500554 -0.24215542 0.19241507 0.45957297 0.24777423 -0.024440972 0.19266118
0.098130316 0.032930464 0.004424598 -0.03737797 0.00056319917 -0.12391838 -0.07645596 -0.017878115
-0.026877489 0.25304362 -0.19530933 0.44081616 0.15032266 0.1401357 -0.36018038 -0.20155676
0.06313323 0.43584475 0.09673247 -0.16750148 -0.4353852 0.17774743 0.0092017995 -0.0006590962
0.13402216 -0.21898139 0.0007719875 -0.20988551 0.018313369 -0.012379031 0.18093017 0.0021382023
00000000: 0cd2 63bd c992 de3d 2b5f 39be 8dae 0d3e
00000010: c06b 2fbc dfd7 e13d ec76 a23d 268f 473d
00000020: 060d 3bbe a09b 933e f88b 533e 76ef 5fbe
00000030: 4ea9 afbc 2cb6 62be 0d5d 08bc cc3a 2e3d
00000040: c93f 2fbe 86be 2cbe e0f5 44bc 1c1b 8abe
00000050: 7fe8 353c 5f9a febc b602 83be e186 38be
00000060: 3bc3 ae3c a6ab c43d 6833 9d3d 4d9a 823d
00000070: 8d44 a43d aa9f 7ebe 28f0 453e 8243 babd
00000080: 5397 ecbd 8524 0dbe 48b5 a6bc 250f 06be
00000090: 40de 2bbe 9db0 3d3b c2b2 83be dfdf 9e3d
000000a0: 69dc 863d ff9d 803c b446 2a3e f4dc c3bb
000000b0: c468 8fbe b63c 2e3d ae60 da3d 8dff 92be
000000c0: 9b77 853e 37af df3e 86ab 603e bdf1 243d
000000d0: 6523 b7be 578e b63c ae4d 6e3e 4c76 54bd
000000e0: 1ddb 583d b80f a03d 1ac1 46bd f284 f03d
000000f0: 29ce 823e 8def 053d 44dc 55be d460 123e
00000100: 8400 8f3e 8064 513e d42e 3cbc bbca a9be
00000110: d1d7 81be adb8 2a3e b429 d83c 1fa8 52bd
00000120: 247b 503e d428 0a3e 7e33 97bd 557d 8d3e
00000130: 6744 14bd 7309 833e 9107 883e 0553 fc3d
00000140: 19d9 29be fba3 1ebe 94ee ed3d c04b f13d
00000150: c10b f23c 458d 0639 82e7 00be e49f 5a3e
00000160: 06db 04bf a0d1 4c3e 2e78 903e 3f0e 053f
00000170: 823c 8fbd 2011 013e 1a69 09ba 38b1 bdbc
00000180: 6a55 9b3d 0566 03bd ef8b 2fbe 72aa 64bd
00000190: 163f 6d3e 90d7 2b3d 0e2c 83be 0f3f 8b3e
000001a0: dbda 843d aa66 8e3e 052a cb3d 0744 a1bd
000001b0: 7a05 4d3e fab4 bc39 6e1a b03d a557 39be
000001c0: 5086 fa3a b875 403e 2a14 813e 36c2 e33e
000001d0: 923c 823e b582 093d 94ea e4be 5ee9 703e
000001e0: 367a 653e 33a7 283c 1668 4bbd 374d 29be
000001f0: 3a68 0c3e 7795 1cbd 553c 70be e733 c83e
00000200: 5e7a 833e 2ea9 843e d5b1 53bc 40fa 37bd
00000210: 705a 8f3d 4da4 063e fcb4 1b3e 7fc5 babd
00000220: 938b f33c 818a 8bbe 4666 3dbe dc9e eebe
00000230: e127 153e 55c9 173d 5db7 c23e d88d 5fbb
00000240: fcb5 313e d648 8bbc d3e6 f43d aab0 903d
00000250: 091d 4d3c 257c 393e 5fc0 2e3e 6958 003e
00000260: 198c e6bd d85b 86be 0c59 713e dbe9 8fbe
00000270: 3789 e83d 07cf 87ba c292 033c 2367 0b3d
00000280: 0a5d 023f 5a23 4abe 37c3 2f3e 33f7 01bf
00000290: 718a b83d ca00 5dbe c59c 0dba 5630 ffb6
000002a0: 87ab 6ebe 7ffc 1bbf 44b8 30be 5de8 7bbe
000002b0: 9aa5 12bc 2d09 4dbe f66f 16be 4981 0ebc
000002c0: 46bb 843e 6b1f 3bbe e7d2 1e3f 9f46 ce3d
000002d0: f45a e83b b7ff 863e ee42 36be ff48 86be
000002e0: 116a 6c3d 168e 85be 0f8a 263e d83d 16bc
000002f0: e472 783e 9164 863e 1e02 133c 1572 413e
00000300: 2592 42be 6d41 3c39 4e75 abbd e419 fbbb
00000310: 958a edbe a58e eabd 8f23 2c3d ad0f 9d39
00000320: fb93 0a3e 4222 69be 0a65 ed3e a3c7 713e
00000330: 4ce9 c3bd c6de 103f d476 4e3e b3ff b8bd
00000340: 5318 dfbb efc1 ac3d e55c 5f3e b170 ffbb
00000350: cc90 3e3d c36d 713e 7828 0ebf 61c1 0d3e
00000360: 314c 863e 35c7 f5bb 97f7 77be 7508 453e
00000370: 264d eb3e 87b8 7d3e 6f38 c8bc f948 453e
00000380: 8cf8 c83d 18e2 063d 38fc 903b a419 19bd
00000390: a8a3 133a ebc8 fdbd f194 9cbd 2075 92bc
000003a0: 2e2e dcbc ef8e 813e 2bff 47be a8b2 e13e
000003b0: 2fee 193e bc7f 0f3e 9069 b8be e564 4ebe
000003c0: ff4b 813d 0b27 df3e ac1b c63d 8285 2bbe
000003d0: cfea debe 6c03 363e 25c3 163c 32c7 2cba
000003e0: 1b3d 093e a83c 60be 345f 4a3a 3aec 56be
000003f0: eb05 963c 6bd1 4abc c245 393e 1521 0c3b

bias f4 [32]
-0.17903642 0.2826354 0.14371808 -0.17787586 0.56662154 -0.38378808 0.02863765 0.002056763
-0.2475906 -0.010246818 0.055212833 0.3206002 0.11686484 0.016585376 0.20154357 -0.21403812
0.0026079637 0.17444646 -0.15665996 -0.30400217 -0.02052591 0.139812 0.060541224 -0.52728826
0.060423743 -0.2599222 -0.3671497 0.24150518 0.0596879 0.39711225 0.3657126 0.0014972545
00000000: 5355 37be 96b5 903e d52a 133e 1725 36be
00000010: 1c0e 113f df7f c4be 8199 ea3c c2ca 063b
00000020: 6488 7dbe 45e2 27bc da26 623d b625 a43e
00000030: d556 ef3d 0ede 873c 7061 4e3e cf2c 5bbe
00000040: 5fea 2a3b 18a2 323e 786b 20be 2ca6 9bbe
00000050: f425 a8bc e02a 0f3e 13fa 773d 5dfc 06bf
00000060: e37e 773d 8614 85be 0cfb bbbe 224d 773e
00000070: 4d7b 743d 4c52 cb3e af3e bb3e 863f c43a

weight f4 [64, 32, 3]
0.05320055 0.02412555 0.025566608 -0.047874827 -0.059669502 -0.062869735 -0.07758756 0.019234385
-0.0022822141 -0.04787918 -0.056126002 0.073745005 -0.090358466 0.11764107 0.047192078 0.10185339
-0.033471283 0.09666811 0.048736427 -0.030118678 0.029758198 0.048783902 -0.14665116 -0.09942734
0.08588934 0.104838476 -0.051799867 0.028326903 0.12641169 0.0693536 0.09611151 0.12718959
-0.06845714 -0.005539715 0.06081427 0.09577019 0.030595196 0.03304603 0.09759585 -0.06466542
0.015803715 0.027709085 -0.057845924 -0.0073421197 0.07847185 -0.079201356 0.061431937 0.08540059
0.024123194 0.06057421 0.035734747 -0.027269648 -0.079527006 0.012966626 -0.09702272 0.047795083
-0.04210039 -0.018416112 -0.056605596 -0.1001937 -0.075707965 0.12895949 -0.03318337 0.10069848
0.122552924 0.067898504 -0.027731596 0.03125159 0.02853561 -0.08978355 0.09090888 0.0005654374
-0.0122216195 -0.061051536 -0.010994834 0.01856226 -0.008748952 -0.087966144 -0.05713738 -0.20265594
-0.05753852 -0.034017608 0.11878538 0.095494755 0.085277036 0.07378574 -0.057277497 0.007016125
-0.04399381 -0.051295057 -0.0654963 0.1083137 0.020358302 0.020113228 0.13423502 0.055920806
-0.0038571996 0.0125592835 0.09095062 -0.07081598 0.045362856 -0.048518836 0.092077225 -0.0034435184
0.012386917 0.09475764 0.093586 -0.0065200385 -0.04158195 0.2604095 0.035764568 0.05820325
-0.12156342 -0.027723249 -0.053299796 0.03213991 0.03550263 0.10073448 -0.05177899 0.032456808
-0.08117737 0.07774312 0.07979801 -0.006324032 -0.12015487 -0.050848123 0.073043674 0.03821045
0.065949865 0.065576725 0.0900152 -0.0814464 -0.05087108 0.033352684 -0.09363702 0.010584268
-0.14671282 -0.021582082 0.03199278 0.08570217 -0.06220616 0.07798832 0.07894815 0.09420981
0.016218165 -0.14977694 0.0007495203 -0.026506986 -0.13930096 0.076681 -0.096755534 0.069882505
0.011390886 -0.0884033 0.0075621456 -0.06740781 -0.07459332 -0.031329032 -0.057012152 0.08237741
0.0114942575 0.005781225 -0.03709998 0.022005662 0.016247401 0.005241058 0.05783253 0.06264091
-0.049066316 -0.061782137 -0.039411392 0.050310157 0.043196205 -0.02443151 0.04962264 -0.121923395
0.061664715 0.017363774 0.00811994 0.04094568 0.0038578566 0.07665509 0.027448973 -0.0624662
0.09837065 -0.0027530552 0.026283959 -0.03340076 0.03232183 0.06940447 0.02841154 0.0499587
0.038427055 0.123590924 -0.067876704 0.020235406 0.080669634 -0.08737733 -0.09598038 -0.08367657
0.016418053 0.062276155 0.11819842 -0.057225846 -0.100845985 -0.020962419 0.024277247 -0.046259556
-0.053674918 -0.028376225 -0.06315613 0.0011047651 -0.10066533 0.009009391 0.13690577 0.076936536
0.010906467 -0.015959319 -0.07411531 0.052557405 0.017887764 -0.017902542 0.101937965 0.05916523
-0.0033868453 0.057109203 -0.0017066348 0.049564153 -0.08101066 0.16761118 -0.0747522 -0.058355797
0.14513257 0.0900396 -0.081883974 -0.05242141 0.09649517 0.054183356 0.08923095 -0.051929843
-0.0067974404 -0.1631553 -0.041917596 0.0616626 -0.013138481 0.04322315 0.0272737 0.05070354
0.088823035 -0.03193354 0.030245392 0.090873145 -0.049619902 0.040451955 -0.034625042 -0.03891397
00000000: d2e8 593d f2a2 c53c 1071 d13c 6518 44bd
00000010: 0268 74bd d9c1 80bd 3ae6 9ebd 6e91 9d3c
00000020: 3391 15bb f61c 44bd 61e4 65bd 9f07 973d
00000030: dc0d b9bd cded f03d 7b4c 413d 8398 d03d
00000040: 2f19 09bd eef9 c53d d99f 473d 72bb f6bc
00000050: 77c7 f33c a1d1 473d b92b 16be 90a0 cbbd
00000060: c0e6 af3d 8eb5 d63d 192c 54bd d20d e83c
00000070: 1172 013e 4309 8e3d 1dd6 c43d fd3d 023e
00000080: 4233 8cbd 7f86 b5bb 6218 793d 2923 c43d
00000090: c7a2 fa3c 465b 073d 55e0 c73d 4e6f 84bd
000000a0: cb76 813c 2afe e23c d9ef 6cbd 2a96 f0bb
000000b0: d9b5 a03d 5234 a2bd 0ea0 7b3d 81e6 ae3d
000000c0: 019e c53c aa1c 783d 995e 123d 9964 dfbc
000000d0: 0edf a2bd f971 543c d9b3 c6bd c7c4 433d
000000e0: 7571 2cbd 63dd 96bc 45db 67bd 5b32 cdbd
000000f0: c70c 9bbd f50d 043e 49eb 07bd 013b ce3d
00000100: 07fd fa3d 5f0e 8b3d 5f2d e3bc ab01 003d
00000110: 83c3 e93c 70e0 b7bd 6f2e ba3d dd39 143a
00000120: 303d 48bc 2d11 7abd ad23 34bc e10f 983c
00000130: c457 0fbc 9827 b4bd e308 6abd 0a85 4fbe
00000140: 83ad 6bbd 0c56 0bbd c045 f33d c192 c33d
00000150: baa5 ae3d fa1c 973d cf9b 6abd 86e7 e53b
00000160: da32 34bd c41a 52bd ed22 86bd 93d3 dd3d
00000170: 74c6 a63c 7fc4 a43c e874 093e 370d 653d
00000180: 12c9 7cbb 74c5 4d3c 5244 ba3d f807 91bd
00000190: 67ce 393d b0bb 46bd fc92 bc3d a7ac 61bb
000001a0: 7ff2 4a3c 4b10 c23d 04aa bf3d 0ca6 d5bb
000001b0: d651 2abd 6554 853e de7d 123d 8866 6e3d
000001c0: 3ef6 f8bd de1b e3bc e350 5abd 23a5 033d
000001d0: 356b 113d e14d ce3d 3516 54bd 6ef1 043d
000001e0: 5240 a6bd c937 9f3d 246d a33d d339 cfbb
000001f0: c213 f6bd 1f46 50bd ec97 953d 9082 1c3d
00000200: b910 873d 174d 863d e459 b83d 5fcd a6bd
00000210: 325e 50bd d39c 083d c4c4 bfbd a369 2d3c
00000220: e33b 16be e8cc b0bc dc0a 033d 9f84 af3d
00000230: e3cb 7ebd 57b8 9f3d 91af a13d 13f1 c03d
00000240: f5db 843c 205f 19be 757b 443a 2e25 d9bc
00000250: e9a4 0ebe ee0a 9d3d c427 c6bd 8f1e 8f3d
00000260: d7a0 3a3c ca0c b5bd e0cb f73b 1b0d 8abd
00000270: 62c4 98bd df52 00bd 9385 69bd 7db5 a83d
00000280: 6952 3c3c 6e70 bd3b 26f6 17bd 3845 b43c
00000290: 4519 853c 2ebd ab3b cee1 6c3d e149 803d
000002a0: c3f9 48bd 440f 7dbd d76d 21bd 0612 4e3d
000002b0: 81ee 303d 9724 c8bc 1c41 4b3d f9b2 f9bd
000002c0: 2494 7c3d 793e 8e3c 7f09 053c a8b6 273d
000002d0: 18d4 7c3b 58fd 9c3d abdc e03c 8fdc 7fbd
000002e0: 8d76 c93d 9a6c 34bb 7551 d73c 3ccf 08bd
000002f0: e563 043d ee23 8e3d 51bf e83c 7ea1 4c3d
00000300: b065 1d3d 3d1d fd3d f102 8bbd b9c4 a53c
00000310: 1f36 a53d e3f2 b2bd 5d91 c4bd 9f5e abbd
00000320: 277f 863c 4815 7f3d 0312 f23d a665 6abd
00000330: 5788 cebd 61b9 abbc 14e1 c63c a97a 3dbd
00000340: 3bda 5bbd 4275 e8bc 0058 81bd c4cd 903a
00000350: a029 cebd 209c 133c 0731 0c3e e790 9d3d
00000360: 0ab1 323c 1ebd 82bc c5c9 97bd 6f46 573d
00000370: 5c89 923c 5aa8 92bc dac4 d03d 3d57 723d
00000380: d6f5 5dbb 57eb 693d 29b1 dfba c803 4b3d
00000390: ebe8 a5bd 44a2 2b3e ae17 99bd 7d06 6fbd
000003a0: a29d 143e af66 b83d c9b2 a7bd d5b7 56bd
000003b0: 429f c53d 5eef 5d3d b7be b63d 63b4 54bd
000003c0: 10bd debb 2f12 27be c9b1 2bbd ec91 7c3d
000003d0: c942 57bc c20a 313d 186d df3c 84ae 4f3d
000003e0: dae8 b53d becc 02bd 2fc5 f73c b31b ba3d
000003f0: 3d3e 4bbd f3b0 253d fdd2 0dbd 4164 1fbd

bias f4 [64]
0.030294562 0.023587326 -0.13468036 -0.12477976 -0.06840253 0.005515602 -0.059455656 -0.23322657
0.017296903 0.026307382 -0.034032788 0.30614844 0.12711719 -0.09514143 -0.8174858 0.0073814215
-0.12212119 0.041533045 -0.012079087 0.06766601 0.073218726 -0.10121565 -0.035724103 -0.04393603
0.050237313 0.3297653 -0.047999218 0.006230943 -0.041227285 0.12655646 0.583408 0.087099075
0.07529334 -0.14788616 -0.053883348 0.09817669 0.04403301 -0.0733747 0.079592764 -0.09338012
-0.18928505 0.088243715 0.02083083 -0.07173739 0.5735817 -0.36316365 0.004629317 0.14767054
-0.07413469 -0.00626238 0.045256335 -0.037977785 0.21967553 -0.09302354 -0.13394189 -0.1207883
0.059270542 0.031118473 0.2892429 -0.50398 0.09266428 -0.10169374 0.17727162 0.0805292
00000000: 4d2c f83c 353a c13c a6e9 09be 888c ffbd
00000010: a016 8cbd 39bc b43b c687 73bd f2d2 6ebe
00000020: 3cb2 8d3c 9482 d73c f765 0bbd 7dbf 9c3e
00000030: 022b 023e 83d9 c2bd c046 51bf dadf f13b
00000040: ad1a fabd 8e1e 2a3d 5de7 45bc 7a94 8a3d
00000050: b3f3 953d 274a cfbd 7053 12bd 44f6 33bd
00000060: a4c5 4d3d ffd6 a83e d49a 44bd f02c cc3b
00000070: f1dd 28bd 0498 013e 3a5a 153f 0061 b23d
00000080: 6533 9a3d 786f 17be c9b4 5cbd dc10 c93d
00000090: f55b 343d 7a45 96bd 8801 a33d 143e bfbd
000000a0: f1d3 41be 1fb9 b43d 6ba5 aa3c 0deb 92bd
000000b0: 40d6 123f 96f0 b9be 87b1 973b f236 173e
000000c0: eed3 97bd a734 cdbb b55e 393d 988e 1bbd
000000d0: 9ff2 603e 2083 bebd 1028 09be db5f f7bd
000000e0: abc5 723d 2bec fe3c a517 943e d504 01bf
000000f0: c5c6 bd3d cf44 d0bd b186 353e 7eec a43d

weight f4 [16, 64, 3]
-0.014040586 0.004036458 -0.042082354 -0.06994494 -0.018283706 -0.07029427 -0.031202417 0.041449893
0.057731867 -0.06555924 -0.017808916 -0.010503057 -0.027447227 -0.01364002 -0.022541396 -0.005746638
-0.062148318 0.058047835 0.050031204 0.033364065 -0.015858922 0.030841298 0.8013635 -0.05739936
0.043068487 0.1105751 0.06519952 -0.004181632 -0.030107029 -0.02258228 -0.059340153 0.12749237
0.05374975 0.055716764 0.17226586 -0.046389274 0.02706196 -0.12742408 -0.022240775 0.04123167
0.07640422 -0.052014675 0.04158859 0.7157835 -0.038788218 -0.018671846 0.08265543 -0.006203235
0.062323526 -0.52365327 0.010564587 -0.054735262 0.112388425 0.020839479 -0.037505172 0.011365162
-0.020207101 -0.03604315 -0.019617338 0.06139407 -0.038496383 -0.09340692 0.04131833 0.051017523
0.05260075 0.043035373 -0.047468044 0.069884725 -0.025282167 0.00865726 0.011196565 0.050502967
-0.056540187 0.058981963 0.030516787 -0.031624187 1.6869365 0.018637933 0.05386351 0.06623011
-0.05469831 -0.041513674 -0.013113904 0.04297669 0.00975957 0.01786372 -0.058334175 0.03709055
-0.04748612 -0.0045747203 -0.06111366 0.1439465 -0.067292735 0.071232505 0.013151668 -0.06656281
-0.031432733 -0.18278234 0.062487796 0.062970854 0.15985681 0.050429977 -0.056089077 0.06721757
0.01199448 -0.0692682 0.63270676 -0.04932523 -0.024085402 -0.06747622 0.009915864 0.018708125
0.027471732 -0.07084014 -0.059736304 -0.19235988 -0.016611278 -0.0056723924 0.099025905 0.035568483
-0.056418408 0.06805616 0.02804146 -0.0032312546 0.05166684 0.0706606 -0.041915253 0.19616805
0.02356176 -0.06299082 0.13673101 -0.01637735 -0.036931727 1.2645023 -0.059975095 -0.008683483
-0.58681077 -0.027643053 0.018163655 0.1546384 0.070994385 0.061682526 1.5116544 0.016855247
0.020176398 -0.02013273 -0.003915096 0.05591706 -0.0041606645 -0.054799814 0.043034915 -0.03839828
0.022778157 -0.0085866535 0.15896396 -0.014736498 0.025916127 -1.3079624 -0.0121121975 0.013814391
-0.025944231 0.057419706 -0.051738728 -0.023667933 0.043121558 0.01623371 0.20344096 0.011322932
-0.01873865 0.054345846 -0.035550304 -0.06442622 -0.088998504 0.033714507 0.010975286 1.720273
0.027020527 0.028272016 0.24612953 -0.01451826 0.011064777 0.2983055 0.01574837 -0.012821513
-0.010877577 -0.032491975 0.06532693 0.1518108 0.06052245 -0.061418373 -0.008184402 -0.02190685
0.04455413 0.08233669 0.011478092 -0.069901496 0.0058771097 0.00088415836 -0.003076165 0.036977056
0.049370907 0.036421396 -0.04385458 0.05048977 -0.025957612 0.13381161 0.016535794 0.03395999
0.11340952 -0.00037361932 0.008485179 -0.06300939 -0.043824226 -0.06933585 -0.5256487 0.025993237
0.0406952 0.042168006 -0.04350557 0.058391333 -0.03142749 -0.03393429 0.02900167 0.086327225
0.014144469 -0.03582997 0.6529237 0.06787075 -0.04724111 0.15653187 0.024910053 -0.04079189
0.012956385 -0.028067509 0.06714321 -0.56927276 -0.0064525297 -0.059089467 -0.058640298 0.0049811606
-0.0066405353 0.28134283 -0.0071008056 -0.011418806 0.03533611 0.011353293 -0.052707154 0.07570855
-0.06481541 0.011574989 0.15347815 -0.018806614 -0.013613902 0.15314016 -0.029332565 -0.0459544
00000000: 7c0a 66bc 4444 843b 8c5e 2cbd 4b3f 8fbd
00000010: b6c7 95bc 71f6 8fbd 369c ffbc 5dc7 293d
00000020: 4078 6c3d ec43 86bd 01e4 91bc 0415 2cbc
00000030: 02d9 e0bc 647a 5fbc bca8 b8bc 4b4e bcbb
00000040: 3c8f 7ebd 91c3 6d3d 85ed 4c3d c2a8 083d
00000050: 92ea 81bc e4a6 fc3c 2926 4d3f 971b 6bbd
00000060: 9568 303d 3375 e23d 5387 853d 1206 89bb
00000070: 04a3 f6bc 79fe b8bc a90e 73bd 5c8d 023e
00000080: b328 5c3d 4337 643d 7666 303e ae02 3ebd
00000090: 0bb1 dd3c 757b 02be 4932 b6bc 8ae2 283d
000000a0: d179 9c3d 570d 55bd cc58 2a3d 963d 373f
000000b0: 65e0 1ebd b3f5 98bc 4047 a93d 8244 cbbb
000000c0: f446 7f3d 240e 06bf 1717 2d3c 1532 60bd
000000d0: e72b e63d 8eb7 aa3c 069f 19bd f234 3a3c
000000e0: 5d89 a5bc fba1 13bd 8ab4 a0bc 5978 7b3d
000000f0: 62ae 1dbd 214c bfbd 693d 293d c0f7 503d
00000100: e273 573d dc45 303d da6d 42bd b91f 8f3d
00000110: 8c1c cfbc 2ed7 0d3c cc71 373c 33dc 4e3d
00000120: af96 67bd 1297 713d 57fe f93c 5d88 01bd
00000130: 89ed d73f 94ae 983c fc9f 5c3d a7a3 873d
00000140: 560b 60bd 3e0a 2abd b3db 56bc 5308 303d
00000150: 9ae6 1f3c f056 923c d1ef 6ebd 43ec 173d
00000160: ce80 42bd 89e7 95bb 5152 7abd b666 133e
00000170: c6d0 89bd 59e2 913d 187a 573c 1552 88bd
00000180: 9cbf 00bd 4b2b 3bbe 34f3 7f3d ddf6 803d
00000190: 81b1 233e aa8f 4e3d a9bd 65bd 5ea9 893d
000001a0: 7f84 443c 7cdc 8dbd 12f9 213f 4109 4abd
000001b0: c04e c5bc f930 8abd 2676 223c c841 993c
000001c0: 660c e13c a314 91bd 0eae 74bd fdf9 44be
000001d0: 6014 88bc 7adf b9bb 18ce ca3d 42b0 113d
000001e0: fd16 67bd 0761 8b3d 34b7 e53c 75c3 53bb
000001f0: 9ca0 533d 81b6 903d 54af 2bbd 47e0 483e
00000200: 9804 c13c 5501 81bd 3703 0c3e cb29 86bc
00000210: b945 17bd 36db a13f 72a8 75bd 2b45 0ebc
00000220: 3b39 16bf af73 e2bc f2cb 943c 8759 1e3e
00000230: 8165 913d d1a6 7c3d e47d c13f 0414 8a3c
00000240: f948 a53c 65ed a4bc 354a 80bb 4909 653d
00000250: 2f56 88bb c575 60bd 6145 303d 8447 1dbd
00000260: 4299 ba3c 09af 0cbc 73c7 223e 5a71 71bc
00000270: 0f4e d43c 506b a7bf 3d72 46bc c155 623c
00000280: ff88 d4bc ed30 6b3d fdeb 53bd 41e3 c1bc
00000290: 3ba0 303d 8ffc 843c d452 503e d283 393c
000002a0: cc81 99bc c099 5e3d 329d 11bd e5f1 83bd
000002b0: d944 b6bd 3918 0a3d b0d1 333c e831 dc3f
000002c0: 275a dd3c b79a e73c 6109 7c3e ffdd 6dbc
000002d0: 0a49 353c 80bb 983e ba02 813c 5311 52bc
000002e0: dd37 32bc 4e16 05bd 20ca 853d 4a74 1b3e
000002f0: 63e6 773d d591 7bbd df17 06bc ff75 b3bc
00000300: 647e 363d 23a0 a83d 9b0e 3c3c 8428 8fbd
00000310: c594 c03b ddc6 673a 7c99 49bb 4175 173d
00000320: 2639 4a3d 9a2e 153d dca0 33bd 5cce 4e3d
00000330: 0fa5 d4bc e905 093e 1376 873c a119 0b3d
00000340: 4043 e83d 56e2 c3b9 6c05 0b3c 110b 81bd
00000350: 0881 33bd f4ff 8dbd ea90 06bf c5ef d43c
00000360: 03b0 263d 5cb8 2c3d e632 32bd c02b 6f3d
00000370: 1dba 00bd affe 0abd e994 ed3c 54cc b03d
00000380: 34be 673c 72c2 12bd 0226 273f d2ff 8a3d
00000390: e57f 41bd e449 203e 2b10 cc3c 6615 27bd
000003a0: 0447 543c d5ed e5bc 6182 893d dcbb 11bf
000003b0: be6f d3bb cc07 72bd cf30 70bd 0139 a33b
000003c0: d998 d9bb 2b0c 903e e0ad e8bb f215 3bbc
000003d0: 99bc 103d 2a03 3a3c 75e3 57bd 160d 9b3d
000003e0: f1bd 84bd 06a5 3d3c 6029 1d3e 5410 9abc
000003f0: d80c 5fbc c6d0 1c3e d94a f0bc ae3a 3cbd

bias f4 [16]
-0.15586118 0.060348593 -0.0024774226 -0.08041054 0.042680044 0.05049942 0.0063671786 0.011084572
0.045060866 -0.06049984 0.020537863 -0.026636101 0.007549963 -0.003789301 -0.05379636 -0.06399338
00000000: 139a 1fbe 1630 773d 415c 22bb 48ae a4bd
00000010: 45d1 2e3d 7bd8 4e3d c4a3 d03b 119c 353c
00000020: be91 383d aece 77bd 053f a83c f433 dabc
00000030: ae65 f73b ec55 78bb 9259 5cbd f60e 83bd

weight f4 [4, 16]
-0.18933563 -0.072055124 0.19826521 -0.00240873 -0.23086928 0.30755627 0.13864541 0.051484168
0.2877401 -0.15733036 0.05020541 0.028571963 -0.13381615 -0.036591522 -0.058997497 0.06760054
0.3295922 -0.30184388 -0.09262391 0.11809433 0.18561925 0.06507696 -0.07575882 -0.011197894
0.3070636 0.16605139 -0.20924886 0.07446459 -0.112679765 0.0395524 0.2297959 -0.14347643
-0.2766952 0.36887342 -0.11508825 -0.052911036 0.06564085 -0.054997433 0.0993433 -0.066360705
0.29623905 -0.11394128 0.17552118 0.007743418 0.02038532 0.10645449 0.32319924 -0.10556544
0.34651947 0.24517164 -0.028129403 -0.116261676 -0.18070139 0.2496246 0.28032884 0.16570628
-0.0036120412 0.24372199 -0.0708888 0.008758843 0.029909622 -0.22007713 0.014601115 -0.22037277
00000000: 33e1 41be a391 93bd 0906 4b3e c9db 1dbb
00000010: ff68 6cbe 0478 9d3e 10f9 0d3e 10e1 523d
00000020: ac52 933e 361b 21be 30a4 4d3d c00f ea3c
00000030: 1a07 09be fee0 15bd 5ca7 71bd 2772 8a3d
00000040: 4fc0 a83e 488b 9abe 9bb1 bdbd 71db f13d
00000050: f912 3e3e 1247 853d 7127 9bbd 5f77 37bc
00000060: 7137 9d3e 6009 2a3e 5545 56be e480 983d
00000070: a6c4 e6bd b301 223d 9e4f 6b3e 7ceb 12be
00000080: feaa 8dbe fadc bc3e 63b3 ebbd 3eb9 58bd
00000090: b66e 863d fd44 61bd 8074 cb3d 1fe8 87bd
000000a0: a5ac 973e 0c5a e9bd d3bb 333e 80bc fd3b
000000b0: 1dff a63c d004 da3d 5f7a a53e b232 d8bd
000000c0: 006b b13e 460e 7b3e a26f e6bc 9a1a eebd
000000d0: c909 39be 979d 7f3e 4387 8f3e e8ae 293e
000000e0: ffb7 6cbb 4292 793e 262e 91bd 4081 0f3c
000000f0: 0605 f53c e65b 61be 8439 6f3c 66a9 61be

bias f4 [4]
-0.0653954 -0.006778122 0.023023546 -0.026758632
00000000: 06ee 85bd 021b debb e09b bc3c eb34 dbbc
