sort/save/semi.pt (torch, 17673 bytes, 8 tensors)

weight f4 [16, 4, 3]
0.17504737 -0.072545186 0.06434518 -0.24340181 -0.28434628 -0.118619084 -0.01585936 -0.09667596
-0.09195474 -0.20161358 -0.19578113 0.111040436 -0.0746486 0.3822495 -0.17674558 -0.13188452
-0.026381789 0.21684046 0.17280108 -0.018695692 0.27799344 0.24551107 0.40651092 -0.11633701
-0.005142711 -0.62003237 0.04173703 0.24174832 -0.001931901 0.06329934 -0.032839544 -0.0018640158
-0.0888759 0.062690645 0.61266387 0.26518872 -0.14742354 -0.027984511 0.18813626 -0.24439806
0.37274998 0.25408047 -0.088830575 0.31383005 0.1973627 0.06665844 0.078212254 0.13401748
0.06554244 0.24732228 0.25332728 0.28314623 -0.0090178335 0.06712773 0.23730455 -0.0040045925
-0.028505499 -0.25849745 0.43951207 -0.10357882 0.26319936 0.54554343 -0.007676247 -0.14473118
-0.0014065419 0.033508115 0.05950413 -0.0011575207 -0.15367478 -0.15924074 -0.552549 -0.28756088
0.16248351 -0.0014538254 0.05094234 0.20674805 -0.54560834 0.16604032 -0.13887 0.54383624
0.18403333 -0.1463515 -0.024436127 0.041540638 -0.19237179 0.20610103 -0.043079264 0.20796944
0.44262812 -0.1602377 -0.15284935 0.49116445 -0.028478347 -0.28107914 -0.04073454 0.023142613
0.037374664 0.0023470877 -0.08685188 -0.21816632 -0.18881953 0.0058924276 -0.2881452 -0.22313786
0.044900734 -0.12337424 -0.01053846 0.23898228 0.07249952 0.49205667 -0.165276 0.21159424
-0.020518025 0.07481949 -0.034894638 -0.033196006 -0.08106114 0.26179194 0.46514264 -0.061199613
-0.23685017 0.013376501 0.0030625632 0.257317 0.4676285 0.24196018 0.025743943 -0.4743219
-0.2634027 -0.12578878 -0.0023075216 0.11924478 0.19460376 -0.00101167 0.20227753 -0.11418177
0.4738118 0.0515851 -0.16696244 -0.47563577 -0.19852248 0.09098227 -0.020985141 -0.0013540044
-0.19634652 -0.07881175 -0.06056869 -0.14266703 0.3820201 0.0369381 0.13247411 0.3819837
-0.28604105 -0.042496312 -0.07820549 -0.23653606 0.2867054 -0.03588364 -0.15872705 -0.11954878
-0.24244328 -0.050247546 0.013145088 -0.23668107 0.2185124 0.18702084 0.48459494 -0.024049666
0.06700653 0.01217808 -0.12472508 -0.1440239 -0.4442519 -0.085635014 0.075345494 0.43816012
-0.1164027 -0.28200874 -0.0026638906 0.12070047 0.025372664 -0.093100786 0.24229276 -0.16679914
-0.09694562 0.13319327 -0.20779073 -0.037699968 0.13536416 -0.12193596 -0.26956245 0.035989035
00000000: 9e3f 333e 9292 94bd 68c7 833d 533e 79be
00000010: d695 91be 90ee f2bd 7deb 81bc 0cfe c5bd
00000020: c452 bcbd ca73 4ebe d97a 48be 2b69 e33d
00000030: 5de1 98bd 35b6 c33e cbfc 34be bc0c 07be
00000040: 9f1e d8bc 6d0b 5e3e c4f2 303e b527 99bc
00000050: 2855 8e3e 4167 7b3e 3322 d03e 1942 eebd
00000060: 3084 a8bb 71ba 1ebf 73f4 2a3d df8c 773e
00000070: d737 fdba 16a3 813d c282 06bd fe51 f4ba
00000080: 9104 b6bd f463 803d 8ad7 1c3f d1c6 873e
00000090: 32f6 16be c63f e5bc cba6 403e 7c43 7abe
000000a0: 16d9 be3e d616 823e ceec b5bd 55ae a03e
000000b0: 7319 4a3e 3884 883d bf2d a03d e13b 093e
000000c0: 1d3b 863d 0d42 7d3e 1db4 813e 8bf8 903e
000000d0: 89bf 13bc 437a 893d f7ff 723e f538 83bb
000000e0: 5d84 e9bc c759 84be ba07 e13e 2221 d4bd
000000f0: 11c2 863e bca8 0b3f 0789 fbbb 6934 14be
00000100: b75b b8ba ce3f 093d 9aba 733d f3b7 97ba
00000110: ec5c 1dbe 0110 23be da73 0dbf 2e3b 93be
00000120: 1462 263e 498e beba eaa8 503d c3b5 533e
00000130: fdac 0bbf 7906 2a3e f033 0ebe da38 0b3f
00000140: 3c73 3c3e 2bdd 15be 462e c8bc 8426 2a3d
00000150: 1cfd 44be 260c 533e e273 30bd f1f5 543e
00000160: 27a0 e23e 5a15 24be 8a84 1cbe e879 fb3e
00000170: 6c4b e9bc 9be9 8fbe 43d9 26bd 9495 bd3c
00000180: 2d16 193d 99d1 193b 66df b1bd fe66 5fbe
00000190: e859 41be 4415 c13b c587 93be 407e 64be
000001a0: d5e9 373d a2ab fcbd 81a9 2cbc c5b7 743e
000001b0: a17a 943d daee fb3e 1d3e 29be 29ac 583e
000001c0: 6b15 a8bc f63a 993d aeed 0ebd 89f8 07bd
000001d0: 6203 a6bd 9809 863e 2d27 ee3e 72ac 7abd
000001e0: da88 72be 1d29 5b3c 49b5 483b 0ebf 833e
000001f0: 016d ef3e 69c4 773e f6e4 d23c 52da f2be
00000200: b8dc 86be c6ce 00be ca39 17bb 9b36 f43d
00000210: 3546 473e 039a 84ba d721 4f3e 22d8 e9bd
00000220: 7697 f23e e64a 533d 34f8 2abe 8886 f3be
00000230: 7a49 4bbe ea54 ba3d 08e9 abbc d978 b1ba
00000240: 100f 49be 0e68 a1bd e016 78bd 4e17 12be
00000250: 2398 c33e 684c 173d 4ba7 073e 5e93 c33e
00000260: f973 92be 9d10 2ebd 332a a0bd 8236 72be
00000270: 0dcb 923e b9fa 12bd 5889 22be fed5 f4bd
00000280: 0d43 78be 5fd0 4dbd 7f5e 573c 865c 72be
00000290: b7c1 5f3e 6482 3f3e d41c f83e ce03 c5bc
000002a0: b83a 893d 9286 473c dd6f ffbd 007b 13be
000002b0: fc74 e3be 6961 afbd bd4e 9a3d 8656 e03e
000002c0: 8a64 eebd 7363 90be ab94 2ebb cf31 f73d
000002d0: 55da cf3c a0ab bebd 981b 783e 65cd 2abe
000002e0: 6d8b c6bd d163 083e 18c7 54be 486b 1abd
000002f0: e79c 0a3e 90b9 f9bd 1704 8abe 3d69 133d

bias f4 [16]
-0.16208453 0.8253644 0.42373982 -0.12050295 0.12215443 0.3750543 0.7276355 0.2464472
-0.121945046 1.3980808 -0.1296601 0.6212051 1.5138948 0.572493 -0.10408449 0.27695543
00000000: 7df9 25be 154b 533f 6df4 d83e 40ca f6bd
00000010: 1a2c fa3d 1e07 c03e 5246 3a3f a85c 7c3e
00000020: 53be f9bd 50f4 b23f 9ec5 04be 4c07 1f3f
00000030: 4ec7 c13f e78e 123f 402a d5bd 1acd 8d3e

weight f4 [32, 16, 3]
0.009380866 -0.03776196 0.12532383 0.119078256 -0.06584126 0.101654045 0.09638762 0.24691257
0.13399844 -0.011917464 0.17913635 0.08422008 0.100162596 0.10350484 -0.08072534 0.07673181
0.18004856 0.06065744 0.020270387 0.0028499905 0.13307026 -0.05957263 0.12800774 -0.023417605
0.017870992 0.042026132 0.09541398 -0.004091625 -0.04559104 0.02372042 0.112684675 -0.019980162
0.12303366 -0.07281772 -0.114753276 -0.014145863 0.06551437 0.6216141 0.025665637 0.083020054
-0.006851854 0.025972823 -0.045962952 -0.18764946 0.07032256 -0.025339266 0.0041257283 -0.06408881
0.08340037 0.025292637 -0.0326303 0.022416487 -0.22677878 0.10782852 -0.0046514003 -0.5522214
-0.08924537 0.13202316 0.32512045 0.08473109 -0.015705036 -0.089525454 0.018446546 0.048018083
-0.5945566 -0.1400159 -0.025449404 0.35535297 -0.07392655 0.05436825 0.07377072 -0.08548855
-0.044221837 0.041213717 0.046436608 -0.022846801 -0.38568532 0.10167072 0.07571046 -1.1011128
-0.081031926 0.0739217 0.37733817 0.09015599 -0.022141289 0.43616357 -0.09670647 -0.07816424
0.072277494 0.13841242 0.025751393 -1.1784056 0.13641953 0.13152671 0.08357506 -0.042007104
-0.09761763 -0.039058186 0.0860183 0.10234029 0.06903956 -0.012574542 0.090776004 0.22342795
-0.044999737 -0.14054236 0.3348197 0.021152403 0.08922349 0.11877299 -0.10501994 -0.06717385
-0.03547114 0.13405643 0.12322267 0.18662907 0.024669249 -0.033511296 0.32016402 0.043205183
-0.0026394068 0.015965799 0.07152975 -0.12721428 -0.20892213 0.06603259 -0.0021649925 -0.028211065
-0.111542635 -0.10149516 0.16581765 -0.085706 0.114605665 0.08980612 -0.1336545 -0.014735233
0.047599476 0.052589867 0.08557668 -0.109160386 0.04647448 -0.06588458 0.13662498 0.012251028
0.07077837 0.03434658 0.14240713 0.13517275 0.0061654304 -0.03980723 -0.111423984 0.4655703
0.10314154 0.11507982 0.15365237 0.029787924 -0.12435444 0.019749658 -0.006723719 -0.019941108
0.39302963 0.004137532 -0.053631045 0.7957058 0.12653768 0.07225333 -0.005747027 -0.08706108
-0.13294923 -0.050233196 -0.042751417 -0.11226501 -0.070605785 0.14146101 -0.013051486 -0.07268952
0.13116403 0.021397972 0.97513396 -0.017478945 -0.1006176 0.051985227 0.06908528 -0.09624207
0.06307275 0.08584784 -0.04217827 -0.019273736 -0.037061747 0.14248993 0.0723845 0.07769377
-0.14021483 0.07896318 0.143739 -0.0766906 0.23544289 -0.11177076 0.040387604 0.0033561077
-0.060219847 0.058281943 0.32372123 0.14123496 -0.11192603 0.37980872 -0.08209633 0.14295493
-0.41166082 -0.09066147 -0.087275654 -0.14718167 -0.12668276 0.032199483 0.10214838 -0.08504239
0.14318292 0.12847795 0.08143855 -0.092019886 0.05622865 -0.08762748 -0.09815088 -0.07775043
0.14162417 -0.06124946 0.060672995 0.13007677 0.09880456 -0.35497668 0.11845609 0.09396787
0.54312414 0.1283024 -0.047945883 0.23257644 0.026623292 -0.10264737 -0.10467189 -0.052199505
0.13058163 -0.08875308 -0.07041351 -0.050676554 0.102456585 0.10955817 0.06771021 0.10618917
-0.116839394 -0.05036178 0.28724483 0.09578178 0.02487466 0.1664415 0.05224722 0.097833455
00000000: 34b2 193c 49ac 1abd e454 003e 4ddf f33d
00000010: c8d7 86bd ff2f d03d df66 c53d a6d6 7c3e
00000020: e336 093e 7841 43bc 856f 373e 947b ac3d
00000030: 0c22 cd3d 58fa d33d 5453 a5bd 9125 9d3d
00000040: a65e 383e f073 783d 150e a63c e8c6 3a3b
00000050: 9243 083e 6e02 74bd 7614 033e 47d6 bfbc
00000060: 3066 923c 9823 2c3d 6868 c33d 0a13 86bb
00000070: acbd 3abd 5451 c23c 39c7 e63d 70ad a3bc
00000080: 12f9 fb3d 7521 95bd c403 ebbd 0dc4 67bc
00000090: 662c 863d 1a22 1f3f be40 d23c 6b06 aa3d
000000a0: 8485 e0bb f5c4 d43c a643 3cbd 2e27 40be
000000b0: 4605 903d 4b94 cfbc 1e31 873b fe40 83bd
000000c0: d0cd aa3d 8132 cf3c 59a7 05bd c8a2 b73c
000000d0: b238 68be 33d5 dc3d c66a 98bb 625e 0dbf
000000e0: 47c6 b6bd 1431 073e 3076 a63e 7e87 ad3d
000000f0: d9a7 80bc 1f59 b7bd 361d 973c 9cae 443d
00000100: dd34 18bf 5460 0fbe 457b d0bc d3f0 b53e
00000110: ce66 97bd 3eb1 5e3d 1a15 973d 9f14 afbd
00000120: f521 35bd b7cf 283d 5034 3e3d 3729 bbbc
00000130: 8c78 c5be bd38 d03d 160e 9b3d 44f1 8cbf
00000140: 11f4 a5bd 4364 973d 7832 c13e b4a3 b83d
00000150: a661 b5bc d550 df3e 0b0e c6bd 9314 a0bd
00000160: 3906 943d fcbb 0d3e 96f4 d23c ffd5 96bf
00000170: 90b1 0b3e f0ae 063e 6729 ab3d a40f 2cbd
00000180: c1eb c7bd 7afb 1fbd 5d2a b03d c997 d13d
00000190: 9d64 8d3d 7405 4ebc c5e8 b93d 4cca 643e
000001a0: a551 38bd 56ea 0fbe 7d6d ab3e ce47 ad3c
000001b0: ceba b63d 413f f33d b214 d7bd 7292 89bd
000001c0: 304a 11bd 1746 093e 2b5c fc3d b11b 3f3e
000001d0: 2a17 ca3c 2443 09bd 8aec a33e ebf7 303d
000001e0: e6f9 2cbb b5ca 823c 317e 923d 7644 02be
000001f0: afef 55be 183c 873d 8ce2 0dbb e41a e7bc
00000200: 7770 e4bd b2dc cfbd 1acc 293e a186 afbd
00000210: 60b6 ea3d 45ec b73d badc 08be 0c6c 71bc
00000220: abf7 423d 7968 573d d442 af3d 7b8f dfbd
00000230: 065c 3e3d 7fee 86bd 6be7 0b3e 89b8 483c
00000240: 40f4 903d 00af 0c3d 2dd3 113e ba6a 0a3e
00000250: 6107 ca3b e80c 23bd 4232 e4bd 3b5f ee3e
00000260: df3b d33d f8ae eb3d 0c57 1d3e ce05 f43c
00000270: 8aad febd 09ca a13c a552 dcbb 895b a3bc
00000280: 2e3b c93e 2294 873b 3aac 5bbd 60b3 4b3f
00000290: 1893 013e 8ef9 933d 8f51 bcbb 144d b2bd
000002a0: d823 08be 53c1 4dbd 1c1c 2fbd 33eb e5bd
000002b0: c499 90bd 28db 103e e6d5 55bc 3ede 94bd
000002c0: dd4f 063e cd4a af3c 61a2 793f 0130 8fbc
000002d0: 9a10 cebd 76ee 543d 957c 8d3d 901a c5bd
000002e0: 492c 813d fed0 af3d 1fc3 2cbd f4e3 9dbc
000002f0: 0fce 17bd e1e8 113e 533e 943d e91d 9f3d
00000300: 7a94 0fbe 73b7 a13d 5130 133e f60f 9dbd
00000310: f117 713e 11e8 e4bd 796d 253d 25f2 5b3b
00000320: 16a9 76bd 0cb9 6e3d cabe a53e e69f 103e
00000330: 7939 e5bd 4a76 c23e 1f22 a8bd c762 123e
00000340: 35c5 d2be b9ac b9bd 94bd b2bd cbb6 16be
00000350: 20b9 01be 9be3 033d 2b33 d13d b42a aebd
00000360: 8b9e 123e b98f 033e 41c9 a63d ec74 bcbd
00000370: 0350 663d 0976 b3bd 5403 c9bd 9e3b 9fbd
00000380: ed05 113e b7e0 7abd 3f84 783d d832 053e
00000390: 0c5a ca3d 81bf b5be 1b99 f23d 3a72 c03d
000003a0: 2f0a 0b3f b461 033e e762 44bd 8528 6e3e
000003b0: 1719 da3c c938 d2bd 375e d6bd 26cf 55bd
000003c0: 31b7 053e 2dc4 b5bd f534 90bd 3892 4fbd
000003d0: c2d4 d13d 0960 e03d a7ab 8a3d b579 d93d
000003e0: 7e49 efbd 2748 4ebd c111 933e 3d29 c43d
000003f0: f1c5 cb3c a46f 2a3e 2e01 563d e85c c83d

bias f4 [32]
-0.41396818 -0.058878027 -0.12461741 -0.23698913 -0.15296885 0.15551819 0.032789785 0.08208799
-0.0970632 0.4329868 -0.11644431 -0.080186956 0.11159603 0.16055492 -0.61521214 -0.53028184
-0.17013957 0.014006624 0.4830493 -0.095910504 -0.39974466 -0.09924041 0.015349375 0.04626525
-0.04884468 -0.06561521 -0.18033805 0.031974077 -0.05729181 -0.2899897 -0.07414067 -0.7370314
00000000: a3f3 d3be 162a 71bd 6a37 ffbd 47ad 72be
00000010: dea3 1cbe 2940 1f3e 954e 063d c01d a83d
00000020: 12c9 c6bd 72b0 dd3e 5b7a eebd 0f39 a4bd
00000030: 768c e43d 8268 243e 8b7e 1dbf 8dc0 07bf
00000040: 1139 2ebe 0a7c 653c 3d52 f73e ba6c c4bd
00000050: 55ab ccbe 8e3e cbbd f27b 7b3c a180 3d3d
00000060: 5c11 48bd 4461 86bd 8aaa 38be 40f7 023d
00000070: d1aa 6abd 8879 94be 10d7 97bd 17ae 3cbf

weight f4 [16, 32, 3]
-0.00972173 -0.010199649 0.03596116 -0.08085979 -0.020939257 -0.0842513 -0.09018995 -0.08266125
0.06891189 0.019433849 0.0380746 0.031585753 -0.014030474 0.047381125 -0.07426051 0.027378954
-0.11998855 0.089362 -0.00041167406 -0.037704337 -0.09739715 -0.08954907 0.047214057 -0.031888496
0.08378329 0.08468778 -0.037789907 -0.06271516 0.0025484555 0.07602251 -0.09147361 0.050472207
-0.09571468 -0.04812175 -0.08941709 0.09572577 0.012105269 0.04374716 0.053399272 0.031635515
-0.10434446 -0.01721052 -0.044376556 -0.019412888 0.0022845867 0.051001593 -0.04557693 -0.09146131
-0.046299487 -0.071852714 -0.06513126 -0.06445529 0.0054260287 0.08613306 0.06910064 -0.026032245
0.08379036 -0.082862556 -0.043135416 0.010009328 -0.05350675 -0.13305493 -0.04221731 0.08380654
-0.11882892 0.09233671 -0.038420875 -0.113780335 -0.08550026 -0.039928928 -0.086468846 0.04789147
-0.021262815 0.022220153 -0.058487065 -0.08756003 -0.104013674 0.0071768602 0.039730404 0.0052755116
0.048632875 -0.008595114 -0.12968804 -0.049874432 0.042943995 -0.13798846 -0.09159624 0.048012115
0.015545463 0.0021179875 0.027609525 -0.011267625 0.008820576 -0.08029413 -0.010976472 0.09953423
-0.03331866 -0.014851881 0.026813906 -0.07908219 0.04182005 -0.05095497 0.07096067 0.14354463
0.064546555 -0.06797279 0.20797774 -0.074189946 -0.059641153 0.0844371 0.03657597 0.09987596
0.1821436 0.043207344 -0.036631607 -0.002854357 0.03026094 -0.009999388 -0.23854524 -0.08181898
0.045761816 -0.37779328 -0.026130378 0.07527804 0.00060193625 -0.05372557 0.05654097 -0.28114998
0.002392749 0.066951 0.048757 -0.0345599 -0.07039028 0.6016061 0.08922993 0.0067956396
-0.22002195 -0.034804333 -0.063064255 0.26120666 -0.06321456 -0.052919038 -1.2643864 0.05934364
-0.0072479993 0.20287411 0.05579635 -0.100844175 0.08737698 -0.060569257 0.046833474 0.08476155
-0.09457297 0.062812865 -0.008339034 -0.030183 -0.03613478 0.124478936 -0.058505144 0.09227096
-0.07741274 0.021524133 -0.061694037 -0.07943723 -0.017072173 -0.08162853 -0.09708287 0.0016387393
-0.00033565622 -0.12229509 -0.081409305 -0.056456704 0.55958116 0.026555764 0.01909285 0.2527753
-0.057313994 0.06240798 -0.33266777 0.01115361 0.00403397 -0.20267868 -0.027115762 0.09713912
0.29469424 -0.075076304 0.027885407 0.042719323 0.048881732 0.09669867 -0.04500912 -0.09699235
0.089868344 0.054614544 0.029490845 0.06537984 0.018018004 0.011564348 0.05510696 -0.008049682
0.059969425 -0.04180194 -0.09241577 -0.100425795 -0.023260705 -0.037637234 0.085476965 -0.07516918
0.03782777 0.041743174 -0.09303271 -0.09965658 0.07100957 0.029226644 0.018191643 0.08967325
-0.0779138 -0.050316107 -0.039789643 0.023527935 0.026161633 -0.082066394 -0.02424177 -0.08200307
0.089552484 -0.056808088 -0.05559082 0.0020372125 0.03393711 -0.014410475 0.020868905 0.050908666
-0.049640756 -0.08537994 0.030548915 -0.008028862 0.058617238 -0.08624085 -0.117685415 0.036715936
-0.07113076 0.07078733 -0.01607175 -0.06999599 -0.08703002 0.03058089 -0.0530815 -0.017779307
-0.0019065293 -0.07838056 -0.12472306 -0.07321649 -0.09077166 -0.12110045 0.06461054 -0.012681572
00000000: e447 1fbc 6e1c 27bc 024c 133d d199 a5bd
00000010: ce88 abbc f28b acbd 82b5 b8bd 4d4a a9bd
00000020: ad21 8d3d bc33 9f3c 1df4 1b3d 1060 013d
00000030: 13e0 65bc b612 423d e515 98bd d449 e03c
00000040: 8fbc f5bd 6d03 b73d f5d5 d7b9 dd6f 1abd
00000050: 2878 c7bd 8165 b7bd 8763 413d 839d 02bd
00000060: 9396 ab3d c970 ad3d 97c9 1abd ce70 80bd
00000070: fd03 273b b1b1 9b3d 8456 bbbd f2bb 4e3d
00000080: 0f06 c4bd 501b 45bd 4f20 b7bd df0b c43d
00000090: 2e55 463c 3930 333d 32b9 5a3d 3e94 013d
000000a0: 8cb2 d5bd 14fd 8cbc 31c4 35bd c707 9fbc
000000b0: 01b9 153b 0ce7 503d e0ae 3abd 1150 bbbd
000000c0: 88a4 3dbd 8427 93bd 8a63 85bd 2301 84bd
000000d0: d4cc b13b 8866 b03d a384 8d3d 9341 d5bc
000000e0: 489a ab3d d8b3 a9bd c3ae 30bd 2afe 233c
000000f0: e529 5bbd 8d3f 08be 0fec 2cbd c3a2 ab3d
00000100: 945c f3bd 071b bd3d 355f 1dbd aa05 e9bd
00000110: c31a afbd 848c 23bd 9416 b1bd d929 443d
00000120: 5b2f aebc 0a07 b63c 2290 6fbd ac52 b3bd
00000130: 1f05 d5bd de2b eb3b 59bc 223d 33de ac3b
00000140: 4433 473d 85d2 0cbc f1cc 04be 2249 4cbd
00000150: 0be6 2f3d d94c 0dbe cf96 bbbd 5aa8 443d
00000160: 66b2 7e3c efcd 0a3b 5f2d e23c d89b 38bc
00000170: 2d84 103c 4071 a4bd a9d6 33bc 9ad8 cb3d
00000180: 2679 08bd 4e55 73bc d6a8 db3c d8f5 a1bd
00000190: 804b 2b3d 29b6 50bd d453 913d 5dfd 123e
000001a0: fc30 843d 5135 8bbd 1ef8 543e e6f0 97bd
000001b0: 484a 74bd 5ced ac3d afd0 153d c48b cc3d
000001c0: da83 3a3e 2ffa 303d 060b 16bd 2a10 3bbb
000001d0: cae5 f73c 79d4 23bc 3445 74be b690 a7bd
000001e0: be70 3b3d 1f6e c1be 600f d6bc 5f2b 9a3d
000001f0: 42cb 1d3a 580f 5cbd 8197 673d e4f2 8fbe
00000200: abcf 1c3b 9b1d 893d 6cb5 473d af8e 0dbd
00000210: c728 90bd db02 1a3f 2ebe b63d f5ad de3b
00000220: 6f4d 61be fd8e 0ebd d527 81bd e1bc 853e
00000230: a376 81bd a2c1 58bd 6ad7 a1bf 5112 733d
00000240: a080 edbb 3bbe 4f3e b78a 643d 6487 cebd
00000250: b4f2 b23d 7817 78bd 75d4 3f3d 7797 ad3d
00000260: 79af c1bd 08a4 803d 72a0 08bc 5742 f7bc
00000270: 1002 14bd d0ee fe3d 17a3 6fbd 8ff8 bc3d
00000280: 928a 9ebd 6153 b03c e3b2 7cbd fdaf a2bd
00000290: f1da 8bbc dc2c a7bd 62d3 c6bd f7ca d63a
000002a0: 04fb afb9 d975 fabd ecb9 a6bd 253f 67bd
000002b0: b640 0f3f 798b d93c 9c68 9c3c c46b 813e
000002c0: 14c2 6abd 839f 7f3d 6e53 aabe a2bd 363c
000002d0: 652f 843b 008b 4fbe e021 debc e0f0 c63d
000002e0: 2ae2 963e 9bc1 99bd f06f e43c 75fa 2e3d
000002f0: 3638 483d f409 c63d 7c5b 38bd eda3 c6bd
00000300: e50c b83d 80b3 5f3d c996 f13c dee5 853d
00000310: 7e9a 933c 6478 3d3c d6b7 613d d0e2 03bc
00000320: 80a2 753d 8338 2bbd 7b44 bdbd 0aac cdbd
00000330: 3c8d bebc 8029 1abd 8c0e af3d 4df2 99bd
00000340: 4bf1 1a3d e4fa 2a3d ef87 bebd c018 ccbd
00000350: 776d 913d b76c ef3c a406 953c 9ca6 b73d
00000360: 4591 9fbd 4318 4ebd 77fa 22bd a8bd c03c
00000370: ec50 d63c 6d12 a8bd ad96 c6bc 3af1 a7bd
00000380: 4b67 b73d 99af 68bd 33b3 63bd c182 053b
00000390: a401 0b3d ea19 6cbc 44f5 aa3c 9b85 503d
000003a0: 1b54 4bbd aedb aebd b841 fa3c 7d8b 03bc
000003b0: a118 703d 0b9f b0bd 0d05 f1bd 7363 163d
000003c0: 01ad 91bd f3f8 903d e7a8 83bc 0f5a 8fbd
000003d0: cc3c b2bd c684 fa3c fd6b 59bd e9a5 91bc
000003e0: 82e4 f9ba fd85 a0bd ce6e ffbd 87f2 95bd
000003f0: 7ee6 b9bd 8303 f8bd 8852 843d 5ec6 4fbc

bias f4 [16]
-0.07496129 0.04855952 0.0031755513 -0.27415565 -0.11115298 0.011366406 0.24387045 -0.012205261
-0.2539574 -0.10523163 -0.4918674 -0.1470262 -0.14399457 -0.07946862 0.27211836 -0.103307314
00000000: 4e85 99bd 59e6 463d e91c 503b 215e 8cbe
00000010: 2ca4 e3bd 2a3a 3a3c 2db9 793e 93f8 47bc
00000020: b406 82be ae83 d7bd 0bd6 fbbe 098e 16be
00000030: 5073 13be 72c0 a2bd 1953 8b3e c992 d3bd

weight f4 [4, 16]
-0.21583067 0.00938288 0.24567135 0.104644865 -0.15337954 -0.07825205 0.47187647 0.25200012
-0.18924922 0.24336316 -0.35290766 0.08577445 -0.1575362 0.14645131 0.5464578 0.092557125
0.07906091 0.9426749 -0.13657337 0.05890264 -0.13796839 -0.062875986 -0.5866066 -0.1265361
0.25479713 -0.15299733 -0.13546032 0.22730029 0.6134774 -0.3506669 0.21083163 -0.18506563
-0.1466287 -0.9549098 -0.017847018 -0.17898694 -0.19291747 -0.23672178 0.2868955 0.11303024
-0.23791394 -0.04099634 0.47328016 0.27967402 0.16576485 0.3073509 0.21377741 -0.27924752
-0.12585412 0.006911515 -0.0756549 0.4210769 -0.11521533 -0.22340119 -0.3479247 -0.19654647
0.25555247 -0.19626261 0.016685363 0.34433275 -0.19068953 0.37632525 -0.005343682 -0.15060622
00000000: b702 5dbe a7ba 193c 4591 7b3e 0c50 d63d
00000010: 870f 1dbe 9c42 a0bd cb99 f13e 2906 813e
00000020: 8cca 41be 3134 793e 50b0 b4be 84aa af3d
00000030: 2b51 21be 55f7 153e a9e4 0b3f 978e bd3d
00000040: b0ea a13d 2453 713f e4d9 0bbe e543 713d
00000050: 9647 0dbe 20c5 80bd da2b 16bf ae92 01be
00000060: c574 823e 55ab 1cbe 1cb6 0abe 68c1 683e
00000070: db0c 1d3f 9d8a b3be 3fe4 573e d881 3dbe
00000080: d525 16be f874 74bf e933 92bc 5a48 37be
00000090: 288c 45be 3267 72be f8e3 923e 667c e73d
000000a0: b69f 73be c7eb 27bd c751 f23e 6f31 8f3e
000000b0: 43be 293e 195d 9d3e 77e8 5a3e 88f9 8ebe
000000c0: e7df 00be fd79 e23b f5f0 9abd 6497 d73e
000000d0: 04f6 ebbd 48c3 64be 3023 b2be 7a43 49be
000000e0: c6d7 823e 11f9 48be beaf 883c 624c b03e
000000f0: 1e44 43be b4ad c03e 0e1a afbb 8438 1abe

bias f4 [4]
0.28388402 -0.12576316 -0.2525416 -0.5560358
00000000: 3f59 913e 0fc8 00be 224d 81be 5d58 0ebf
