sort/save/super_light.pt (torch, 4795 bytes, 4 tensors)

weight f4 [32, 4, 3]
0	0x3ce9508b	0.028480789
1	0xbd8ec52f	-0.069712035
2	0x3e5d417f	0.21607016
3	0xbd3beafd	-0.0458784
4	0xbd8e3e6e	-0.06945501
5	0xbe377d92	-0.17918995
6	0x3dd6e6f3	0.10493269
7	0xbd818d63	-0.063257955
8	0xbe7d67e5	-0.24746664
9	0xbc86a202	-0.016434673
10	0x3f1ee2e5	0.62064964
11	0xbdb24ca5	-0.08706025
12	0xbdbc5c42	-0.09197284
13	0x3eb68b11	0.35652974
14	0xbe64917c	-0.22321123
15	0xbe385c38	-0.18003929
16	0x3d40b776	0.047049962
17	0xbd75ed69	-0.060040865
18	0x3dc50057	0.096192054
19	0xbdfb68fa	-0.12275882
20	0x3e21f993	0.15817861
21	0x3d689482	0.056782253
22	0xbdf9d11e	-0.12198089
23	0xbe3699d5	-0.1783212
24	0xbe448ab0	-0.1919353
25	0x3ef22558	0.47294116
26	0x3cc9f446	0.024652611
27	0x3e7e6206	0.2484208
28	0x3f120a56	0.5704702
29	0x3e81b89b	0.25336155
30	0xbd760e77	-0.06007239
31	0xbd886b5a	-0.06661101
32	0xbe1948a1	-0.14969112
33	0x3e868a51	0.26277402
34	0x3d875ced	0.06609521
35	0xbe4b08b9	-0.19827546
36	0xbc42ca9c	-0.011889126
37	0x3e012afb	0.12614052
38	0xbe0a6d68	-0.13518298
39	0xbd90d17b	-0.07071205
40	0x3e08d44b	0.13362233
41	0xbdeab6af	-0.114606254
42	0xbda69353	-0.081335686
43	0x3e199f4a	0.1500217
44	0x3ce41d77	0.027846081
45	0xbe0b811a	-0.13623467
46	0xbee74f3c	-0.4517764
47	0xbe4d7900	-0.20065689
48	0x3d5dd0ff	0.054154392
49	0x3f1b99f0	0.60781765
50	0x3e768ddf	0.24077557
51	0xbd6069c7	-0.054788377
52	0xbf174453	-0.5908863
53	0x3e88d0da	0.2672184
54	0x3d79c942	0.06098295
55	0xbf18e2c1	-0.59721
56	0x3e3d37b4	0.1847828
57	0x3daba71a	0.083814815
58	0x3f181e61	0.59421355
59	0xbe7ee140	-0.24890614
60	0xbe6744c7	-0.2258483
61	0x3eb5f419	0.35537794
62	0xbe85777b	-0.2606772
63	0xbd39ddd1	-0.045377556
64	0x3e87b0e4	0.26502144
65	0x3c2f6a73	0.010706532
66	0x3e3c640b	0.18397538
67	0x3ef8058c	0.48441732
68	0xbcf342e0	-0.029694974
69	0x39f87a24	0.00047393248
70	0xbd64e040	-0.055877924
71	0x3c9d6559	0.019213365
72	0x3c472b3f	0.012156307
73	0x3eadf010	0.33972216
74	0xbde44265	-0.11145476
75	0xbd2b4588	-0.041814357
76	0x3edd6a98	0.43245387
77	0x3c1c1eed	0.009528858
78	0xbce71227	-0.028206898
79	0xbc9cb00a	-0.01912691
80	0x3d17073c	0.036872134
81	0xbcc5eb89	-0.024160163
82	0xbc9c2590	-0.01906088
83	0xbe621414	-0.22077972
84	0x3c775df1	0.015098081
85	0x3ea85f5f	0.32885262
86	0x3e03eae5	0.12882574
87	0xbe774df7	-0.24150835
88	0x3ea3e8b2	0.3201347
89	0x3e5cf1ec	0.21576661
90	0xbdae0434	-0.084968954
91	0x3e9e7092	0.3094526
92	0xbd48c92b	-0.049019974
93	0xbd6f315f	-0.058396693
94	0xbece7d06	-0.4032976
95	0x3e1892f2	0.14899805
96	0x3d639ce5	0.05556955
97	0x3e8af54f	0.2714028
98	0xbdb2690f	-0.087114446
99	0xbe6623c8	-0.22474587
100	0x3e9a423b	0.30128655
101	0xbe2059a4	-0.15659195
102	0xbe8a6046	-0.27026576
103	0x3ebd1271	0.36928132
104	0xbd339638	-0.04384443
105	0x3e82eb6a	0.25570232
106	0xbd61e3d8	-0.05514893
107	0xbb32f0b4	-0.0027304115
108	0xbe388f30	-0.18023372
109	0xbcc7e619	-0.024401711
110	0xbe5e8490	-0.21730256
111	0x3e019a3f	0.12656496
112	0x3cff174d	0.03113904
113	0xbb3d73bb	-0.0028908092
114	0xbe765329	-0.2405516
115	0x3e21b280	0.15790749
116	0xbe733f7c	-0.23754686
117	0x3e88831a	0.26662523
118	0x3eeacc14	0.45858824
119	0xbdf37bf6	-0.11888878
120	0x3e1e0d3f	0.1543474
121	0xbe2ec22f	-0.17066263
122	0xbca41eb7	-0.020034177
123	0x3e7feef4	0.24993497
124	0x3f26e63f	0.6519508
125	0xbe7a6b8e	-0.24455091
126	0xbe7d00e5	-0.24707372
127	0xbe325ed5	-0.17418988
128	0xbe576da4	-0.21037918
129	0x3e858360	0.26076794
130	0xbe27cd4c	-0.16386908
131	0x3e2a1a6b	0.1661164
132	0xbd96161e	-0.07328437
133	0x3ed168af	0.4090018
134	0x3ce688be	0.028141376
135	0x3e3f8a52	0.18705109
136	0x3d7c0da6	0.061536454
137	0xbe1204de	-0.14259669
138	0xbe859f2d	-0.26098004
139	0xbdd8b87e	-0.10582064
140	0x3d9e12ee	0.07718454
141	0x3d4e152f	0.05031317
142	0x3e17f797	0.14840542
143	0x3d1553b2	0.03645677
144	0x3e277632	0.16353682
145	0xbe8a55a3	-0.2701846
146	0x3e70be58	0.2351011
147	0xbd99acf9	-0.07503695
148	0xbcf67115	-0.030083219
149	0x3e1b581d	0.15170331
150	0x3e8e5518	0.27799296
151	0xbd6f3e25	-0.058408875
152	0xbe914ab3	-0.28377303
153	0x3d9a4ac0	0.07533789
154	0xbe5d9d37	-0.21642004
155	0x3e103859	0.14083995
156	0x3db4c7e9	0.08827192
157	0x3b49f3c3	0.003081546
158	0xbdbb125b	-0.091343604
159	0xbe3bdfab	-0.18347041
160	0xbba17f3e	-0.0049284985
161	0x3e8c5b8d	0.27413598
162	0x3e2eeb8c	0.17082042
163	0x3f261d92	0.6488887
164	0x3db603af	0.08887421
165	0x3e6ce3e6	0.23133811
166	0x3f12f84e	0.5741013
167	0x3dca6f0d	0.098844625
168	0x3dab4498	0.083626926
169	0xbf0b3ad8	-0.54386663
170	0xbdb8f65f	-0.090313666
171	0xbe3f2a38	-0.18668449
172	0x3e739fa6	0.2379137
173	0xbe43971e	-0.19100615
174	0xbe407261	-0.18793632
175	0x3e64bec6	0.223384
176	0x3cce734b	0.02520146
177	0xbd1bf8ae	-0.038078956
178	0x3e710189	0.23535742
179	0x3e67800c	0.2260744
180	0xbe03f707	-0.12887202
181	0x3f0991e9	0.53738266
182	0x3e7cb485	0.24678238
183	0x3e478763	0.1948524
184	0xbe4c8f6d	-0.19976588
185	0xbe1c16af	-0.15243028
186	0xbe268571	-0.16261841
187	0xbe0db95f	-0.13840245
188	0x3e76ca11	0.2410052
189	0x3d4e98ad	0.05043857
190	0xbdedfd79	-0.11620612
191	0xbe8909c9	-0.26765278
192	0xbe813720	-0.2523737
193	0xbf550e97	-0.8322539
194	0xbe82189a	-0.25409395
195	0xbd3ffa2f	-0.046869453
196	0x3e9ca0eb	0.3059152
197	0xbe261832	-0.16220167
198	0xbe87da47	-0.2653372
199	0x3e9dcfa3	0.30822477
200	0x3e6bcda0	0.23027658
201	0xbe2acf1a	-0.16680565
202	0x3e9f0c20	0.31063938
203	0x3e7b2734	0.24526674
204	0xbdb1ff27	-0.086912446
205	0xbe860fc3	-0.261839
206	0xbdd25cc7	-0.10271602
207	0xbe031bd1	-0.1280358
208	0xbe849fe7	-0.25903246
209	0x3e64a562	0.22328714
210	0xbe08dad0	-0.1336472
211	0xbe8497e8	-0.25897145
212	0x3e3531e8	0.17694819
213	0x3dde0cb3	0.10842266
214	0x3f33bb04	0.7020724
215	0x3e659417	0.22419773
216	0x3e3c6e2c	0.18401402
217	0x3c93ca39	0.018040763
218	0x3df67586	0.120341346
219	0x3cb0cc13	0.021581685
220	0x3c67567b	0.01411974
221	0x3e03e17c	0.12878984
222	0xbe67804f	-0.2260754
223	0x3e96855d	0.29398623
224	0x3e0eb5ea	0.13936582
225	0x3dc82885	0.097733535
226	0x3f1a7ec0	0.60349655
227	0x3e25be41	0.16185857
228	0xbe113dbf	-0.1418371
229	0x3e88efb2	0.26745373
230	0x3e1028c5	0.14078052
231	0x3e89f364	0.26943505
232	0x3e4dee4d	0.20110436
233	0xbe5b332c	-0.2140624
234	0xbe4e73b5	-0.20161326
235	0x3c0bf794	0.008542914
236	0xbe160b93	-0.14652853
237	0x3c8ee5b5	0.017443517
238	0x3c420025	0.011840855
239	0x3e327256	0.17426428
240	0xbdf66093	-0.12030139
241	0xbef31d33	-0.47483215
242	0xbe11a393	-0.14222555
243	0xbb8e26ad	-0.0043381066
244	0x3ef56d9d	0.4793519
245	0x3df073ce	0.11740838
246	0xbe0eed1d	-0.13957639
247	0xbeef6ea2	-0.46764094
248	0xbdc60675	-0.096692
249	0x3d138fd9	0.036025856
250	0x3ef19a59	0.4718807
251	0xbe6b32a6	-0.2296854
252	0x3d9d5c5d	0.076836325
253	0xbe434058	-0.19067514
254	0xbd98b9df	-0.07457327
255	0x3dcdae17	0.10042971

bias f4 [32]
0	0xbf099d9d	-0.53756124
1	0xbf06091a	-0.5235764
2	0xbe14751a	-0.14497796
3	0xc05bec23	-3.4362876
4	0xbe976bd8	-0.29574466
5	0xbcd325c7	-0.02577485
6	0xbcd470ac	-0.025932632
7	0x3f13b0a1	0.5769139
8	0x3e6bcfd8	0.23028505
9	0xbde9c400	-0.11414337
10	0x408150fa	4.041135
11	0x3f226804	0.63439965
12	0x3d5a2c8a	0.053265132
13	0xbee9f458	-0.45694232
14	0x40535ba6	3.3024688
15	0x406bb689	3.683016
16	0xbfe9fb3b	-1.8279794
17	0x3fcc3f51	1.5956823
18	0xbfab069c	-1.3361392
19	0xbf598e08	-0.8498235
20	0xbe8aa071	-0.27075532
21	0xc04abbd1	-3.1677134
22	0xbfef32cf	-1.868738
23	0xbff7100b	-1.9301771
24	0x405e0a12	3.4693646
25	0x3f4b7b9e	0.794855
26	0xbe51b694	-0.20479804
27	0x3eddaa09	0.4329379
28	0xbd80728d	-0.06271849
29	0x406bdf28	3.6854954
30	0x40408792	3.0082746
31	0x3f44a5ca	0.76815474

weight f4 [4, 32]
0	0xbe6d7720	-0.23189974
1	0xbec58b34	-0.38582766
2	0x3d8d39ee	0.06895815
3	0xbf70cbad	-0.94060785
4	0xbee97a84	-0.45601285
5	0xbde245bd	-0.11048458
6	0x3e1d8d7f	0.15386008
7	0x3ef6ac74	0.48178446
8	0xbcf2f9bf	-0.029660104
9	0x3ecd8794	0.401425
10	0xbf3cd530	-0.737628
11	0x3e4bed0f	0.1991465
12	0x3e157c41	0.1459818
13	0xbd92f7c4	-0.07176164
14	0x3ea04f1e	0.31310362
15	0xbf3e009c	-0.7421968
16	0x3c9da557	0.01924388
17	0x3c8353a8	0.016031101
18	0xbd9c044c	-0.07618007
19	0xbd72fef0	-0.05932516
20	0xbf1710dc	-0.590101
21	0x3ea8bcef	0.32956645
22	0xbd0b0f77	-0.033950295
23	0x3c625cd5	0.013816078
24	0xbf442d5c	-0.7663171
25	0x3f0e966d	0.5569828
26	0xbf0cf7f7	-0.55065864
27	0x3ef677dc	0.4813832
28	0x3e117ffd	0.1420898
29	0x3e818248	0.2529471
30	0x3e8e8390	0.2783475
31	0x3f05a7e4	0.52209306
32	0x3e94aaf3	0.29036674
33	0x3ed0abab	0.40755972
34	0x3db60b8b	0.088889204
35	0x3f2bce65	0.6711181
36	0x3f2b9131	0.6701842
37	0x3d406373	0.046969842
38	0x3e0734dc	0.13203758
39	0xbea1a069	-0.31567696
40	0x3d97cf4b	0.07412585
41	0x3f07d3c1	0.53057486
42	0x3f1b56c5	0.60679275
43	0x3cf2a670	0.02962038
44	0x3da8f788	0.08250338
45	0x3eefd7b6	0.46844262
46	0xbefa3460	-0.48868084
47	0x3f11bb34	0.56926274
48	0xbf69d1e2	-0.9133588
49	0xbf851f52	-1.0400183
50	0x3ebacc8e	0.36484188
51	0x3e14dbc8	0.14536965
52	0x3f5bb6b1	0.8582564
53	0xbf0ba676	-0.54550874
54	0xbf58c692	-0.84677994
55	0xbf5e1052	-0.8674365
56	0x3f1903c7	0.5977139
57	0xbebf34b1	-0.37344888
58	0x3f4b1e28	0.7934289
59	0xbeb22a64	-0.34797966
60	0xbe1c06f1	-0.15237023
61	0xbebeda56	-0.37275952
62	0xbee23b86	-0.44186038
63	0xbeb10f5f	-0.3458204
64	0x3e536320	0.20643282
65	0x3e8e2e63	0.27769765
66	0xbdb7e047	-0.089783244
67	0x3f3d30d2	0.7390262
68	0xbf1d4ce9	-0.6144548
69	0x3ea0de1c	0.31419456
70	0x3cc048d3	0.023472225
71	0xbdc9fe3e	-0.09862946
72	0x3e960430	0.2930007
73	0x3e7a8f1c	0.24468654
74	0x3f1dbf73	0.61620253
75	0xbdcaafd9	-0.098968215
76	0xbb4af6ea	-0.0030969926
77	0x3eb4805e	0.35254186
78	0xbf31a51e	-0.69392574
79	0x3f274d45	0.6535228
80	0x3f41a4df	0.756422
81	0x3f64d3db	0.89385766
82	0x3e1bdd6e	0.15221187
83	0xbc91d437	-0.017801387
84	0xbf469702	-0.7757417
85	0xbf562a8a	-0.8365866
86	0x3f4b089c	0.7931001
87	0x3f3b34df	0.7312755
88	0x3f269609	0.65072685
89	0xbe0f1ea3	-0.1397653
90	0xbf3e818b	-0.74416417
91	0xbe16c832	-0.14724806
92	0xbe06b663	-0.13155513
93	0xbf0979e6	-0.5370163
94	0xbf2a1c70	-0.6644964
95	0xbdcb48f5	-0.09926025
96	0xbe8088e7	-0.25104448
97	0xbe98fbe5	-0.2987968
98	0x3ed8bada	0.42330056
99	0xbef7a355	-0.483668
100	0x3ecc8517	0.3994529
101	0x3e9319ff	0.2873077
102	0x3eafc8e5	0.34332958
103	0xbd7d35e4	-0.061818972
104	0x3e8238e2	0.25434023
105	0xbdf32a9c	-0.118733615
106	0xbef6d20b	-0.48207125
107	0x3e26c6b5	0.16286738
108	0x3dcc7a57	0.09984272
109	0xbe4d8c68	-0.20073092
110	0x3f5f3c67	0.8720154
111	0xbef169c3	-0.47151002
112	0x3e081d92	0.1329253
113	0x3e0b5784	0.13607603
114	0xbe0f1f98	-0.13976896
115	0x3e774cd2	0.24150398
116	0x3f01cad9	0.50700146
117	0x3f839845	1.0280844
118	0x3db0fdd0	0.08642161
119	0x3e09ad90	0.13445115
120	0xbefc8d7b	-0.4932669
121	0xbd25a4e5	-0.04044046
122	0x3f001b2a	0.5004145
123	0x3c923dd5	0.01785175
124	0xbd2587a6	-0.040412568
125	0x3f285780	0.65758514
126	0x3f52efb9	0.8239704
127	0xbda4175b	-0.08012267

bias f4 [4]
0	0x3f9f6439	1.245246
1	0xbf6cae3b	-0.92453355
2	0x3f3c8eb8	0.7365527
3	0xbe8f3ec2	-0.27977568
