matrix/NALU/model/det_with_nalu_and_linear.pt (torch, 4487 bytes, 7 tensors)

G f4 [4, 4]
0	0xbd8e4a50	-0.06947768
1	0x3c8806b4	0.016604759
2	0x3c3992b6	0.0113264825
3	0xbd890430	-0.06690252
4	0xbdbf2c61	-0.093346365
5	0xbd848e48	-0.064724505
6	0xbd1b1c6e	-0.03786891
7	0xbdbe7e87	-0.09301477
8	0xbdfbf9da	-0.12303515
9	0x3cf68c34	0.030096151
10	0x3de56d12	0.11202444
11	0xbe041557	-0.12898766
12	0xbdb1c7a1	-0.08680654
13	0xbdce5fb7	-0.1007685
14	0xbd2e6e92	-0.042585917
15	0xbda49b41	-0.08037425

W_ f4 [4, 4]
0	0xbff41a4a	-1.9070523
1	0x409dcd86	4.9313383
2	0x3f09e5f7	0.53866524
3	0x3baa3a3f	0.0051949318
4	0xbe59dea1	-0.21276332
5	0x3bc7f9e8	0.006102789
6	0x3ec90ed2	0.3926912
7	0x40ad1c1c	5.4096813
8	0x3f993d09	1.1971751
9	0xba80b537	-0.0009819631
10	0xbf0f384c	-0.5594528
11	0x409aaafd	4.8333726
12	0xc006721f	-2.1007154
13	0x407ba2b3	3.9318054
14	0x3f1ac5a8	0.6045785
15	0x3c26f474	0.010190118

M_ f4 [4, 4]
0	0x4041a39e	3.0256114
1	0x409a4068	4.820362
2	0x3e07db79	0.13267316
3	0x3b927b48	0.0044702627
4	0x3f8f98cd	1.1218506
5	0xbf007a6f	-0.5018682
6	0x3f562d4f	0.83662885
7	0x40a1a664	5.0515614
8	0x3f973c79	1.181533
9	0xc008dec0	-2.1385956
10	0x3e02246c	0.12709206
11	0x409bd73f	4.870025
12	0x402f7dc9	2.7420523
13	0x409d7b4f	4.9213023
14	0x3e9190f4	0.28430903
15	0xbf992e2a	-1.1967213

G f4 [2, 4]
0	0x3e30c5a7	0.17262898
1	0x3db78dd3	0.08962598
2	0x3f305b69	0.6888948
3	0x3d965bbe	0.07341717
4	0xbfa90458	-1.3204451
5	0x3fcf5c0a	1.6199963
6	0x40190569	2.3909552
7	0x401e42fc	2.4728384

W_ f4 [4, 2]
0	0xbfd24a7c	-1.6428981
1	0x3f544371	0.8291541
2	0x3f89fa52	1.0779517
3	0xbfaf7071	-1.3706189
4	0xbf46a178	-0.7759013
5	0x3ed880ee	0.42285866
6	0xbf679e2d	-0.9047573
7	0x3f6887eb	0.90832394

M_ f4 [4, 2]
0	0x404ea593	3.2288558
1	0x4026c75f	2.6059186
2	0x3fd379fd	1.6521603
3	0x3eb9325a	0.36171228
4	0x3ffdbd58	1.9823408
5	0x3fa8e085	1.3193518
6	0x3fcf606c	1.6201301
7	0x3f91424e	1.134836

weight f4 [1, 2]
0	0x3f46ecd7	0.7770514
1	0xbf86f1c2	-1.0542529
