matrix/result/0906/inverse_mse_mul_fc.pt (torch, 71589 bytes, 18 tensors)

weight f4 [16, 10]
00000000: d7e6 1340 d32d 7440 aefd 5d40 ffd5 8440
00000010: abf6 9740 688e 8640 fe61 9a40 fdd3 4540
00000020: 260f 8240 d49b 7740 3d0d 2040 e1de 7240
00000030: 0f9b 5140 d1fc 8740 9a1a a240 b40e 8740
00000040: 3e7a 9f40 b54f 4340 5628 8340 5a00 6740
00000050: 5080 1cc0 e466 68c0 42f4 52c0 edcb 89c0
00000060: f6f6 99c0 f38d 7ec0 7604 a0c0 174d 44c0
00000070: b484 82c0 4451 6dc0 a63f 3340 586b 6540
00000080: 6cf9 5940 ea8d 8a40 aae1 9840 7089 8740
00000090: 3d5d 9e40 c310 5640 e230 7e40 245d 7440
000000a0: 7f4d 1b40 2e17 5b40 2dd9 5540 759b 8340
000000b0: cfea a040 4f60 8140 20f7 9a40 a1ba 5340
000000c0: 0bb9 8d40 08c6 6c40 e06d 1e40 7380 8040
000000d0: 2645 4940 5e42 8740 bc0f a240 f49a 7f40
000000e0: ce4e a740 f7ac 4740 61c5 8140 6f4e 6140
000000f0: c1f2 19c0 6b28 7ac0 ba93 45c0 468d 87c0
00000100: 9efc 9bc0 66f5 8dc0 0eda a4c0 64f4 38c0
00000110: 927a 8dc0 9ec6 77c0 8cda 2540 c3d9 5c40
00000120: 4c3a 6240 f5f8 8b40 a461 9a40 7f2e 7740
00000130: 4fa7 a840 a7ac 3d40 46f9 7540 38e0 7240
00000140: b239 2540 4fe5 6f40 d697 6b40 b790 8c40
00000150: fa50 9240 b7a7 8840 267f a540 2bf8 3840
00000160: d412 7440 4d7d 7a40 3825 30c0 f09d 61c0
00000170: 1b20 60c0 03f0 85c0 65f3 a1c0 6f46 8cc0
00000180: 9dbe a1c0 0880 37c0 5042 89c0 a3af 77c0
00000190: 1019 2640 ac55 6640 ddaf 6740 2ccc 8b40
000001a0: 6991 a140 52da 8040 18fa 9440 f0db 5440
000001b0: 4b44 8540 5852 7b40 7cc7 1540 0081 6940
000001c0: 8aca 5b40 ba2c 8540 518b 9f40 9322 7b40
000001d0: d636 a840 12f6 5140 a4ba 8840 b9a7 5f40
000001e0: d61c 36c0 c804 6cc0 6cba 4cc0 0d4e 8cc0
000001f0: c3ee 90c0 64ba 7dc0 6364 a5c0 a7dc 4bc0
00000200: 1a64 88c0 5785 73c0 1784 2040 7534 5940
00000210: 10dc 6a40 5325 8040 eaf3 9540 5965 8440
00000220: 2a8b 9e40 c708 5840 4b9f 8d40 38fb 7240
00000230: 6f6b 14c0 5d8b 6ec0 9ad4 62c0 fdd5 78c0
00000240: 4bec 8fc0 ab2b 82c0 e25e a4c0 9d06 4bc0
00000250: 9b69 8dc0 c7e4 81c0 f3c8 14c0 3b12 6fc0
00000260: e05d 5ec0 b6de 83c0 e115 a0c0 e1a1 86c0
00000270: 384c a3c0 71dc 55c0 9924 88c0 015b 6bc0
2.3109643 3.815297 3.4686084 4.1511226 4.748861 4.2048836 4.824462 3.0910637
4.064349 3.868886 2.500808 3.7948534 3.275089 4.2496114 5.0657473 4.220545
4.983672 3.05174 4.098674 3.6093965 -2.4453316 -3.63128 -3.2961583 -4.3061433
-4.8113966 -3.977414 -5.0005445 -3.0672052 -4.078699 -3.708085 2.8007598 3.5846767
3.4058485 4.3298235 4.777547 4.235527 4.9488816 3.344773 3.9717336 3.8181849
2.426605 3.4232898 3.3413804 4.1127267 5.028663 4.0430064 4.8426666 3.308266
4.4288383 3.6995869 2.4754562 4.01568 3.1448455 4.2268515 5.0644207 3.9938326
5.2283697 3.119932 4.055344 3.5204122 -2.4054415 -3.908717 -3.0871415 -4.2359953
-4.874587 -4.436206 -5.151618 -2.8899164 -4.421212 -3.8714976 2.591464 3.4507911
3.5348082 4.3741403 4.824419 3.862213 5.2704234 2.9636629 3.8433394 3.7949352
2.5816464 3.748371 3.6811423 4.3926654 4.572385 4.270473 5.171771 2.890147
3.8136492 3.9138978 -2.7522717 -3.5252647 -3.5019596 -4.1855483 -5.0609612 -4.383598
-5.054518 -2.8671894 -4.289345 -3.870095 2.5952797 3.598979 3.6201088 4.3686733
5.0490003 4.0266504 4.655529 3.325924 4.1645865 3.9269009 2.3403006 3.6484985
3.434237 4.16171 4.9857564 3.9239852 5.256694 3.280644 4.2727833 3.494612
-2.84551 -3.6877918 -3.1988783 -4.3845277 -4.5291457 -3.9645014 -5.168504 -3.1853426
-4.2622194 -3.8050134 2.5080621 3.3938267 3.6696815 4.004556 4.6860247 4.1373715
4.954488 3.3755357 4.425695 3.7965832 -2.3190572 -3.727256 -3.5442262 -3.8880608
-4.4975944 -4.0678306 -5.1365824 -3.1722786 -4.4191413 -4.059177 -2.324765 -3.7354877
-3.4744797 -4.1209364 -5.002671 -4.2072606 -5.103054 -3.3415797 -4.2544675 -3.6774294

bias f4 [16]
00000000: 1c4c c240 3058 bc40 4edf bdc0 573f bd40
00000010: 6a15 b440 4f53 b740 bbb2 c1c0 deb6 b740
00000020: d445 b040 fb21 b8c0 31d2 b040 8e82 b840
00000030: 77e3 bdc0 4f93 b440 95bb c1c0 7e8e b4c0
6.0717907 5.885765 -5.933509 5.913982 5.627614 5.7289195 -6.0530677 5.7410727
5.508524 -5.754148 5.525658 5.765937 -5.9340167 5.642982 -6.054148 -5.642394

weight f4 [32, 16]
00000000: af16 9dc0 7ae0 91c0 178a 9b40 d0ff 91c0
00000010: 7295 98c0 a152 94c0 1a0d a240 37bb 93c0
00000020: 8492 9bc0 082a 9c40 ccfe 9ec0 9631 96c0
00000030: 5238 9e40 675f 8ec0 5ae5 9440 bdc6 9740
00000040: 3960 9a40 aa59 9f40 3d82 98c0 5eed 9c40
00000050: 4af0 9240 7bd4 a040 e468 9bc0 10f9 9940
00000060: 85bb 9140 626e 9fc0 ddd2 9c40 6c0e 9340
00000070: 6d58 96c0 9cac 9a40 2704 9bc0 4613 98c0
00000080: e3dd 9fc0 139e 9fc0 5dae 9d40 2398 9cc0
00000090: f6cf 99c0 3fd4 96c0 7811 9840 7e44 9ac0
000000a0: 02ab 98c0 3f1f 9340 7fe9 9bc0 90a9 9dc0
000000b0: 42a2 9b40 5e5f 9cc0 dc29 9940 07ca 9c40
000000c0: 0526 92c0 5dc0 9ac0 b7c1 9740 f59c 9ec0
000000d0: 2aea 94c0 287f 9fc0 9d98 a040 cd73 9dc0
000000e0: a93a 96c0 5c52 9240 6523 9fc0 2838 95c0
000000f0: 1567 9e40 9411 97c0 b252 9740 f2b6 9f40
00000100: 844c 9dc0 cc8c 92c0 ee39 9140 a220 94c0
00000110: 6f9b 93c0 eb9b 9fc0 9c64 a140 5627 a0c0
00000120: 7300 98c0 f616 9440 e4c9 97c0 c0db 99c0
00000130: ee46 9040 766f 96c0 7b77 9c40 2424 9b40
00000140: e40b 9dc0 a88d 92c0 d7e1 9040 94f0 8fc0
00000150: 168f 9dc0 19f3 9bc0 f539 9b40 346e 93c0
00000160: e8da 94c0 7ea9 9c40 3c18 96c0 d2c3 99c0
00000170: 3862 9240 95c2 96c0 57ad 9240 514e 9440
00000180: aafb 9b40 c052 9540 2729 98c0 d067 9e40
00000190: 5bbe 9b40 98e8 9d40 b290 9cc0 70de a040
000001a0: c48a 9e40 ef35 9ac0 a6f5 8f40 5d01 9d40
000001b0: 768d 9ac0 2ed1 9340 b087 9bc0 5867 99c0
000001c0: ed7b 9240 c1e3 9a40 27d3 95c0 2dd8 9a40
000001d0: 8a93 9640 f009 a140 74b8 9fc0 4aa2 9340
000001e0: a6e6 9b40 825e 98c0 1d56 9a40 5114 9a40
000001f0: 4b0b 94c0 a639 9840 d655 9ac0 a064 9dc0
00000200: f1a8 9f40 50c5 9640 e376 9ac0 35ff 9e40
00000210: 38d8 9c40 7fdf 9540 e9c0 9fc0 3e2b 9640
00000220: 7314 9940 65d7 9ec0 87a7 9940 38bf 9740
00000230: 77d7 8fc0 8d0d 9640 fa03 91c0 8bfd 98c0
00000240: 502a 9840 f82f 9140 247b 9cc0 556c 9e40
00000250: 073c 9d40 5363 9f40 a7bd 9bc0 8cb8 9340
00000260: 696c 9e40 2c85 9bc0 3a85 9540 e779 9040
00000270: 0497 93c0 c2b1 9b40 1305 9ac0 b8e3 93c0
00000280: 117f 9cc0 cb88 9ac0 7e79 9740 01b4 98c0
00000290: 30e6 9ac0 1e24 98c0 719a 9e40 8210 9cc0
000002a0: 4dde 9ac0 794c 9140 a282 9ac0 89ad 93c0
000002b0: d117 9040 0440 9bc0 7b38 9740 8ca5 9440
000002c0: e546 9440 930f 9740 fb4c 9bc0 7471 9240
000002d0: 4efe 9a40 da36 9e40 df99 9fc0 9a2d 9c40
000002e0: d557 a140 5995 95c0 1379 9c40 3044 9d40
000002f0: 4d5c 96c0 d812 9b40 8ca4 9ec0 5514 95c0
00000300: f93b 9e40 eadc 9d40 bd7e 94c0 c7e1 9140
00000310: 15b8 9740 18dd 9540 a329 98c0 520e 9440
00000320: ef5e 9e40 8ec8 a0c0 0a40 9d40 5c79 9640
00000330: 0d35 9dc0 553b 9440 40e5 9ec0 36cd a0c0
00000340: 6e7f a0c0 3785 9fc0 c893 8d40 8ffd 9dc0
00000350: c721 9cc0 dfcb 92c0 c779 9a40 bca4 96c0
00000360: 575b 9ec0 f132 9d40 0441 97c0 3acf 9fc0
00000370: b170 8f40 36f3 95c0 19d5 9840 68c1 9740
00000380: c2ce a0c0 87d4 9fc0 d285 9640 4d98 99c0
00000390: 8f9a 95c0 a5e2 95c0 fecc 9340 734a a2c0
000003a0: 362a 9cc0 7ae2 9840 e296 9cc0 8a14 97c0
000003b0: 629c 9a40 e79b 99c0 bb94 9b40 ac72 a040
000003c0: 7de8 97c0 2352 95c0 3590 9040 7279 99c0
000003d0: 3709 99c0 b083 9cc0 9e78 9c40 ca1f 9cc0
000003e0: caa3 9ac0 6334 9c40 df32 96c0 8099 90c0
000003f0: 3cb5 9b40 051d 94c0 9565 9740 07fd 9040
-4.909019 -4.558652 4.8606067 -4.562477 -4.768243 -4.6350865 5.0640993 -4.6166034
-4.861635 4.880131 -4.968603 -4.693553 4.944375 -4.449146 4.652997 4.74301
4.824246 4.9796953 -4.765898 4.9039755 4.591832 5.0259376 -4.856554 4.811653
4.5541406 -4.9822245 4.90074 4.5955105 -4.698294 4.8335705 -4.844257 -4.7523527
-4.995836 -4.988046 4.9275346 -4.8935714 -4.806636 -4.713409 4.7521324 -4.820861
-4.770875 4.597564 -4.872253 -4.9269485 4.863557 -4.8866415 4.78636 4.8996615
-4.567141 -4.835982 4.742397 -4.95666 -4.6535845 -4.984272 5.0186296 -4.920386
-4.6946607 4.5725536 -4.9730706 -4.663105 4.9500833 -4.720896 4.7288446 4.991082
-4.9155903 -4.579687 4.5383215 -4.6289835 -4.612724 -4.987783 5.0435314 -5.0048018
-4.750055 4.627803 -4.743395 -4.808075 4.5086584 -4.701106 4.889585 4.8481617
-4.9077015 -4.579792 4.5275683 -4.4981174 -4.9237165 -4.873425 4.850825 -4.6072025
-4.651722 4.89569 -4.6904583 -4.805154 4.5744896 -4.7112527 4.5836596 4.63456
4.8744707 4.6663513 -4.7550235 4.9501724 4.8669868 4.934643 -4.892663 5.027153
4.954439 -4.8190837 4.4987364 4.9064164 -4.829768 4.6192846 -4.8603134 -4.793865
4.5776277 4.840302 -4.6820254 4.8388886 4.70551 5.032463 -4.9912663 4.6135607
4.8719053 -4.7615366 4.823012 4.81498 -4.6263785 4.757037 -4.822978 -4.9185333
4.9893727 4.711586 -4.8270125 4.968653 4.901394 4.683532 -4.9922986 4.6927786
4.7837462 -4.9637933 4.8017 4.742092 -4.495052 4.689154 -4.5317354 -4.78095
4.755165 4.5371056 -4.890032 4.950724 4.9135776 4.9808745 -4.866901 4.6162777
4.9507337 -4.8600063 4.672513 4.5148807 -4.6121845 4.865449 -4.8131194 -4.6215477
-4.890511 -4.8291984 4.7335806 -4.771973 -4.840599 -4.754409 4.9563527 -4.877015
-4.8396363 4.540585 -4.8284464 -4.6149335 4.5029073 -4.8515644 4.7256446 4.6452084
4.633654 4.720651 -4.853147 4.5763493 4.843543 4.9441957 -4.987533 4.8805666
5.0419717 -4.674481 4.8897796 4.9145737 -4.698767 4.8460503 -4.9575863 -4.658732
4.944821 4.933217 -4.640471 4.5588107 4.741221 4.683239 -4.7550826 4.626748
4.9490886 -5.024482 4.9140673 4.7023144 -4.912726 4.6322427 -4.9654846 -5.02505
-5.0155554 -4.9850116 4.4242897 -4.937202 -4.879123 -4.5873866 4.8273654 -4.707609
-4.94865 4.9124684 -4.7266865 -4.994046 4.4825063 -4.685939 4.776013 4.742359
-5.025239 -4.9946933 4.7038355 -4.7998414 -4.675117 -4.6839166 4.6187735 -5.071588
-4.8801527 4.777646 -4.8934183 -4.721257 4.8315897 -4.800281 4.8619056 5.013998
-4.74713 -4.6662765 4.5176034 -4.796075 -4.782375 -4.891075 4.889724 -4.8788805
-4.832494 4.881395 -4.69371 -4.518738 4.8658733 -4.6285424 4.73115 4.530887

bias f4 [32]
00000000: f3eb adc0 65da b840 672e acc0 9d88 b1c0
00000010: bd1c b9c0 aeed afc0 bf7f ac40 68f9 ad40
00000020: 5d8f b440 3034 ad40 92f8 aac0 d833 b340
00000030: a232 b040 54f8 b6c0 d750 b5c0 0031 aac0
00000040: 125e b4c0 9d2b bcc0 47e5 af40 e70c b4c0
00000050: a7fd b540 56d8 b9c0 e35e b540 834d b5c0
00000060: 2ef4 bb40 1ab1 b640 29d4 bc40 010a b040
00000070: 0ee9 acc0 3a36 afc0 627a b8c0 d05c bcc0
-5.4350524 5.7766595 -5.3806643 -5.5479264 -5.784758 -5.4977636 5.390594 5.436695
5.6425004 5.4126205 -5.342843 5.6000786 5.506181 -5.7178135 -5.666118 -5.3184814
-5.636483 -5.880324 5.496738 -5.626575 5.6872134 -5.807658 5.667833 -5.665712
5.873557 5.709119 5.9008985 5.501221 -5.403449 -5.4753695 -5.7649393 -5.8863297

weight f4 [64, 32]
00000000: b2f1 31bd 75b0 80bd c4be 823d 804f 36bd
00000010: 2aee f83d 5edb 0bbe 4953 c1bb 7b1e 59bb
00000020: 8591 72bd c2c3 91bd a599 82bc 1189 c6bd
00000030: ce90 aabd 9a6e 32be ffcb 023e d399 e63d
00000040: a762 33bd fd00 c5bd be8e 7d3d a52a 1c3e
00000050: 7c23 d13d 3083 af3d 7b9a ee3d 6192 92bd
00000060: ccd4 edbd 4e2b 073e e5f2 fc3c c9a0 cd3c
00000070: 659b 013c c148 0b3e 393f 34bd 90ec e53d
00000080: 3769 a63d c3c0 6abd 9623 1a3e b81f 23be
00000090: 2b34 d33c 8e06 973d eb9c 2a3e 6167 c63d
000000a0: f8e2 ccbd 0458 783d 7ce8 41bc ea3e 563d
000000b0: 5724 11bd b471 2abe 6fa4 d93d 6cd1 ba3d
000000c0: d64e 5c3c c2e5 c5bd 5213 773d 65a1 3ebd
000000d0: 9877 1f3e f9e3 81bd f539 24be d596 1fbe
000000e0: a7a7 e3bd 6597 1bbe e6dc ae3c 67c8 673d
000000f0: c871 88bd be20 8e3d 8d0a 303e cc71 003e
00000100: 070f e3bd 85bc 813d 5e8b e5bd 54b5 633d
00000110: 7eb1 14be 6b65 293e 76dd f13d 0788 17be
00000120: a0b3 683b 032e 103e 932e 713d e62f 02be
00000130: 4006 9abd 6f21 d4bd 8d69 1dbe c63b 163e
00000140: 6b6a c63d b170 ffbd 9aca 8c3c 4e3b 013e
00000150: 51fd 2dbd afab 0fbe 2e6d 9cbc 0878 b5bc
00000160: 6181 24bd 48e7 3b3d 87eb 0d3e bb3e 1ebe
00000170: bd97 2d3d d07a d13d 13d6 b53b eca2 203e
00000180: ea17 c73d 0116 17be dcf6 a6bd e760 223e
00000190: 056d 80bd 84bf 393c 71c6 04be e65b 18bd
000001a0: b81b 1cbe 36cb cd3c 9bd7 1b3e a32d 27bc
000001b0: d7e2 bd3d a284 0a3d 37a8 0e3e 9787 843d
000001c0: 1eaf 2d3e a95d d03b f619 b13d 56dc 8abc
000001d0: f9cf 1fbe 04fb 473d 779b 80bc 4b4d 923d
000001e0: 99dd e23c c38f ff3d 2de3 bebc 2e83 e53c
000001f0: f138 bcbd 030c 1b3e 63c1 1e3e 8ede 5cbc
00000200: aaab 58bd 0dfe 12be dfc5 083e 1371 523d
00000210: a03b 223e 177e aabd 942e 273e cf8f 8bbc
00000220: f1b3 233e cef5 833c 9cf7 0a3e a730 cd3d
00000230: 8a5c 11be e309 6ebd a921 403d fc25 a43d
00000240: 2b79 ccbc 1e90 30be 468d 9abd b316 623d
00000250: 98da 0e3e 3131 d63d 9fc1 51bd 1ef6 8bbd
00000260: 8878 bbbc 91d2 febd 9537 77bd 6f36 ad3d
00000270: 0f95 1fbe 4c7a cebd ca78 e4bd 7905 43bd
00000280: 1500 6dbd 6d30 b9bd 4d5a febd 6086 f83d
00000290: 0fa2 21be 2443 eabd 01be 04be aa01 ff3d
000002a0: e8a6 1a3a 338f 55bc 0c37 303d 034f cbbd
000002b0: f49c f9bd 3662 b9bd 9f0b 07bd 77a3 033e
000002c0: 9674 673d a5ca 823d 3a31 33be 5751 78bc
000002d0: 7eaa c13d 0dc0 b03d 6fa9 1a3e de87 583b
000002e0: 2d27 1abe 07f9 25be 7e0f fa3d 0395 1cbe
000002f0: 8cf3 febb d402 8dbd edfc c3bd 4190 b23d
00000300: a910 a4bd 9fc6 503d d716 08bd 33aa 053e
00000310: f09f 22be b851 06be 8fed 1e3e 7191 8bbd
00000320: a5e1 d9bd f75f 81bd a633 f7bd 917f ddbd
00000330: ef1d 933d c497 2d3e 462e 013e c9de 1b3d
00000340: 9609 de3d 9e7a e3bc 8b9e 9a3d 9b24 7abd
00000350: 4c7c 393d ea8e 4cbd 3bc6 d93d b246 923d
00000360: b308 33be 432f ba3d edab 2f3e 4987 f9bd
00000370: d79e 0a3d 67b0 2cbc 43c0 173e 492d ecbd
00000380: be35 28bc bb15 2b3d 20bd 36bc 705f 253e
00000390: 622d 0bbe f1d0 3f3c af5a d13d 4e6a 0c3d
000003a0: 475c 893d 62c4 c9bb 9a9d 943d ada4 b3bc
000003b0: 6bba 153e a646 bfbd 00a1 133e 09b7 1e3e
000003c0: 63c3 eb3d 0e0d 25be 5db6 a73d 3f34 293e
000003d0: 9fe4 31be 77e3 ec3d 38bb 18be 25e9 ab3d
000003e0: 32b3 ddbd 505f 44bc 9706 4d3d d88e f03d
000003f0: 0116 2b3e 4ea5 283e 0652 ea3d 7942 1cbe
-0.04344339 -0.062836565 0.06384042 -0.04450941 0.12154801 -0.136579 -0.005899821 -0.003312974
-0.05922081 -0.07117416 -0.015942404 -0.09694112 -0.083284006 -0.17425004 0.12773131 0.112598084
-0.043795254 -0.09619329 0.061903708 0.15250643 0.10211846 0.08569944 0.116505586 -0.07156826
-0.116128534 0.13200113 0.03087754 0.025101082 0.007910584 0.13601972 -0.044005606 0.11226761
0.08125537 -0.05731274 0.15052637 -0.15930068 0.025781712 0.07374297 0.16661422 0.09687687
-0.10004228 0.060630813 -0.011835214 0.052306093 -0.035435047 -0.16644937 0.10627066 0.09121975
0.01344653 -0.096629634 0.06032116 -0.046540637 0.15572965 -0.063423105 -0.16037734 -0.15584882
-0.111159615 -0.15194471 0.021345567 0.056587603 -0.06662327 0.06939839 0.17191525 0.1254341
-0.110868506 0.06334785 -0.11208223 0.05559285 -0.14520833 0.16542594 0.118098184 -0.14797984
0.0035507455 0.14080052 0.058882307 -0.12713584 -0.07520723 -0.103579395 -0.15372296 0.1467124
0.09688266 -0.12472666 0.017186452 0.12620279 -0.04247791 -0.14030336 -0.01909503 -0.022151962
-0.040162448 0.045874864 0.13859378 -0.15453617 0.042381037 0.10228503 0.0055492013 0.1568715
0.09721358 -0.14754488 -0.081525534 0.15857278 -0.06270794 0.011337165 -0.12966324 -0.037197016
-0.15244949 0.025121313 0.15218966 -0.010203752 0.09271782 0.033817895 0.13931356 0.06471174
0.16961333 0.0063588214 0.0864753 -0.016950767 -0.15606679 0.04882337 -0.015699131 0.07143649
0.027693557 0.12478592 -0.023301685 0.028016653 -0.09190548 0.15141301 0.15503459 -0.013480796
-0.052898087 -0.14354725 0.13356732 0.051377367 0.15843058 -0.08324831 0.16326362 -0.017036347
0.15986611 0.01610842 0.13571018 0.10019045 -0.14195457 -0.058114897 0.0469071 0.080150574
-0.024960121 -0.17242476 -0.07546477 0.05519743 0.13950574 0.10458601 -0.051210042 -0.068340525
-0.022884622 -0.12442506 -0.06035574 0.08457648 -0.15584205 -0.1008192 -0.11155851 -0.04761264
-0.057861406 -0.090424396 -0.12419567 0.12135005 -0.15784477 -0.11438587 -0.12963106 0.12451489
0.0005899505 -0.01303463 0.043021247 -0.0992718 -0.121881396 -0.090519354 -0.032970067 0.12855326
0.05650767 0.063863076 -0.17499247 -0.015156112 0.09456347 0.08630381 0.15103696 0.0033039968
-0.15054007 -0.16208278 0.12209986 -0.15291218 -0.007780498 -0.06885305 -0.09569726 0.087189205
-0.0801099 0.05097067 -0.033224907 0.13053207 -0.15881324 -0.1311711 0.15520309 -0.0681485
-0.106387414 -0.06317132 -0.12070398 -0.10815347 0.07183444 0.16952425 0.12615308 0.03805426
0.10841672 -0.02776843 0.07549771 -0.061070066 0.045284554 -0.04994098 0.106335126 0.0714239
-0.17483787 0.09091046 0.17155428 -0.12184007 0.033842888 -0.0105401045 0.14819436 -0.11532075
-0.010266719 0.04176877 -0.011153489 0.16149688 -0.13591531 0.01170753 0.10222375 0.034281068
0.06707054 -0.006157444 0.072566226 -0.02192911 0.14621894 -0.09339647 0.14416885 0.1549951
0.115118764 -0.16118261 0.0818908 0.16523837 -0.17372368 0.11566823 -0.14915168 0.08394078
-0.108251944 -0.011985615 0.050055113 0.11745995 0.16707613 0.16469309 0.11441426 -0.15259732

bias f4 [64]
00000000: 2fa9 27be 640c 21bc 1423 b73d 5a5a 87ba
00000010: 47ec dabd 0807 2cbd 14bc e1bc 1051 ff3d
00000020: d278 b2bc 0ce6 f3bd 4a5d 75bd 87bf 34be
00000030: 1b37 10bc 5edc 2b3e 42d0 c7bd 6632 793d
00000040: cd5f cc3c 7293 99bc e4c5 233e fd77 4abb
00000050: cbfd 923d 5953 ff3d 2be7 333d 6ef2 9bbd
00000060: 427a 2a3e b3a1 23be f6f9 c23a a4bb 3fbc
00000070: 7f48 0cbe c8ef 16bd 9932 e4bd fc21 dd3d
00000080: c78c 7d3c 0166 7c3b 37a3 b63d c59b 7b3b
00000090: 9562 b6bd f767 703d 30d8 95bc 98c8 a3bd
000000a0: f706 8ebd fa00 9bbc 9a43 623d 3470 08be
000000b0: 3922 c7bd 74cf c93d 15f6 afbd e331 32bd
000000c0: 8bae 873c 3c1f e33d 7af9 5f3d feee 3fbd
000000d0: 0d2b a73d e1c7 dbbd f37c cebd 7124 1f3d
000000e0: d8ca 80bc bbe5 2a3e 6ba2 b43d 657c 113e
000000f0: 1eab a7bd 1859 463d 5d3f a8bd 8709 d2bd
-0.16373132 -0.009829614 0.089422375 -0.001032661 -0.106895976 -0.041998893 -0.027555503 0.12466633
-0.021786127 -0.11909112 -0.05990342 -0.17651187 -0.008802201 0.16783282 -0.09756519 0.06083908
0.024948025 -0.018747065 0.15993458 -0.0030894272 0.071773134 0.12467069 0.04392163 -0.07614599
0.166482 -0.15979652 0.001487552 -0.011702452 -0.1369953 -0.036849767 -0.11142463 0.10797498
0.015475458 0.0038512948 0.089178495 0.0038392406 -0.08905522 0.0586929 -0.018291563 -0.079972446
-0.06934922 -0.018921364 0.05524025 -0.13324052 -0.09723324 0.09854022 -0.08591858 -0.043504607
0.01656272 0.11089942 0.05468128 -0.04685878 0.08162508 -0.10731483 -0.10082426 0.038853113
-0.015721723 0.16689198 0.08820041 0.14207609 -0.08186935 0.04842481 -0.082152106 -0.102557234

weight f4 [32, 64]
00000000: a04d 133d b054 113d 78f6 e9bd ec9e 08bd
00000010: 7037 61bc 8cb5 6f3d 5c67 1abd e6a3 ac3d
00000020: 3c22 ca3d 90aa c3bc 40c9 bb3c 6089 06bc
00000030: 6098 1fbd c076 62bc a494 323d be99 bf3d
00000040: 4c68 f93d e824 8d3d 1631 a0bd a8cb e6bc
00000050: fac6 b9bd ae4d dc3d f0a4 5f3d 1e11 8b3d
00000060: 08cc a63c aa7e e6bd c01a c23d e0df a63c
00000070: 1833 cc3c b0dd fb3d 600c dcbb fe22 9bbd
00000080: 60db 92bd 809f 893c 54a8 b0bd 80bf 59bc
00000090: 60b3 58bd 0850 98bd 60d4 8e3d 686b d2bd
000000a0: 100a 733c b0cd f6bd c082 67bc 1a54 803d
000000b0: 7edd b93d 0423 b4bd f027 3b3c fe65 f33d
000000c0: e272 8a3d 94e5 edbd 4478 77bd bc06 df3d
000000d0: 48cd b3bd 9e7c cdbd 582c 903c 7850 223d
000000e0: a4da e8bd 103f a2bd dcd4 303d dad5 87bd
000000f0: b248 f2bd b04e be3c cc17 cc3d b00b d03c
00000100: f214 fd3d 1c64 19bd b0ef 2c3c 306a c33c
00000110: 30f2 c0bd e424 b43d f680 8c3d ec85 193d
00000120: 662e 97bd 7882 eb3c ae6f 84bd d828 2bbd
00000130: 6e66 c3bd 9842 6bbd 1831 32bd da9e 9ebd
00000140: be11 c9bd b0fb 673c 0098 d438 4452 7bbd
00000150: 4094 0abc a027 963d 3648 d4bd 0a3c 92bd
00000160: 0a04 96bd 8691 d2bd e4c2 76bd 109c a6bc
00000170: 182a f6bc 50fb 6f3c b084 4fbd b69f bb3d
00000180: 004c 2d3c 3c12 0dbd d402 703d f80c dfbc
00000190: 00eb b73c ce95 f33d d6a1 9c3d 3076 453c
000001a0: a07d bfbc d057 e33c 82ed e3bd 6836 9c3d
000001b0: 38f9 7d3d 1458 55bd 947a 63bd c0af 0d3b
000001c0: 7c1f 073d 5c94 793d 8872 9a3c 0049 94bc
000001d0: f03e 7c3c 808f bc3c ae9d b6bd 0097 85bc
000001e0: 90dc c53d c05e e13d 548c 873d a6f9 d8bd
000001f0: b0be aabd 40a3 eb3c b426 2a3d 4866 d2bd
00000200: 0e2a efbd a05e 1dbc 648c 52bd b26a e43d
00000210: 40fd 153b be1f e1bd e048 cdbd 0076 fc3b
00000220: 58d4 f2bc ea9e 943d 4ad4 a73d fcfa 7c3d
00000230: 6a37 cfbd 706c 8fbc f8ff 013d 6e40 fc3d
00000240: b4f7 9ebd 8076 d2bc 002e b83b 4ce4 193d
00000250: 2c44 8ebd aa80 debd dc43 c1bd 00ce b3bc
00000260: 96de 8f3d 10aa f43c 90ef ef3d 90ee da3d
00000270: a03b ef3d 3c94 9fbd 20e6 c9bb b04a 923c
00000280: f6e1 b03d ca14 af3d 70cb 103c a0cc 8a3b
00000290: 00d7 faba fe0d ee3d 209f 863b 6604 80bd
000002a0: e649 d53d 009a 8dbd f0b7 a53c 3680 cebd
000002b0: b4b8 04bd aca7 93bd c0f3 963d 604a d5bc
000002c0: 6655 c3bd 6895 923c 8490 6a3d 9c9b 18bd
000002d0: cc39 773d bc9e 92bd 9461 cb3d 3a8e e73d
000002e0: 7893 b63d 5ee3 fe3d 3624 c5bd e01e f0bc
000002f0: 0ef8 91bd 18b4 e3bc b899 843d fcb7 4cbd
00000300: 347f f1bd c8fc 3f3d 60c6 c4bc 2012 2e3d
00000310: 2c61 7dbd 6c38 113d 98fe b23c 7231 97bd
00000320: 903a 973d 30ed 60bd 881e 33bd fa79 dabd
00000330: 4048 9d3b 3292 b73d c820 f13d c45a 81bd
00000340: ac5e 8e3d 26c5 d0bd cc8e 523d 3e8f 9c3d
00000350: 08b9 273d 38f5 ec3c 723f 8b3d 0ca1 c6bd
00000360: 2a8a c1bd 4885 e83c 604b 0d3c 38b3 6fbd
00000370: 746b 41bd f8da d23c 0cc7 57bd 18fe d73c
00000380: 40ab dcbd 426e f63d 2419 1f3d 2c35 e6bd
00000390: c832 ee3c 9eef e83d 4050 933b 982a 74bd
000003a0: 64d1 93bd 3c80 603d e67a bb3d f024 3ebc
000003b0: 08da f93c b6ae d73d b885 003d 00c4 68b9
000003c0: 2afe d3bd f8e3 e5bc a42f a13d 5474 55bd
000003d0: 009b 8b3d a84d f43c 00fb 41bd 7abb be3d
000003e0: bc6b a7bd 5c20 60bd 00bd 20bd 405a e33c
000003f0: 240d 09bd 3074 a6bc 2843 41bd 4cee 013d
0.0359627 0.035481155 -0.11423963 -0.033354685 -0.0137461275 0.058522746 -0.037696227 0.08429699
0.09869811 -0.023885041 0.022923112 -0.008211464 -0.038963675 -0.0138222575 0.043598786 0.09355496
0.12178096 0.06891805 -0.078218624 -0.028173283 -0.09071155 0.10757004 0.054600656 0.06790374
0.020360962 -0.11254628 0.094777584 0.020370424 0.024926707 0.12298143 -0.0067153424 -0.075750336
-0.07170749 0.016799688 -0.08625856 -0.013290286 -0.05290544 -0.0743714 0.06974101 -0.10274392
0.014833942 -0.120509505 -0.014130294 0.06266041 0.090754494 -0.08795741 0.011423096 0.11884688
0.067601934 -0.11616054 -0.06041743 0.10889956 -0.08779389 -0.100335345 0.01759927 0.039627522
-0.113698274 -0.079221845 0.04317175 -0.06632586 -0.11830272 0.02323088 0.099654764 0.025396198
0.123575106 -0.037448987 0.010555193 0.023854345 -0.094211936 0.08796099 0.06860535 0.037481233
-0.07381897 0.028748736 -0.06466614 -0.041787 -0.09541021 -0.057436556 -0.04350385 -0.07745142
-0.09817837 0.014159128 0.0001013726 -0.06135775 -0.008458197 0.073317766 -0.10365336 -0.07140358
-0.07324989 -0.10281663 -0.060244456 -0.020338088 -0.030049369 0.01464732 -0.05066365 0.09161322
0.010577202 -0.034441218 0.058596447 -0.027227864 0.022450924 0.11893807 0.07648055 0.012052104
-0.023375332 0.027751833 -0.111292854 0.07627565 0.06200525 -0.05208595 -0.05553682 0.0021619648
0.03298901 0.060932502 0.01885344 -0.018101215 0.015395865 0.023017645 -0.08916794 -0.016307354
0.096612096 0.110044 0.06618562 -0.10594492 -0.08337152 0.028764367 0.041540816 -0.10273415
-0.11677943 -0.00960508 -0.05140342 0.11153163 0.0022886544 -0.109923825 -0.100236654 0.0077044964
-0.029642269 0.07256873 0.08194788 0.061762795 -0.10117991 -0.017507762 0.03173825 0.123169765
-0.07762089 -0.02569127 0.005620718 0.037571236 -0.069465965 -0.108643845 -0.09436771 -0.021948814
0.07024877 0.029866248 0.11715615 0.106900334 0.116812944 -0.07791945 -0.0061614662 0.01785788
0.08636849 0.08548887 0.008837566 0.004235819 -0.0019137561 0.116237625 0.0041083246 -0.06250839
0.10414486 -0.06914139 0.02022931 -0.10083048 -0.03240271 -0.07209715 0.073707104 -0.026036441
-0.09537773 0.017893508 0.057266727 -0.037257776 0.060357854 -0.071591824 0.09930721 0.113064244
0.08914846 0.124457106 -0.09626047 -0.029311597 -0.07127391 -0.027795836 0.06474632 -0.04998015
-0.1179184 0.04687193 -0.024020374 0.042497754 -0.06186025 0.0354542 0.021849915 -0.07382478
0.07384217 -0.0549137 -0.04373029 -0.106677964 0.0047998726 0.089634314 0.11773831 -0.0631614
0.06951651 -0.10193853 0.051405713 0.07644509 0.040947944 0.028925523 0.067992106 -0.09698686
-0.09450181 0.028383866 0.008623928 -0.058520526 -0.047221616 0.025739178 -0.05268006 0.026366279
-0.10774851 0.12032749 0.038842335 -0.112406105 0.029076949 0.11373828 0.0044956505 -0.059610933
-0.072176725 0.054809794 0.091543004 -0.011605486 0.030499473 0.1053137 0.031377524 -0.0002219826
-0.10351212 -0.028062806 0.07870415 -0.052112892 0.06816673 0.029822186 -0.047358513 0.09313102
-0.081748456 -0.05471836 -0.039242744 0.027752995 -0.033459798 -0.020319074 -0.047183186 0.0317214

bias f4 [32]
00000000: e8ba 013d 56b1 d9bd 542a 20bd 8042 b23b
00000010: 0271 ed3d 7066 1ebd 0cb3 ba3d 4085 76bc
00000020: 3ae1 cf3d 0472 f73d f659 99bd eab2 e0bd
00000030: 20e4 33bc fee4 d03d d8c9 773d da97 823d
00000040: 6cb8 763d 18ba 94bd f879 0bbd c076 0cbd
00000050: f24c dabd e84f 5d3d c077 023b 92e3 b53d
00000060: 440e 55bd a07e b23d 3e9c 803d 6cd2 a93d
00000070: 2248 afbd 149f 713d 3002 12bc 84a6 593d
0.03167239 -0.10629527 -0.039102867 0.0054400563 0.1159382 -0.03867191 0.09116182 -0.015046418
0.101503804 0.12082294 -0.07487862 -0.10971625 -0.010979682 0.10199927 0.060495228 0.0637662
0.060234472 -0.07262057 -0.034051865 -0.034292936 -0.106592074 0.054031283 0.0019907802 0.08881296
-0.052015558 0.08715558 0.06279801 0.08292088 -0.0855868 0.0589896 -0.008911654 0.053137317

weight f4 [16, 32]
00000000: 755e 9e40 6002 9ac0 afe1 9940 187b 9c40
00000010: 4a0c 9f40 5524 9940 226d 97c0 4eb5 98c0
00000020: ff70 9bc0 7a56 95c0 afb7 9640 7671 9cc0
00000030: 57f6 9bc0 83db 9c40 0b56 9540 d5a5 9740
00000040: cf38 9740 0c75 9e40 473f 97c0 f6d4 9740
00000050: bbbf 95c0 354e 9540 281b 95c0 39e5 9b40
00000060: b6a1 99c0 f7be 9ac0 827b 94c0 347d 99c0
00000070: e604 9d40 3fa9 9b40 8149 9740 953c 9e40
00000080: 6d16 9f40 958f 9ec0 462f 9940 4aab 9940
00000090: 7b53 9840 ee42 9740 bf18 9dc0 7eec 96c0
000000a0: c721 95c0 f326 9ec0 af10 9740 0bf9 98c0
000000b0: 9635 98c0 a2a0 9e40 70a6 9d40 07e0 9c40
000000c0: 1982 9540 7ed9 9640 8520 9ac0 095d 9540
000000d0: cff9 9fc0 7c21 9740 e7c6 99c0 9d2e 9940
000000e0: b82a 96c0 7ddc 9fc0 8839 9dc0 765c 95c0
000000f0: 6737 9a40 c998 9a40 04d1 9f40 207c 9840
00000100: ff06 94c0 4904 9740 3db2 97c0 9e37 9ec0
00000110: 9616 9fc0 d9ea 97c0 efd8 9e40 da83 9940
00000120: 40b2 9540 2f34 9e40 1bf8 9cc0 1c3b 9940
00000130: acd5 9c40 db53 9bc0 3727 9dc0 d0b5 9ac0
00000140: 1392 9ac0 24a0 94c0 9f58 9e40 bc53 98c0
00000150: c02f 9640 7211 9cc0 7848 9940 93ac 98c0
00000160: 5b34 9e40 70b8 9c40 bc74 9840 3307 9740
00000170: 5d78 99c0 4c62 9cc0 9519 9ec0 c258 9dc0
00000180: 8b4d 9540 8873 95c0 2c50 9440 7f6e 9a40
00000190: 3634 9740 cb41 9640 a8b8 95c0 63e8 97c0
000001a0: 4480 99c0 9d3e 99c0 41d3 9d40 d4d5 99c0
000001b0: d64c 9dc0 4f41 9a40 399f 9a40 51c4 9340
000001c0: a1f5 9540 488a 9540 64c0 9cc0 aa45 9c40
000001d0: 7e46 9cc0 f7e9 9840 901d 96c0 6816 9940
000001e0: 586d 9dc0 e391 93c0 a177 97c0 a650 98c0
000001f0: ff4b 9440 9b95 9440 1a34 9740 5b84 9940
00000200: 202c 97c0 970f 9940 20b2 95c0 a364 98c0
00000210: 6b11 96c0 9f1c 92c0 c96a 9740 1c5a 9040
00000220: 825e 9740 82ea 9040 32aa 91c0 5291 8d40
00000230: d98e 9040 c0f1 8dc0 f6c9 95c0 9977 94c0
00000240: cc8b 96c0 67bf 96c0 6f34 9540 6e8d 91c0
00000250: ac88 9740 1821 98c0 c7da 9340 e710 92c0
00000260: fdb0 9240 dab3 9340 df73 9340 b2d2 9140
00000270: 16b8 92c0 eced 8ec0 2dc3 93c0 3f31 96c0
00000280: db37 9b40 8442 94c0 5768 9840 6a34 9940
00000290: 8363 9b40 8f9e 9540 2563 9fc0 55cb 9dc0
000002a0: 116f 9ac0 963f 9bc0 b4f9 9d40 2106 9ac0
000002b0: 7360 9dc0 25cd 9440 a414 9440 0dc8 9740
000002c0: 7108 9a40 aae2 9c40 7ed1 9fc0 7231 9e40
000002d0: 3263 99c0 b130 9b40 47b9 96c0 af07 9440
000002e0: c134 9fc0 0e45 9cc0 5e11 9cc0 01e2 97c0
000002f0: 31c8 9640 3c42 9740 5f0a 9840 f08a 9b40
00000300: e55e 96c0 8ea2 9c40 bbb6 9ac0 445e 98c0
00000310: 7d29 98c0 c5b3 95c0 0780 9740 bf82 9340
00000320: cb44 9340 7b48 9640 5257 95c0 74f9 9b40
00000330: e7f6 9640 611a 97c0 e021 98c0 1d2b 94c0
00000340: 4cbb 97c0 6cfc 92c0 fdae 9840 bd12 9ac0
00000350: bb19 9c40 58e8 99c0 2886 9c40 f9ad 9ac0
00000360: 70a8 9340 e294 9e40 c0cb 9c40 065b 9d40
00000370: 933b 93c0 39da 9bc0 9b76 9bc0 6eee 9dc0
00000380: b4db 9ec0 e791 9a40 9fac 9bc0 b51d 9cc0
00000390: 3373 9ac0 3670 95c0 c879 9b40 7510 9740
000003a0: 090b 9b40 5c34 9740 3f5e 98c0 9dca 9d40
000003b0: e081 9e40 15f0 98c0 ebd5 99c0 96a3 9ac0
000003c0: 7e8d 9cc0 e06c 9ac0 504c 9c40 0af0 99c0
000003d0: 7bd5 9440 d312 97c0 3b43 9d40 d301 93c0
000003e0: cabb 9c40 e760 9740 9879 9a40 0218 9b40
000003f0: 80c1 98c0 211d 98c0 1562 9ac0 6b71 9fc0
4.9490304 -4.81279 4.8087993 4.890026 4.97025 4.785685 -4.732072 -4.772132
-4.8575435 -4.666806 4.7099223 -4.88885 -4.873821 4.901796 4.6667533 4.738993
4.7256846 4.951788 -4.7264743 4.744746 -4.6796546 4.6657968 -4.659565 4.8717313
-4.80099 -4.835811 -4.6400766 -4.7965336 4.906848 4.86441 4.7277226 4.9448953
4.9714875 -4.955027 4.7870207 4.8021593 4.7601905 4.72692 -4.909271 -4.7163687
-4.660373 -4.9422545 4.7207866 -4.7804008 -4.7565413 4.9571085 4.926567 4.902347
4.672131 4.7140493 -4.8164697 4.667607 -4.999244 4.7228374 -4.80553 4.78694
-4.6927147 -4.995665 -4.913273 -4.6675367 4.819263 4.8311505 4.9942646 4.765152
-4.625854 4.719273 -4.7405076 -4.944289 -4.971507 -4.747418 4.963981 4.797345
4.678009 4.94387 -4.9052863 4.7884655 4.901083 -4.8539863 -4.911037 -4.834694
-4.8303313 -4.6445484 4.948318 -4.7602215 4.693329 -4.8771296 4.7900963 -4.771066
4.943891 4.8975143 4.76425 4.719629 -4.795943 -4.886999 -4.940623 -4.9170847
4.6657157 -4.670353 4.6347866 4.8259883 4.7251234 4.6955314 -4.678791 -4.7471175
-4.7969074 -4.788893 4.932038 -4.807352 -4.9156294 4.8204722 4.8319364 4.6177144
4.686234 4.67313 -4.898485 4.883504 -4.883605 4.77856 -4.6911087 4.783985
-4.9195976 -4.6115584 -4.733353 -4.759845 4.634277 4.6432624 4.72511 4.7974067
-4.7241364 4.783153 -4.677994 -4.7622848 -4.689626 -4.565994 4.7317853 4.5109997
4.7302866 4.5286264 -4.552026 4.4239893 4.5174375 -4.4357605 -4.6809034 -4.6395993
-4.704565 -4.7108645 4.6626506 -4.5485144 4.7354336 -4.75404 4.620456 -4.5645633
4.584105 4.6157045 4.6078944 4.5569696 -4.5849714 -4.466543 -4.617575 -4.6935115
4.8505683 -4.6331196 4.762737 4.787648 4.8558974 4.6756053 -4.9808526 -4.931071
-4.826058 -4.851512 4.9367313 -4.813248 -4.9180236 4.650042 4.6275196 4.7431703
4.8135304 4.902669 -4.994323 4.943536 -4.793359 4.849694 -4.710117 4.625938
-4.9751897 -4.8834295 -4.87712 -4.7463384 4.7119374 4.7268353 4.751266 4.86071
-4.699084 4.894843 -4.834806 -4.761507 -4.7550645 -4.6781945 4.7343783 4.60971
4.6021476 4.6963477 -4.666909 4.874201 4.7176394 -4.72197 -4.754135 -4.630263
-4.7416134 -4.593313 4.771361 -4.8147874 4.878141 -4.8096123 4.8913765 -4.833737
4.614311 4.955674 4.899872 4.9173613 -4.6010222 -4.8703885 -4.858228 -4.935355
-4.964319 4.8303103 -4.864822 -4.8786263 -4.8265624 -4.6699476 4.858616 4.720759
4.845097 4.7251415 -4.7615047 4.930983 4.953354 -4.779307 -4.807363 -4.832469
-4.892272 -4.8257904 4.8843155 -4.8105516 4.6510596 -4.721048 4.914457 -4.5939727
4.8979235 4.730579 4.827343 4.8466806 -4.7736206 -4.753556 -4.824473 -4.982595

bias f4 [16]
00000000: 4984 abc0 4c68 b0c0 a247 b040 0183 abc0
00000010: 3130 ad40 ab0a afc0 8f9a ad40 56e4 aa40
00000020: 38c7 afc0 7544 aa40 4d73 adc0 bb60 af40
00000030: 6c75 acc0 6332 abc0 f107 ab40 842e acc0
-5.359898 -5.5127316 5.5087442 -5.3597417 5.4121327 -5.4700522 5.425117 5.340373
-5.4930687 5.3208566 -5.420325 5.480558 -5.3893337 -5.3499007 5.3447194 -5.380678

weight f4 [4, 16]
00000000: 6f1b 43c0 97bd 55c0 3b92 5540 f93d 54c0
00000010: 12c0 4a40 11b7 4cc0 8855 5440 becc 5940
00000020: 54a0 57c0 2548 5940 eb2b 5ac0 912b 5040
00000030: 6f74 4cc0 7189 57c0 d861 5140 da3e 5cc0
00000040: 4d3f 6740 cda7 6540 f29d 5fc0 ce2c 5240
00000050: dd67 4cc0 d9aa 5f40 11a1 52c0 f38a 57c0
00000060: b614 5440 9807 65c0 6a45 5c40 33d1 56c0
00000070: 706e 5040 602d 4c40 3fdd 62c0 cf0d 5440
00000080: 652c 3040 b9d3 2c40 727d 33c0 cb85 3240
00000090: 0cac 42c0 815e 2840 a579 3fc0 f18e 32c0
000000a0: fe71 2340 a747 3ec0 3fa6 2e40 43db 40c0
000000b0: b3af 3e40 300a 3e40 ae5b 24c0 771e 3840
000000c0: 3248 27c0 0583 21c0 d4a8 2840 039d 34c0
000000d0: 126a 3640 6b63 23c0 58b8 2b40 547e 2d40
000000e0: af6b 30c0 b374 3540 26dd 1bc0 0657 3040
000000f0: bb5f 34c0 9247 30c0 9a73 2f40 9315 1dc0
-3.0485494 -3.3396966 3.3370502 -3.3162825 3.167973 -3.1986735 3.3177204 3.4031215
-3.3691607 3.3950284 -3.4089305 3.252659 -3.1946065 -3.3677638 3.271597 -3.4413362
3.6132386 3.5883667 -3.4940152 3.2839847 -3.1938393 3.4948027 -3.2910807 -3.3678558
3.313764 -3.5785885 3.4417367 -3.3565185 3.2567406 3.1902695 -3.5447538 3.3133428
2.7527096 2.7004225 -2.8045316 2.789416 -3.041751 2.630768 -2.9917996 -2.7899745
2.5538325 -2.9731233 2.7288969 -3.0133827 2.9794738 2.9693718 -2.5680957 2.8768594
-2.6137815 -2.5236218 2.6353045 -2.8220832 2.850224 -2.552943 2.6831264 2.7108355
-2.7565725 2.8352478 -2.4353728 2.7553115 -2.818343 -2.7543683 2.7414308 -2.4544418

bias f4 [4]
00000000: 367f 9b40 265d a3c0 a6c3 9cc0 6e45 9340
4.8592787 -5.1051207 -4.898883 4.6022253

weight f4 [32, 10, 3]
00000000: 198f 6abd 231d ca3d d52c 29bd a641 2f3e
00000010: 4afa 0ebd ca19 22bd 6678 69bc 036a 33be
00000020: 8b0b cebd 0d78 cb3c 7568 0dbe 0c16 f0bc
00000030: ad88 363c 61d9 c9bc d393 113e 58f1 3abe
00000040: 3f36 00be 6957 35bd ce4d a4bb c061 d13d
00000050: fcd6 213e 9533 243e 5fa8 92bd 32a8 76bd
00000060: c126 2d3d 0901 ac3d eb06 333e 643e 8fba
00000070: a64f fe3d 9946 d0bd 1e82 243e e6de 57bd
00000080: 4d44 123d 61d9 2dbc 343d f93c 4c73 393e
00000090: a263 39bd 3c49 393e e669 cb3d 92ac 66bd
000000a0: a6ac db3d 5789 c1bb 1df3 1dbd edb2 02be
000000b0: 802b 03be 72fd 643d 70ef aabd 422b a93d
000000c0: 4842 2fbd 5ce9 2d3e c0e3 903d 6919 d33d
000000d0: c844 f2bd 8ac7 01be 2882 51bd 66db cd3d
000000e0: cf86 cc3d 5054 303e 2796 e83d ea5b a53d
000000f0: 794c b6bc 2688 d13d c1ba f83c 172b 1f3d
00000100: 87bd aabd 6232 b8bd 0632 8dbd c454 b53d
00000110: 211c 833d 60c9 e73d a449 dd3d d591 c63d
00000120: 94b8 1d3e fe9c 493d b4b9 033e 4535 2fbe
00000130: 2164 82bd 800c 043e b7a6 1c3d 472c ff3d
00000140: fa17 4a3d f6f5 083e 1fec 643b 17ff 423d
00000150: e3b2 7a3d 6077 cbbd 2f9c 053e 9781 a53d
00000160: d4d3 0ebe 2591 a93d 261c 6f3d e29e 413d
00000170: c961 b9bb 6079 ac3b af05 e53a 603b 7c3a
00000180: 97d8 2f3e 6764 613d 3e4f c7bd 9b98 073e
00000190: 86c7 a73d 9ddd e9bd bd01 00be 8ce6 f73d
000001a0: edef b13d 5930 30be 99c3 153d 7e48 45bd
000001b0: aecb a8bd 1c2a 35bd d94f bcbc 8329 debd
000001c0: 6b79 21bd a01c e7bd bc7d 9ebd 3e5b a93d
000001d0: ffdd d63d c984 27be 8284 353d 8851 b1bd
000001e0: c9b7 323e 3130 2abe 7c92 ca3d ec0e 013d
000001f0: c47e 693d 5dbb af3d 58c5 1cbe cdf9 f13d
00000200: 609b bc3d 1017 34bd 92f6 f13d 4dfc 933d
00000210: 53dd 763c 8056 16bd d3d2 89bb 6946 33be
00000220: 2c86 113e 2e2f 9abd 5341 3a3e cedb ef3c
00000230: 2686 06bc 4497 833c 0964 d63c e1ba 073d
00000240: ccf7 76bc ba23 503d eb96 b6bd ed42 cd3d
00000250: 0bc2 1b3e 3cff 283c 5985 30be 47f6 2f3d
00000260: 3dda 333e aa34 003e 2195 c2bc 9529 ec3d
00000270: 7825 47bd 4469 7abc c0cb 283c f3ba 92bd
00000280: b57d 16bd f44a c7bd 2577 84bb 116c 22be
00000290: 3fa3 e63d ec8f 0c3e b174 8ebc c017 37be
000002a0: b4d3 823d d0f0 ba3d a65a 1abe 9cd2 903d
000002b0: 153a 0a3e 7e18 023e cfc0 c1bd 07b3 8aba
000002c0: 4375 433d f708 b3bd 8090 63bb 9984 353d
000002d0: 9e64 15be 58d9 f33d f4e8 023e 53a8 95bc
000002e0: e57e 0dbe d244 b43d 7d2e 32be 1bf8 9ebd
000002f0: 4fc8 343e 391d a63c 4bc3 0cbe 420f 773c
00000300: 07d6 193d 9dd1 9dbc b896 d13d 71b9 953c
00000310: fd1f 633d 6842 cbbd 8dbe 50bc 6119 153e
00000320: 2c9b a43c 442a 0b3e 1e8a 24be 5407 b13d
00000330: 8886 fdbd 2b7c 5dbd 7e78 603c 5dd6 17bd
00000340: e654 57bd 6e61 e63d 83b0 00be 17fe 1abe
00000350: 639f 5a3d 07f0 f6bd 56f0 e93d 30a0 2c3e
00000360: a500 023e 9413 3a3e f97d f93d 476b 99bd
00000370: 6132 6cbb 1395 dbbd 22db 3ebd e166 3e3d
00000380: 00e2 2bbd d7a9 703c f988 d3bd 79cf fe3c
00000390: 54ca 07bd d8ae eabd 1b67 60bd 18bd 7c3d
000003a0: fda0 df3d 6a63 433d cc5f a03d 3005 b3bd
000003b0: dcab c63d 2f07 eabd ab42 eebd b1f7 21bb
000003c0: 5e0b fbbd 002a 6fbd 3360 323e 9541 993d
000003d0: 9c32 e6bd fd19 2bbd 6839 21bd a5d5 33be
000003e0: 7ccd 36bd 9179 e4bd fc70 813c 6a19 183e
000003f0: 7737 dd3d 1e57 85bc 4910 c9bd 3a86 82bd
-0.057265375 0.09868839 -0.04130252 0.17114887 -0.034906663 -0.039575376 -0.014249897 -0.17520909
-0.100607954 0.024837518 -0.13809378 -0.029307388 0.0111409845 -0.024639787 0.14216547 -0.18256128
-0.12520693 -0.044272814 -0.005014158 0.102237225 0.15804666 0.16035302 -0.071610205 -0.060218997
0.042273287 0.08398635 0.17483108 -0.0010928628 0.124175355 -0.101697154 0.16065261 -0.052702807
0.035709668 -0.010610909 0.030424692 0.18110389 -0.045261033 0.18094343 0.09932308 -0.05631692
0.107262895 -0.0059062648 -0.03856193 -0.12763567 -0.12809563 0.055905767 -0.0834645 0.08260204
-0.04278782 0.16983551 0.0707469 0.10307581 -0.11829525 -0.12673774 -0.051149517 0.100516126
0.0998665 0.17219663 0.11356764 0.08074172 -0.022253262 0.102310464 0.030362489 0.038859453
-0.08336931 -0.08993985 -0.06894307 0.088540584 0.064018495 0.11317706 0.108050615 0.09695784
0.15402442 0.049221985 0.12863809 -0.17110164 -0.06366754 0.12895393 0.03824493 0.12459617
0.049339272 0.13375077 0.0034930778 0.047606554 0.061205756 -0.09934878 0.1304786 0.08081358
-0.13947994 0.08279637 0.058376454 0.047270663 -0.005657409 0.0052634925 0.0017473007 0.00096218847
0.17172466 0.05502739 -0.09731911 0.13241808 0.08192353 -0.114192225 -0.12500663 0.1210452
0.0868834 -0.17205943 0.03656349 -0.048164837 -0.08241974 -0.04422961 -0.022987293 -0.108477615
-0.039422434 -0.11284757 -0.07738826 0.08269356 0.10491561 -0.16359247 0.044315822 -0.08658129
0.17452921 -0.16619946 0.09891221 0.03150837 0.05700566 0.085806586 -0.15309656 0.11815224
0.09209323 -0.043967307 0.11814608 0.07225857 0.015067416 -0.036703587 -0.0042060404 -0.17507328
0.14211339 -0.0752853 0.18188982 0.029279616 -0.008210694 0.01606334 0.026170747 0.033137206
-0.015073728 0.05081532 -0.08915504 0.10022531 0.1521074 0.010314759 -0.17238368 0.042959478
0.1756372 0.1252009 -0.02375275 0.11531369 -0.048619717 -0.015283886 0.010302484 -0.07164564
-0.036740977 -0.09731093 -0.0040425234 -0.15861537 0.112616055 0.13726777 -0.017389627 -0.17880154
0.063880354 0.091279626 -0.15073642 0.070714206 0.13498719 0.12704656 -0.094606034 -0.0010581919
0.04771925 -0.08741944 -0.003472358 0.044315908 -0.14589164 0.119066894 0.12784177 -0.01826874
-0.13817938 0.08802189 -0.17400546 -0.07762166 0.17654537 0.020277606 -0.13746373 0.015079321
0.037557628 -0.01926499 0.102338254 0.018276902 0.05545043 -0.09924775 -0.012740743 0.14560463
0.020093523 0.13590342 -0.16068313 0.08643976 -0.123791754 -0.054073494 0.013700603 -0.037069667
-0.0525712 0.11249052 -0.12567334 -0.1513599 0.05337466 -0.120575 0.114227936 0.16857982
0.12695558 0.18171531 0.121822305 -0.07491165 -0.003604077 -0.10721793 -0.0465957 0.04648483
-0.041963577 0.0146889305 -0.1032886 0.03110479 -0.03315194 -0.1145913 -0.05478583 0.06170377
0.10919378 0.04770223 0.07830772 -0.08741224 0.09700748 -0.114271514 -0.1163381 -0.0024714286
-0.122580275 -0.058389664 0.1741951 0.07483212 -0.11240122 -0.04177283 -0.039361387 -0.17561968
-0.04462956 -0.111559995 0.015800945 0.14853445 0.10801595 -0.016276892 -0.09817559 -0.06373258

bias f4 [32]
00000000: f6c5 8bbd 0d0b 96bd 2de9 f23c 5cdb 38be
00000010: 93bf 28be b5d0 ed3d ba7f eeb9 8367 74bd
00000020: 0390 263e dbce 303d c7c1 27be 9d16 cbbd
00000030: ffd0 84bd af91 aabd 3aeb 1ebe 6725 793d
00000040: d514 eb3c 9c90 77bc 0d41 033e 088b a63d
00000050: 327a 133e 2685 18be 0a05 843d fdf0 d8bd
00000060: 4bdd 00be 042b 333e 013d a63d d274 0cbe
00000070: bf76 063e b788 0d3d 501d 033e 04fb b4bd
-0.068248674 -0.073263265 0.029652203 -0.18052429 -0.1647933 0.11612073 -0.0004549006 -0.05966903
0.16265874 0.043166023 -0.16382514 -0.099164225 -0.06485175 -0.08328568 -0.1551942 0.060826685
0.028696457 -0.015110161 0.12817784 0.08131987 0.14402083 -0.14894542 0.064462736 -0.1059284
-0.12584417 0.17496878 0.08117104 -0.13716438 0.13131236 0.03455421 0.1280415 -0.0883694

weight f4 [64, 32, 3]
00000000: c450 253d 9044 913a 6c33 013d 9b90 95bd
00000010: bdb1 6a3d 92eb 60bd 6914 893b 76e0 e4bc
00000020: 0239 803d 89b9 203d 53a4 633c 991a 9cbd
00000030: ed8a b9bc 9fa5 6dbc cadd 813d 0e89 cc3d
00000040: 4aa5 37bd c47c bdbd 28d2 77bd 7d00 673d
00000050: 8daa a2ba cc7f ba3d 6d04 cb3d 7125 91bd
00000060: 59a4 28bd 05b2 c1bc bbab a7bd adab 42bd
00000070: b925 91bd bc52 b03d 738f b63a feac 0f3d
00000080: 79a3 86bd b0cf 70bd 8862 71bd 1e5f 1d3c
00000090: 6376 ca3a ed8b 80bd c690 b0bd 957c 95bc
000000a0: 0c33 11bd 2f3e 93bd dbac 76bd 11de 873c
000000b0: a15b 83bd 4b45 70bd ba03 09bd 3dfe cfbd
000000c0: 1413 e73c aa35 b73d 9ea0 9cbb 5662 b2bd
000000d0: 7201 283d 120e d0bd 3937 a23d c8cb 0d3d
000000e0: e127 82bd 4bda c43d 3c61 b9ba 1db6 bf3d
000000f0: 38e8 043d cc99 763d b806 02bd 92a3 bcbd
00000100: 2e34 a8bd 12f5 cfbd 82f4 223d 4d84 c63d
00000110: 620e d5ba 3ff8 3e3d b9bf 993d 9b83 8ebd
00000120: b0b7 9bbc 82e8 c9bd 7e68 a2bd 150b 81bd
00000130: e615 aebd 834d 06bd 6ada b23d 0c87 ddbc
00000140: 084f a5bd 314c 9d3d ef78 7a3d 638b 82bc
00000150: 684e 25bc 7175 8b3d 4127 aabc 6e0c 91bc
00000160: 247d cf3d ae09 afbd 83a6 41bc ef6e 543d
00000170: dd4b 503c 3692 413d 417c 70bc 3e1e bdbd
00000180: ca58 8abd 6d10 a4bd 47dc 2dbd 983b 083d
00000190: 8f59 8c3d 2093 9d3d 5fb7 7a3c f605 a3bd
000001a0: aeeb 153d 7f86 8a3d 68c5 bb3d af0d af3d
000001b0: 9393 b0bc 2177 60bd f9b3 b03d 78d7 953c
000001c0: 9d0f 2e3d 61d3 2abd e3bc 4b3d 1c2b 3a3d
000001d0: 70ee 01bd b6fa 653c 9e2e bfbc 4c0d 8fbd
000001e0: 0ac8 453d d2b2 d83a e85d 01bd 1c15 fd3c
000001f0: 753a 5fbd 05fd 53bd ac68 4a3d 7baf 99bd
00000200: c051 09bd 3bc9 b43d 1747 503d b66a a3bd
00000210: 8c11 82bc 8707 80bc d9f0 f43c 84e7 76bd
00000220: edc7 ce3c 9c79 6d3d 4a46 ddbb 0dcb 1b3c
00000230: f69c 23bd 8b36 f9bc 4841 8d3d c5fb ebbc
00000240: 2f3e 75bd 1fb8 ffbc 8307 653d 2c63 5ebd
00000250: 46a1 7abc 0122 85bd 9040 3d3d d352 5fbd
00000260: 4f95 67bc dc93 9c3c 4ce4 0fbc 2968 193d
00000270: fbad 51bd 9786 b4bd 6a7f c63d a66f bcbd
00000280: 636f e0bc 643c cd3d e104 9bbd 30d8 42bc
00000290: fbd5 6b3d 115b ed3c 8761 213d de66 ba3c
000002a0: 17d7 b23d 8e2a 2f3d db8d bdbd 5a21 b6bd
000002b0: 34b2 adbb d448 c6bc ac67 433d 8647 073d
000002c0: fcaf 93bd 804b ae3c f873 283d c9c0 1ebd
000002d0: 6205 253d 200e 963b edf2 393d 3aab c3bc
000002e0: f328 b7bd 5561 fabc 0f1f 9b3d eb95 b6bd
000002f0: 01c4 1d3b 317b 0cbd ae07 adbc 4d35 123d
00000300: 0ace 52bd 75e5 5d3c 9bfd b93d 75a4 06bd
00000310: e9b8 49bd 82ab f93c ddfd ce3d 8fb4 65bd
00000320: 7840 31bd 4404 423d fef3 cd3c 9e22 34bd
00000330: 1705 80bd e979 b8bd 93f8 9b3d 652c 413d
00000340: 819e 3f3c dc3f 26bd caec 85bd 1d01 9c3d
00000350: ea4f 0dbd ebd8 c5bd 2843 a4bc 56c1 553d
00000360: ffae 0e3b 4848 cd3d be17 56bb 3527 cd3c
00000370: ae24 1f3d 671e 82bd 3254 92bd 6737 74bc
00000380: e090 c1bb 0647 3a3c c1a1 01bd 34ba 8a3d
00000390: c528 a63d c6e3 c1bd b619 5ebd 5854 0dbc
000003a0: 2f3e 563d 8709 873d 26ff aebd 507f 9e3d
000003b0: 1e5a a33d adae cf3d 32c2 1cbc e1d5 c6bc
000003c0: ad97 b53d b4f6 4bbd 66d6 a0bd 4d30 203d
000003d0: 994f a6bd 2ab9 93bc fff5 cbbd a622 95bd
000003e0: 9e82 8abd 095f bdbd 4c4e 0dbd a777 0ebd
000003f0: 4fb0 8a3d 56cf c7bd 35d7 a53d bd03 32bc
0.040360227 0.0011083055 0.03154318 -0.07302972 0.05729841 -0.054912157 0.0041833413 -0.027939063
0.062608734 0.03923944 0.013894158 -0.076222606 -0.022649253 -0.014504819 0.06341131 0.099870786
-0.044835366 -0.09252313 -0.060503155 0.05639695 -0.0012410447 0.091064066 0.099129535 -0.070872195
-0.04117236 -0.023644457 -0.08187052 -0.047527004 -0.07087273 0.0860953 0.0013928249 0.035077088
-0.06574149 -0.058791816 -0.058931857 0.009605197 0.0015446659 -0.06276689 -0.08621363 -0.018247882
-0.035449073 -0.07189595 -0.06022344 0.016585382 -0.06413961 -0.058659833 -0.03345082 -0.10155914
0.02820734 0.089457825 -0.0047798892 -0.08710162 0.041017003 -0.10158934 0.07920689 0.03461817
-0.063552625 0.096119486 -0.0014143358 0.09360907 0.032448024 0.060205266 -0.03174469 -0.09210886
-0.082130775 -0.10154165 0.039783962 0.09693203 -0.0016254897 0.046623465 0.07507271 -0.069586955
-0.019008487 -0.098588005 -0.079300866 -0.06300942 -0.085002705 -0.032788765 0.087330654 -0.027041934
-0.08071715 0.07680548 0.061150488 -0.015935605 -0.010089494 0.068095095 -0.02077067 -0.017706122
0.101312906 -0.08546768 -0.011819485 0.051863607 0.0127134 0.04725858 -0.014678062 -0.09234284
-0.067552164 -0.080109455 -0.0424464 0.033259958 0.068530194 0.076940775 0.015302508 -0.07960121
0.036601715 0.06763934 0.09168512 0.08547532 -0.021554744 -0.05480111 0.08628077 0.01829122
0.04249536 -0.041705493 0.049740683 0.04545127 -0.031721532 0.014036825 -0.023337658 -0.06984958
0.048286475 0.0016532785 -0.031583697 0.030893855 -0.05449911 -0.05175497 0.04941623 -0.07504173
-0.03352523 0.08827444 0.050849047 -0.07979338 -0.015877508 -0.01562859 0.029900001 -0.060279384
0.025241816 0.057977304 -0.006752764 0.00950886 -0.03994461 -0.030421516 0.06897217 -0.028806577
-0.059873756 -0.031215725 0.055915367 -0.054293796 -0.01529724 -0.06500626 0.04620415 -0.054522347
-0.014134719 0.019113474 -0.008782458 0.03745285 -0.05119131 -0.088147335 0.09692271 -0.09200983
-0.027396863 0.10021284 -0.0756929 -0.011892363 0.057577115 0.028974088 0.03939965 0.022754129
0.087324314 0.042765193 -0.092555724 -0.0889308 -0.0053007845 -0.024204649 0.04770629 0.033027194
-0.07211301 0.021276236 0.04112622 -0.038758073 0.040288337 0.0045793205 0.045397688 -0.023885358
-0.08943357 -0.03056399 0.07574283 -0.08915313 0.0024073126 -0.034297172 -0.021121826 0.035695363
-0.051466025 0.013543476 0.090815745 -0.032871682 -0.04924861 0.03047729 0.10107014 -0.056080397
-0.043274373 0.04736735 0.025140759 -0.043978326 -0.06250971 -0.090076275 0.07615771 0.04716148
0.011695505 -0.040588245 -0.065393046 0.076174 -0.03450004 -0.096605144 -0.020051554 0.052186333
0.0021771786 0.10023552 -0.003266796 0.02504311 0.03885334 -0.06353455 -0.07144965 -0.014905787
-0.005907163 0.011369472 -0.0316484 0.06773797 0.08113245 -0.094672725 -0.05422374 -0.008626066
0.052305397 0.06593614 -0.085447595 0.07739127 0.07976173 0.10140739 -0.009567784 -0.024271907
0.088668205 -0.04979582 -0.07853393 0.039108563 -0.08120651 -0.018032629 -0.099590294 -0.07281999
-0.067631945 -0.09246642 -0.034498498 -0.034782078 0.067719094 -0.09756343 0.08097688 -0.010865149

bias f4 [64]
00000000: c47b 36bd f2da f73c 3219 403d 56d3 4cbd
00000010: 02b0 93bd 677e ccbd 652b 663c a13e a13d
00000020: 96be c53c 84bd 723d 108c ab3c 72f6 7abd
00000030: f7a2 cc3d af14 babc 3fc9 acbd af42 be3d
00000040: 00a0 c2bc 5741 663b b5a2 cb3d 0a7b a1bd
00000050: 49da ff3c b5e3 a0bd d56f b1bd 6d98 66bd
00000060: f408 403c 4367 c63d 999f b9bd 5d4e 6cbd
00000070: ac25 0e3c b5dd 6c3d b451 633d 7d9e cc3d
00000080: ef80 703d 9275 813d 844c 4bbc e75d 793d
00000090: 703e 96bd e627 9c3d 3e68 953d 2d00 f73c
000000a0: c319 9ebd 7ff2 46bd 1768 bebd 7d59 7dbd
000000b0: 48af 9fbc 5e96 62ba 73d8 dbbc 09e1 313c
000000c0: 7f85 e5bc 821f 4e3d 61a6 423d ed8c 713d
000000d0: 5948 a23d baa3 3dbd f807 943d 6d61 963d
000000e0: addd ce3d b48d 16bb de5b c2bd 1e46 12bc
000000f0: 9cea b93d aa79 a43d 5018 81bb f1be 6a3d
-0.044551626 0.030255768 0.046899028 -0.050006233 -0.07211305 -0.09985047 0.014048432 0.07873274
0.02413873 0.059262767 0.02094081 -0.061270185 0.099920206 -0.02271494 -0.08436822 0.09290063
-0.023757935 0.003513416 0.09943143 -0.07884796 0.031232016 -0.07855932 -0.086639084 -0.05629771
0.011720885 0.09687664 -0.09063644 -0.05769192 0.008675974 0.057828624 0.05549784 0.09991167
0.05871671 0.06321253 -0.012408379 0.060880568 -0.07336128 0.076247975 0.07295273 0.030151451
-0.077197574 -0.048571106 -0.09297197 -0.06185292 -0.01949276 -0.0008643622 -0.02683661 0.010856875
-0.028017757 0.050323017 0.047521953 0.058972288 0.079239555 -0.04629872 0.072280824 0.07342801
0.10100875 -0.0022972645 -0.094901785 -0.00892785 0.09077951 0.08031018 -0.003939666 0.057311002
