matrix/result/0906/save/inverse_mse_mul_fc.pt (torch, 27219 bytes, 12 tensors)

weight f4 [16, 10]
000000 9d e3 7a be a6 7c 0d 3e 46 ba 0a bf 22 cf 41 bc
       -0.2450089 0.13817081 -0.5419048 -0.0118291695
000010 a6 9d e3 bd 88 5d 33 be 90 02 9a be 38 e7 15 bf
       -0.111140534 -0.17516148 -0.3008008 -0.58555937
000020 6a 9f 27 bf eb 0b 2c be 99 c2 48 be 48 02 cc bd
       -0.6547762 -0.16801421 -0.19605483 -0.099613726
000030 7f 08 b0 be 5a 3a 3d be 8c 3f ea 3d bc 7e 49 be
       -0.34381482 -0.1847929 0.11437902 -0.19677252
000040 c2 64 bd be 98 eb 15 bf 9f d3 7d be 4d 39 cf be
       -0.36990935 -0.5856261 -0.24787758 -0.40473405
000050 55 9d 5c be db 84 4c 3e 6b ca 6f be 0b 69 0a bf
       -0.21544392 0.19972555 -0.2341706 -0.5406653
000060 3e 00 a1 3e a0 72 f5 be 91 a9 58 be 65 e1 64 bf
       0.31445497 -0.47939014 -0.21158434 -0.89406425
000070 36 b1 24 bf e1 77 b2 be 66 14 87 be d3 8d d3 3d
       -0.643329 -0.34857085 -0.2638275 0.10329785
000080 33 0f 0b bf 23 d3 ea be ce 3f 94 3e 77 d7 c6 be
       -0.5432007 -0.4586421 0.2895493 -0.38836262
000090 c3 44 25 be 1d b7 ff be 2e 62 a7 be cb 81 07 bf
       -0.16139512 -0.49944392 -0.32692093 -0.52932423
0000a0 2c 79 f5 be 22 ce 6c 3e 8e 7f ab be ae 28 fc bd
       -0.4794401 0.23125508 -0.33495754 -0.123124465
0000b0 96 bb 41 3e cd ab e0 bd 3a 89 5f be ad bb ee be
       0.18919215 -0.109702684 -0.21829692 -0.4662756
0000c0 0d d4 54 bf 60 a1 13 bf cd 69 78 3e 09 11 9b 3b
       -0.83136064 -0.57668114 0.2425911 0.0047322554
0000d0 60 d6 43 3e d9 e8 7b 3d e0 df 5c be 45 58 a2 bb
       0.19124746 0.061501358 -0.21569777 -0.00495437
0000e0 1e fa a3 3d c9 d6 4b 3f b8 81 40 3f f9 aa fe 3d
       0.080066904 0.7962461 0.75197935 0.12434954
0000f0 fa 6a eb 3d 30 ad 25 3e e8 aa 1f 3f 62 e5 38 3e
       0.114950135 0.16179347 0.6237016 0.18056253
000100 0e 70 ac be 33 fa 96 3e 86 0e 8b 3e be 9d 52 3f
       -0.3367924 0.29487762 0.27159518 0.82271945
000110 e7 7e f4 3e 82 17 96 3e 77 31 3e be 93 76 ba bd
       0.4775307 0.2931481 -0.18573557 -0.091046475
000120 fd ed 21 bf 9a 71 ff be f9 be cc 3d a1 f2 53 be
       -0.63253766 -0.4989136 0.09997363 -0.20698024
000130 02 1c 4e be d4 f7 65 bf fa 7d 3c bf 4e 7e 14 bf
       -0.20127872 -0.8983128 -0.73629725 -0.58005226
000140 70 b6 b2 be a2 cd 53 be d4 ea 32 be c3 1d b1 be
       -0.34904814 -0.20683911 -0.17472392 -0.3459302
000150 90 d9 82 3e 8b cb a6 be ef d8 d4 3d 5b ef 2b bf
       0.25556612 -0.32577166 0.10392939 -0.671621
000160 d2 30 2d bf 34 85 06 bf 22 16 04 bd ca 3a 3a 3e
       -0.6765262 -0.52547 -0.03224767 0.18186489
000170 fb 00 4e bf 0b 35 69 be 0c d2 86 be f9 9e 3e be
       -0.80470246 -0.2277414 -0.26332128 -0.18615331
000180 0d 42 47 3d 4c b3 f9 be 4a 18 4f bf c1 53 d8 be
       0.048646975 -0.48769605 -0.8089644 -0.422514
000190 1d 7a eb bd 16 35 92 bd 63 f4 22 3e 2b a3 eb 3e
       -0.11497901 -0.071390316 0.15913539 0.46022925
0001a0 53 66 a7 be 5e 37 69 3e 47 ee 2a 3e 1f 77 62 3f
       -0.32695255 0.22775027 0.16692458 0.88463014
0001b0 ae 19 de 3e a4 07 0c 3f e0 60 5c 3d 49 d3 6a be
       0.43378967 0.5469916 0.053803325 -0.22932161
0001c0 79 a6 90 3e 92 b6 46 3e 1e 35 08 bd 43 e5 fb 3e
       0.2825201 0.19405583 -0.03325378 0.4919835
0001d0 e0 0f f9 3d 83 5a 59 3f d3 41 ed 3e 74 1a 05 3e
       0.12161231 0.84903735 0.46339282 0.12998372
0001e0 a2 a2 92 3e 43 9a 9b 3e 40 4d 1c 3f 5e f4 40 3e
       0.28639704 0.3039113 0.61055374 0.18843219
0001f0 89 93 8a be 97 f2 0b bd 26 01 86 3e 4d 26 5a 3f
       -0.27065685 -0.0341669 0.2617275 0.8521469
000200 b9 b0 e9 3e a5 bd f9 3e 6f 48 10 bd 91 fd a2 3c
       0.4564264 0.487775 -0.035225328 0.0198963
000210 20 9f e2 3e 2b be 5a 3d 4d 4f 3f bd 33 3d a6 3e
       0.44262028 0.053404015 -0.046706486 0.32468566
000220 36 c0 de bd 30 c9 2f 3f de 18 eb 3e d1 58 9f 3e
       -0.10876505 0.6866636 0.4591741 0.3112245
000230 2b 0a b8 3d fa ae e3 bd ff 3d 7a 3e 9c 51 b9 3e
       0.089863144 -0.111173585 0.24437712 0.36195076
000240 0c 29 f6 3d 7a c6 5a 3e 7a 08 c7 bd e0 c5 2b 3f
       0.12019548 0.21364775 -0.09718414 0.6709881
000250 8f 0c 1b 3f 3f f4 87 3e 07 52 12 3e 22 22 45 3e
       0.6056604 0.26553532 0.14289103 0.19251302
000260 e5 58 e8 be a4 79 b6 be 15 f0 ba 3e af 3c 83 3c
       -0.4538032 -0.3563968 0.36511293 0.016020147
000270 42 f0 e8 3d 18 7d 90 be ac c2 1d bf 46 11 45 be
       0.113739505 -0.2822044 -0.6162517 -0.1924487

bias f4 [16]
000000 42 e9 4f c0 30 b5 52 c0 13 bf 56 c0 c5 25 5e c0
       -3.248612 -3.2923088 -3.3554122 -3.4710553
000010 ee 29 62 c0 d7 c8 56 40 0c 35 6d 40 62 63 58 c0
       -3.5338092 3.3560083 3.7063627 -3.3810658
000020 e5 48 68 c0 a6 b2 57 c0 5a a8 61 40 c2 79 47 40
       -3.6294491 -3.3702788 3.5259004 3.1168065
000030 53 7c 5a 40 fb 98 43 40 96 5f 5d 40 05 be 60 c0
       3.4138381 3.0562122 3.458959 -3.5115979

weight f4 [32, 16]
000000 86 a8 5c 3f 28 a7 4b 3f 49 8c 33 3f 0d d3 79 3f
       0.86194646 0.79551935 0.70135933 0.9758766
000010 9b 00 89 3f 68 e1 89 bf 04 04 6c bf 5d ed 6b 3f
       1.070331 -1.0771914 -0.9219363 0.9215906
000020 9a 86 17 3f c1 f9 6d 3f d3 ec 2f bf 8e 2f 59 bf
       0.5918976 0.9295922 -0.6872074 -0.8483819
000030 43 cd 83 bf 87 cb 97 bf 6c 73 7e bf 73 0c bc 3f
       -1.0297016 -1.1858987 -0.9939487 1.4691299
000040 26 77 7b 3f f2 2a 19 3f b2 c1 8f 3f c2 0e 25 3f
       0.9822868 0.59831154 1.1230986 0.64475644
000050 f5 05 5c 3f c0 91 93 bf a6 66 81 bf 36 f3 08 3f
       0.8594659 -1.1528854 -1.0109451 0.5349611
000060 59 b0 28 3f 36 6e 6a 3f 70 28 56 bf de 0f 5a bf
       0.65894085 0.9157442 -0.8365545 -0.8518046
000070 b1 f5 81 bf 0a 27 86 bf e5 89 86 bf 8b f9 aa 3f
       -1.0153104 -1.0480664 -1.0510832 1.3357404
000080 f2 7d 81 3f a8 49 54 3f 42 7b 92 3f 92 60 74 3f
       1.011656 0.8292489 1.1443865 0.95459855
000090 ea f6 1a 3f 62 ca 8e bf 7a bc 7f bf 72 1d 85 3f
       0.6053301 -1.1155512 -0.9989697 1.0399611
0000a0 3c 8e 8c 3f f7 61 91 3f 25 26 89 bf 24 30 8c bf
       1.0980906 1.1358021 -1.0714766 -1.0952191
0000b0 46 d9 34 bf b5 6f 4d bf cf 22 68 bf c5 9a b3 3f
       -0.7064403 -0.80248576 -0.90678114 1.4031607
0000c0 53 90 59 bf 61 93 f9 be 00 91 8f bf 9c c2 17 bf
       -0.84985846 -0.48745254 -1.1216125 -0.59281325
0000d0 8d 23 86 bf ff bc 93 3f 76 91 6c 3f 60 dc 4a bf
       -1.0479599 1.1542052 0.92409456 -0.79242516
0000e0 e1 58 2a bf 71 9e 64 bf bb f6 60 3f eb 8f 4a 3f
       -0.6654187 -0.8930426 0.8787648 0.7912585
0000f0 35 cf 86 3f ed 99 6d 3f f3 c9 7e 3f 82 af a7 bf
       1.0531985 0.92813 0.995269 -1.3100436
000100 d3 a2 39 bf e0 25 34 bf 05 41 96 bf c7 d2 51 bf
       -0.72514075 -0.7037029 -1.1738592 -0.81962246
000110 b5 bb 58 bf c0 f9 97 3f 76 92 99 3f 2d fc 1a bf
       -0.8466142 1.1873093 1.1997821 -0.6054104
000120 9c da 32 bf 18 2f 62 bf a3 cf 6b 3f 03 b9 64 3f
       -0.6986482 -0.8835311 0.92113703 0.89344805
000130 11 af 81 3f 2c e6 81 3f df 0c 21 3f 86 70 ca bf
       1.0131551 1.0148368 0.62910265 -1.581559
000140 9e bc 5f bf 81 45 fe be 5f 86 6f bf 2c 7e 6b bf
       -0.8739718 -0.49662402 -0.9356441 -0.919894
000150 d5 54 72 bf 09 b7 7c 3f 6a d7 37 3f 97 18 7d bf
       -0.94660693 0.9871679 0.7181307 -0.98865646
000160 df 89 6f bf 98 0f 76 bf 67 a8 81 3f e6 fe 82 3f
       -0.9356975 -0.96117544 1.0129517 1.0234039
000170 25 f2 6b 3f c7 fb 43 3f c9 28 30 3f 93 dd c5 bf
       0.9216636 0.76556057 0.68812233 -1.5458244
000180 21 be 5b 3f 1a f8 0e 3f 5f f5 40 3f 9b 50 16 3f
       0.8583699 0.5584732 0.75374407 0.58716744
000190 6e 1c 4f 3f b7 a5 a1 bf 33 f5 73 bf b4 5b 63 3f
       0.80902755 -1.2628697 -0.9529602 0.888118
0001a0 b1 42 72 3f 60 ee 5b 3f b4 97 6d bf e2 5a 86 bf
       0.94633013 0.85910606 -0.92809606 -1.0496485
0001b0 62 b4 8d bf 00 c0 89 bf ef bb 53 bf 9d 57 a4 3f
       -1.1070673 -1.0761719 -0.8270864 1.2839237
0001c0 cb 74 58 3f 75 e7 60 3f db d9 7b 3f df 21 85 3f
       0.8455321 0.87853175 0.98379296 1.0400962
0001d0 74 38 40 3f a3 c0 81 bf d2 23 55 bf fb 20 27 3f
       0.7508614 -1.0136913 -0.8325778 0.652847
0001e0 6a 45 1a 3f b0 68 33 3f 7f 89 90 bf b2 03 8d bf
       0.6026217 0.70081615 -1.129196 -1.1016753
0001f0 0d 29 7f bf 20 44 5a bf 8f 12 83 bf a2 ed 9a 3f
       -0.99672014 -0.852602 -1.0240039 1.210377
000200 0c b9 84 bf 9e 74 2c bf 79 4e 97 bf 9c 39 28 bf
       -1.0368972 -0.67365444 -1.1820823 -0.65712905
000210 4c 24 2d bf aa 68 a0 3f 77 c4 9e 3f c0 06 62 bf
       -0.6763351 1.2531941 1.2403706 -0.8829155
000220 99 a0 53 bf 26 c1 25 bf 45 5f 81 3f ef 55 8f 3f
       -0.8266693 -0.64747846 1.0107199 1.11981
000230 85 8e 2c 3f 38 13 61 3f 98 36 19 3f 26 22 a2 bf
       0.6740497 0.8791995 0.5984893 -1.2666671
000240 87 97 62 bf 39 08 28 bf c8 16 86 bf a7 42 34 bf
       -0.8851246 -0.65637547 -1.0475702 -0.70414203
000250 8c 34 2e bf 7e 4f 91 3f fd a1 97 3f d0 99 48 bf
       -0.6804893 1.1352384 1.184631 -0.783597
000260 71 99 46 bf a1 df 63 bf a8 dd 67 3f 21 cd 3e 3f
       -0.77577883 -0.89013106 0.90572596 0.7453175
000270 86 8f 5c 3f ca 57 60 3f 09 b0 6d 3f 15 6f c6 bf
       0.861565 0.87633955 0.92846733 -1.550265
000280 d0 5e 43 bf 33 bd 37 bf 0a e7 79 bf cd e5 17 bf
       -0.7631655 -0.7177307 -0.9761816 -0.59335023
000290 3e 44 40 bf a3 6f 8d 3f 92 3b 89 3f dd 9c 77 bf
       -0.7510413 1.1049694 1.0721304 -0.9672373
0002a0 74 e2 2d bf 6a f9 7c bf f3 ad 89 3f e7 13 92 3f
       -0.67923665 -0.98818076 1.075621 1.1412324
0002b0 9d 50 66 3f 91 05 36 3f 8a 19 18 3f d2 e4 bc bf
       0.89966756 0.71102244 0.5941397 -1.475733
0002c0 d3 bb 37 3f 29 f4 5e 3f 8b 81 91 3f 3b c4 7b 3f
       0.7177097 0.8709131 1.1367658 0.983463
0002d0 98 4b 6e 3f 3e 85 83 bf a5 08 4d bf 85 84 25 3f
       0.93084097 -1.0275037 -0.80091316 0.64655334
0002e0 bf 48 4a 3f 9c 8a 48 3f 07 af 5c bf db 8a 87 bf
       0.7901725 0.783365 -0.8620457 -1.058925
0002f0 06 96 79 bf c7 fc 91 bf d9 e5 2d bf a8 5e 9b 3f
       -0.9749454 -1.1405267 -0.67928845 1.2138262
000300 2f 14 8e 3f d4 10 0d 3f 96 f8 86 3f b9 4d 1c 3f
       1.109991 0.551038 1.0544612 0.61056095
000310 fd 49 74 3f 30 87 aa bf 6a f5 78 bf 5d 5f 4f 3f
       0.954254 -1.3322506 -0.9724947 0.8100489
000320 ee 72 60 3f 79 f9 51 3f de b1 47 bf 5c 1d 5d bf
       0.8767537 0.8202129 -0.7800578 -0.86372924
000330 a7 93 80 bf 3e 23 42 bf c1 6d 7e bf df 76 9d 3f
       -1.004506 -0.75835025 -0.9938622 1.2301902
000340 f8 98 18 bf 64 5e 45 bf 97 85 96 bf 70 d1 4d bf
       -0.5960841 -0.77097154 -1.1759518 -0.803977
000350 47 05 84 bf c3 62 95 3f 43 58 81 3f 59 57 54 bf
       -1.031411 1.1670765 1.010506 -0.8294578
000360 cc 21 7d bf 9c eb 4f bf b4 42 84 3f 77 ee 6a 3f
       -0.98879695 -0.81218886 1.0332856 0.9177012
000370 2e 5c 93 3f 19 bc 87 3f 7f 3a 82 3f 39 d4 9f bf
       1.1512506 1.0604278 1.0174102 -1.248664
000380 fc 5b 41 bf bf 84 03 bf b1 a8 93 bf 18 f9 5d bf
       -0.7553098 -0.5137443 -1.1535856 -0.8670821
000390 cb 8b 8a bf 37 42 9b 3f 1b dd 93 3f 58 f5 44 bf
       -1.0823911 1.2129582 1.1551851 -0.76936865
0003a0 01 6d 63 bf 3a ef 87 bf 17 b0 92 3f 33 bd 86 3f
       -0.888382 -1.0619881 1.1459988 1.0526489
0003b0 0a 13 64 3f 64 3a 53 3f 8c e5 88 3f 02 2d a0 bf
       0.8909155 0.8251097 1.0695052 -1.2513735
0003c0 c5 a3 89 bf 3b 50 23 bf db 60 99 bf 9f 32 42 bf
       -1.0753103 -0.63794297 -1.1982683 -0.7585849
0003d0 bb 3d 70 bf 41 b7 8a 3f 98 ae 7f 3f f4 c1 7c bf
       -0.93844193 1.0837175 0.99875784 -0.9873345
0003e0 6b 47 2e bf 05 b3 80 bf 2c 12 88 3f cc 73 6b 3f
       -0.68077725 -1.0054632 1.0630546 0.91973567
0003f0 77 12 31 3f c0 8d 6e 3f 37 d7 80 3f 90 48 be bf
       0.691688 0.93185043 1.0065678 -1.4865894

bias f4 [32]
000000 f8 e5 50 c0 26 8d 4f c0 a0 83 67 c0 7f 33 50 40
       -3.2640362 -3.24299 -3.6174088 3.253143
000010 17 6a 62 40 08 be 47 40 dd aa 55 c0 61 3d 43 c0
       3.5377252 3.1209736 -3.3385537 -3.0506213
000020 26 61 4a 40 49 9a 4f 40 7a 3b 4f 40 1d 95 5d c0
       3.1621795 3.2437918 3.2380052 -3.4622262
000030 4c 7c 5b c0 4d 94 5d 40 c6 0f 5d 40 84 06 64 40
       -3.4294615 3.4621766 3.4540877 3.5628977
000040 b5 8d 53 40 1a e9 5d c0 f9 e5 63 40 0a 41 59 40
       3.305524 -3.4673524 3.5609114 3.3945947
000050 66 3d 64 c0 4b 73 4f c0 2e 24 53 40 8e d1 47 c0
       -3.5662475 -3.241412 3.2990832 -3.1221652
000060 46 82 5f 40 c9 14 55 40 51 6e 58 40 d6 e2 5b c0
       3.4923263 3.3293936 3.3817332 -3.43572
000070 41 b9 57 40 3d 97 4e c0 0e fc 58 c0 a9 38 61 c0
       3.370682 -3.2279809 -3.3903842 -3.5190833

weight f4 [64, 32]
000000 ee f7 89 3f 45 d3 ab 3f a2 da 88 3f 10 a7 ad bf
       1.0778787 1.3423849 1.0691721 -1.3566608
000010 c9 f3 ad bf a8 3d 9c bf d1 32 a3 3f fe fa 8d 3f
       -1.3590022 -1.2206316 1.2749883 1.1092222
000020 42 7c 98 bf e6 83 92 bf b7 72 8c bf e3 e2 8f 3f
       -1.191292 -1.1446502 -1.0972508 1.1241115
000030 cd b8 a9 3f d7 b8 a3 bf f3 c7 a3 bf 49 b9 a8 bf
       1.3259522 -1.2790784 -1.2795395 -1.3181545
000040 5f 01 7c bf 7c c8 a7 3f 5a 61 b5 bf 2c 1f 94 bf
       -0.9843959 1.3108058 -1.4170334 -1.1572013
000050 f1 e8 b1 3f f1 9c 87 3f 43 a5 a5 bf 7c b0 9f 3f
       1.3899213 1.059477 -1.2941059 1.2475734
000060 2e e3 a8 bf 4f 09 a2 bf 86 2d 95 bf c6 a8 a7 3f
       -1.319433 -1.2659091 -1.1654518 1.309838
000070 37 b8 a1 bf d7 35 8e 3f 1e 90 95 3f 85 7f 83 3f
       -1.2634343 1.1110181 1.1684606 1.0273291
000080 1c 47 a1 bf 87 19 85 bf ee 5f 90 bf 9a 29 9f 3f
       -1.2599826 -1.0398415 -1.1279275 1.2434571
000090 0a b4 98 3f e8 aa 78 3f e6 40 b1 bf b6 e7 9d bf
       1.1929944 0.9713578 -1.384793 -1.2336338
0000a0 51 1c a7 3f 84 c3 87 3f 76 58 82 3f 6a 46 8b bf
       1.3055516 1.0606542 1.0183246 -1.0880864
0000b0 fc 70 94 bf fa 3b 98 3f 51 8a a1 3f de ae 88 3f
       -1.159698 1.1893303 1.2620336 1.0678365
0000c0 16 90 93 3f fe e6 82 bf 0a c4 92 3f bb 0b 93 3f
       1.1528347 -1.0226743 1.1466076 1.1487955
0000d0 69 96 9d bf 7a df 85 bf 44 e5 94 3f 52 bc a0 bf
       -1.2311527 -1.0458825 1.1632466 -1.2557471
0000e0 8f c9 8b 3f 14 27 98 3f 65 28 81 3f 32 f1 99 bf
       1.0920886 1.1886926 1.0090452 -1.2026732
0000f0 c6 b2 9e 3f 73 db 97 bf e0 b7 95 bf 4c 2f a2 bf
       1.2398307 -1.1863846 -1.1696739 -1.2670684
000100 2a be 89 3f 55 9c 99 3f 28 f0 a9 3f a6 ad 92 bf
       1.0761158 1.2000834 1.3276415 -1.1459243
000110 52 8c ac bf 17 8d 86 bf 82 39 a1 3f 2a 6a 9a 3f
       -1.3480322 -1.0511807 1.2595675 1.2063649
000120 b9 43 82 bf 3a 0f 96 bf 88 87 92 bf af 7c 94 3f
       -1.0176917 -1.1723397 -1.1447611 1.160055
000130 16 25 8f 3f ca 5e ad bf 06 0f a6 bf a9 66 8c bf
       1.1183193 -1.3544552 -1.2973335 -1.0968829
000140 0a 81 a0 bf 1a e7 80 3f 53 13 ab bf 9c bd 89 bf
       -1.253938 1.0070527 -1.3365272 -1.0760989
000150 62 4f 87 3f f0 3e 90 3f 39 1b a7 bf 48 db a3 3f
       1.0571101 1.1269207 -1.3055183 1.2801294
000160 52 22 a1 bf ee b9 a5 bf 18 e4 8d bf 4c 79 9c 3f
       -1.2588599 -1.2947366 -1.1085234 1.2224517
000170 8f 0a 9c bf 7f 49 9e 3f 38 ae 96 3f 4b 22 9b 3f
       -1.2190722 1.2366179 1.1771917 1.211984
000180 c1 ed 8f bf d7 7c 82 bf e2 bb ab bf 0c 28 a5 3f
       -1.1244432 -1.0194348 -1.3416712 1.2902846
000190 fc 85 b0 3f b4 7b 9c 3f 64 4c a7 bf ea de 78 bf
       1.3790889 1.2225251 -1.3070188 -0.9721514
0001a0 d4 75 93 3f 0d 6b ae 3f 8b bd a2 3f cd 0b 8f bf
       1.1520333 1.3626419 1.2714094 -1.1175476
0001b0 06 3f 9f bf 6a 35 9e 3f 4b ba 88 3f b9 91 9d 3f
       -1.2441108 1.2360051 1.0681852 1.2310096
0001c0 f9 af a5 3f cb 5f 89 bf a1 de ae 3f b7 c9 98 3f
       1.2944328 -1.0732359 1.3661691 1.1936558
0001d0 f7 5e b0 bf 98 d2 a4 bf 45 27 9a 3f 69 7a 84 bf
       -1.3778981 -1.2876768 1.2043234 -1.0349857
0001e0 97 dd 96 3f b3 b5 9d 3f e4 b4 ad 3f f9 7c 7e bf
       1.1786374 1.2321075 1.3570828 -0.99409443
0001f0 90 ce 95 3f 8b 1e 87 bf 4a 19 a0 bf 9b c6 96 bf
       1.1703663 -1.0556196 -1.2507718 -1.177936
000200 08 87 a3 3f 3e 2b 9f 3f 7d d1 88 3f 12 fd a9 bf
       1.2775583 1.2435071 1.0688931 -1.3280356
000210 14 2e a9 bf 14 0c a2 bf ab c4 b1 3f e6 50 96 3f
       -1.3217187 -1.2659936 1.3888143 1.1743438
000220 7a 38 b4 bf a2 bc b1 bf 50 18 95 bf 46 03 a4 3f
       -1.4079735 -1.3885691 -1.1648045 1.2813499
000230 6b 12 a7 3f 55 68 ac bf 75 d1 8e bf 75 d1 8c bf
       1.3052496 -1.346934 -1.1157671 -1.1001421
000240 84 87 82 bf 9b f0 87 3f 18 07 a1 bf e6 39 90 bf
       -1.0197606 1.0620302 -1.258029 -1.1267669
000250 27 5b a3 3f 2b 57 8f 3f cc c5 9e bf c1 47 aa 3f
       1.2762192 1.1198477 -1.2404113 1.3303148
000260 2e 51 aa bf 5e 37 90 bf 74 4c 88 bf f4 f0 8f 3f
       -1.3306024 -1.1266897 -1.0648332 1.1245408
000270 f2 6d a1 bf e2 28 96 3f fc 75 99 3f 09 cf 9f 3f
       -1.2611678 1.1731226 1.1989131 1.2485057
000280 c4 ac a2 bf ba 96 98 bf 12 83 9a bf 8f 17 9c 3f
       -1.2708974 -1.1920998 -1.207125 1.219469
000290 15 85 92 3f 4b 90 93 3f 55 3f a0 bf 3e 4e 79 bf
       1.1446863 1.152841 -1.2519327 -0.97385013
0002a0 25 d5 87 3f dc 9e 87 3f fe 92 8f 3f 9a a4 89 bf
       1.0611922 1.0595355 1.1216733 -1.0753357
0002b0 c3 de 90 bf d3 c1 9b 3f 83 53 9e 3f c6 2c a7 3f
       -1.1317981 1.2168525 1.2369236 1.3060539
0002c0 01 aa 94 3f e3 53 a5 bf 08 e4 a6 3f 05 97 86 3f
       1.1614381 -1.2916225 1.303834 1.0514838
0002d0 08 82 ae bf e7 06 a2 bf 43 ee 9c 3f d5 81 95 bf
       -1.3633432 -1.2658356 1.2260212 -1.1680247
0002e0 de bc 9b 3f 3a cd 90 3f d1 c7 83 3f 93 77 a5 bf
       1.2167013 1.131263 1.0295354 -1.2927116
0002f0 65 f5 97 3f 45 76 85 bf d9 ee a1 bf 5e 31 9d bf
       1.1871763 -1.0426718 -1.2651016 -1.2280691
000300 df c9 95 bf b3 54 84 bf 5b eb b3 bf 5d 83 ab 3f
       -1.1702231 -1.0338348 -1.40562 1.3399464
000310 3e 0d 91 3f 07 6e 83 3f e3 24 9b bf cd 6d 91 bf
       1.1332166 1.0267953 -1.2120632 -1.1361634
000320 b2 d7 ae 3f 9b e8 8e 3f fd 11 89 3f d0 0f ac bf
       1.3659575 1.1164736 1.0708615 -1.3442326
000330 b0 5a 87 bf 37 e9 8a 3f bd f7 93 3f 21 e6 a7 3f
       -1.0574551 1.0852422 1.1559979 1.3117105
000340 25 f7 99 3f 7a a1 8a bf e0 51 97 3f 1d e3 85 3f
       1.2028548 -1.0830529 1.1821861 1.0459934
000350 a9 7e 94 bf e8 61 9b bf 24 45 9e 3f d3 72 95 bf
       -1.1601154 -1.2139254 1.236485 -1.1675667
000360 cb 96 ac 3f 74 4c 9b 3f 0f 94 84 3f b5 ab a9 bf
       1.3483518 1.2132707 1.0357684 -1.3255526
000370 af f5 91 3f e2 9a a2 bf 18 71 a3 bf 0b d7 73 bf
       1.1403102 -1.2703516 -1.2768888 -0.95250005
000380 70 5f a1 bf fd 01 95 bf ad 82 9e bf 96 75 a2 3f
       -1.260725 -1.1641232 -1.2383629 1.2692134
000390 e3 05 9e 3f 64 1e 8b 3f a5 e2 8a bf 4f 4b 9e bf
       1.2345546 1.086865 -1.0850416 -1.2366732
0003a0 23 cf a5 3f 2d 62 8c 3f 80 c4 a1 3f a2 6f a7 bf
       1.2953838 1.0967461 1.2638092 -1.3080943
0003b0 09 fa 97 bf 95 e7 96 3f 62 b4 a5 3f 1d 1e 7a 3f
       -1.187318 1.1789423 1.2945673 0.977022
0003c0 60 bb a0 3f 20 01 a3 bf 91 8b ad 3f 8d 2c 84 3f
       1.2557182 -1.2734718 1.3558217 1.0326096
0003d0 e0 e3 90 bf be 52 8e bf 85 1d 8b 3f a0 be 80 bf
       -1.1319542 -1.1119001 1.0868384 -1.0058174
0003e0 d4 f3 a1 3f 82 b1 91 3f 2b 3b 82 3f 6d 1c 98 bf
       1.2652535 1.1382296 1.0174307 -1.1883675
0003f0 bb f5 9e 3f 05 85 a0 bf f1 ee 9f bf e6 ad 9f bf
       1.2418741 -1.2540594 -1.2494794 -1.2474945

bias f4 [64]
000000 17 61 48 c0 da f4 45 40 2e c5 5b c0 f1 58 4e 40
       -3.130926 3.0930696 -3.43391 3.2241786
000010 e6 f1 52 c0 e0 99 4c 40 ee 8b 48 40 38 b5 4a 40
       -3.2960143 3.1968918 3.1335406 3.1673107
000020 3a b4 4f c0 ad 44 49 c0 6c bf 46 c0 e9 89 44 40
       -3.2453752 -3.1448166 -3.1054335 3.0709174
000030 0c 9e 53 c0 ae fc 48 c0 38 2b 4b c0 90 08 49 40
       -3.3065214 -3.1404223 -3.1745129 3.1411476
000040 90 b9 57 c0 54 46 58 c0 d6 6c 5b c0 b5 b0 4d c0
       -3.3707008 -3.3792925 -3.4285178 -3.2139103
000050 c0 0a 55 c0 00 8e 44 40 13 64 58 40 18 7b 53 40
       -3.3287811 3.071167 3.381108 3.304388
000060 cc e0 51 c0 04 91 5c c0 ed 46 4d 40 57 73 4a c0
       -3.2793455 -3.446351 3.207454 -3.1632898
000070 2f de 54 c0 05 7a 42 40 ce 27 51 40 06 44 4e 40
       -3.326061 3.0386975 3.2680545 3.2229018
000080 a7 7a 52 40 26 66 4b 40 88 e2 55 c0 44 d1 54 40
       3.288736 3.1781096 -3.3419514 3.3252726
000090 d5 e8 50 40 02 19 50 c0 9e 7a 55 40 9c 1f 4f c0
       3.264211 -3.2515264 3.335609 -3.2363043
0000a0 1a d0 55 40 44 1e 5b 40 14 e8 54 40 bb b7 4d 40
       3.3408265 3.4237223 3.326665 3.214339
0000b0 fa fb 47 40 2e 32 5b 40 63 c2 4a 40 da e0 48 c0
       3.1247544 3.4249377 3.1681144 -3.1387239
0000c0 59 69 48 c0 33 ca 4d c0 8e 2d 5c c0 60 a3 51 c0
       -3.13143 -3.2154663 -3.4402804 -3.2755966
0000d0 4e c7 57 c0 be 66 52 40 d9 a8 4a 40 cd d6 4e c0
       -3.3715396 3.287521 3.1665556 -3.2318604
0000e0 d4 4a 4f c0 18 9e 56 40 ed 3a 55 c0 35 56 56 c0
       -3.2389421 3.3533993 -3.3317215 -3.3490117
0000f0 26 9d 48 40 01 4a 3d 40 7e f1 5b 40 67 8c 53 c0
       3.1345916 2.9576418 3.4366145 -3.3054445

weight f4 [32, 64]
000000 df 76 a4 3f 68 ac a0 bf 73 67 94 3f 81 41 84 bf
       1.2848777 -1.2552614 1.159407 -1.033249
000010 8b 12 94 3f cc 5d 93 bf 4e 16 a4 bf e0 e2 9f bf
       1.1568159 -1.1513 -1.2819307 -1.2491112
000020 ae 5c 8d 3f 40 33 9f 3f 48 bc 97 3f 17 1b 99 bf
       1.1043909 1.2437515 1.1854334 -1.1961392
000030 91 a1 95 3f 0a d7 98 3f 5f ad a0 3f df 3c 8d bf
       1.1689931 1.1940625 1.2552909 -1.1034201
000040 7d 3c a8 3f c9 4b 96 3f c1 22 97 3f 8d 3f 9e 3f
       1.314346 1.1741878 1.1807481 1.2363144
000050 15 45 9f 3f ec cf 8b bf 68 40 89 bf dd d1 89 bf
       1.2442957 -1.0922828 -1.072278 -1.076717
000060 c4 66 8a 3f cc 20 8d 3f b4 b1 8b bf 73 69 8e 3f
       1.0812612 1.1025634 -1.0913606 1.112593
000070 03 49 83 3f 4f f6 99 bf 3f 2c a7 bf 80 4e 99 bf
       1.0256656 -1.2028292 -1.3060378 -1.1977081
000080 44 9a 95 bf f4 1a 97 bf 3f a3 9a 3f af b4 98 bf
       -1.1687703 -1.18051 1.2081069 -1.193014
000090 b3 f2 89 bf 45 a2 84 3f 3e b4 8e bf ad e7 8f 3f
       -1.0777191 1.0362021 -1.1148756 1.1242577
0000a0 c2 04 8b bf 97 4f 88 bf e4 0d 98 bf 11 29 99 bf
       -1.0860827 -1.0649289 -1.1879239 -1.1965657
0000b0 22 44 8d bf 13 6c a2 bf bb 75 86 bf 43 3e 8b 3f
       -1.1036417 -1.2689232 -1.0504678 1.0878376
0000c0 d8 0d 8d 3f 9e 34 88 3f 25 1f 9e 3f b9 27 9c 3f
       1.101985 1.0641057 1.2353255 1.2199622
0000d0 ba 0d 85 3f 16 1f 86 bf 8d 0a 95 bf 16 40 98 3f
       1.0394814 -1.0478237 -1.1643845 1.1894557
0000e0 4a 2a a4 3f a9 86 9c bf 02 c2 8d 3f d6 d9 9d 3f
       1.2825406 -1.2228595 1.1074831 1.2332103
0000f0 99 75 88 bf e5 55 9a bf b1 bf a2 bf 66 e4 8e 3f
       -1.0660888 -1.2057463 -1.271475 1.1163452
000100 5a 8d 9a 3f d3 bf 8f bf dc 9d 98 3f 64 8c 96 bf
       1.2074387 -1.1230415 1.1923175 -1.1761594
000110 4b 12 9f 3f 76 10 89 bf 4f 40 9d bf 2c 6b 8f bf
       1.2427458 -1.0708148 -1.228525 -1.1204581
000120 e2 4e 98 3f 09 51 89 3f ba f5 96 3f 69 d3 9b bf
       1.1899073 1.0727855 1.179374 -1.2173892
000130 cf f8 87 3f 62 d1 99 3f 75 d5 9a 3f ee 1f 9c bf
       1.0622805 1.2017024 1.2096392 -1.2197244
000140 32 37 a2 3f f0 20 9e 3f 63 88 9c 3f a3 0c 95 3f
       1.2673094 1.2353802 1.2229122 1.1644481
000150 37 ee 8c 3f 04 dc 89 bf 8c 21 92 bf 4b 3d a2 bf
       1.1010197 -1.0770268 -1.1416488 -1.2674955
000160 03 30 90 3f 2b 1c a7 3f 2a fc 8b bf 06 d6 a5 3f
       1.1264652 1.3055471 -1.0936329 1.295594
000170 e5 a1 9e 3f eb 0f 96 bf 08 51 9e bf 2f 0e 90 bf
       1.2393156 -1.1723608 -1.2368479 -1.1254328
000180 5a 60 9a bf a7 45 9f bf 74 56 96 3f d8 1e 8d bf
       -1.2060654 -1.2443131 1.1745133 -1.1025038
000190 8f bb a2 bf ee 29 97 3f c5 db 9d bf ca b3 86 3f
       -1.2713488 1.1809671 -1.2332693 1.0523617
0001a0 43 cb 9c bf 19 47 a8 bf 6d d5 9a bf 60 4f 9f bf
       -1.224953 -1.3146697 -1.2096382 -1.2446098
0001b0 11 a5 98 bf 24 11 8f bf 15 20 92 bf 80 fb 90 3f
       -1.1925374 -1.1177106 -1.1416041 1.1326752
0001c0 47 07 9d 3f 92 fa 94 3f d8 ef 9b 3f f0 8c 9e 3f
       1.2267846 1.1638968 1.218257 1.2386761
0001d0 0e ea 88 3f 55 da 8c bf 5d 0f 99 bf 76 71 a1 3f
       1.0696428 -1.100413 -1.1957814 1.261275
0001e0 e1 5a 8e 3f 87 2c 8f bf 2e 0c 90 3f 43 a1 9c 3f
       1.1121484 -1.1185464 1.1253717 1.2236713
0001f0 00 64 8a bf da d8 a2 bf 41 09 91 bf 44 3d 8f 3f
       -1.0811768 -1.2722428 -1.1330949 1.1190572
000200 12 a1 9f 3f 82 b3 87 bf 54 dd a2 3f 88 d9 8f bf
       1.247103 -1.0601656 1.2723794 -1.123826
000210 cc 5c 99 3f e1 16 8d bf 19 51 a2 bf 8e 94 9a bf
       1.1981444 -1.1022607 -1.2680999 -1.2076585
000220 3e c2 99 3f e6 83 97 3f 52 78 9c 3f 9a 8a 8a bf
       1.2012403 1.1837127 1.2224219 -1.0823548
000230 85 94 a2 3f 44 f5 93 3f 83 5d 9f 3f a8 93 a0 bf
       1.2701575 1.1559224 1.2450413 -1.2545061
000240 28 68 9c 3f 02 89 a2 3f 6d 0c 9e 3f b1 aa a3 3f
       1.2219286 1.2698061 1.2347542 1.2786466
000250 7f 89 aa 3f c5 d0 8d bf d8 65 89 bf 64 3b 9a bf
       1.332321 -1.1079336 -1.0734205 -1.2049375
000260 58 f7 a8 3f f6 31 94 3f 88 7d 8b bf 28 8d 9f 3f
       1.3200483 1.1577747 -1.0897684 1.2464952
000270 6d e6 a7 3f 63 5f 9a bf c1 de 8d bf 58 eb 93 bf
       1.3117195 -1.206036 -1.1083604 -1.1556196
000280 29 46 9c bf 07 b1 89 bf 83 29 8f 3f f9 04 92 bf
       -1.2208911 -1.075715 1.1184543 -1.1407768
000290 d8 0e a6 bf 4b 08 95 3f fb e0 a5 bf 65 7a 8e 3f
       -1.297328 1.1643156 -1.2959284 1.1131102
0002a0 7c 0b a7 bf fa b7 aa bf 5b de a2 bf 7a 24 9f bf
       -1.305038 -1.3337395 -1.2724108 -1.2433007
0002b0 9a a6 92 bf 40 74 93 bf 87 4e 8a bf e7 d5 87 3f
       -1.1457093 -1.1519852 -1.0805215 1.0612153
0002c0 75 8a a4 3f de 5d 88 3f eb 22 a3 3f 82 e1 96 3f
       1.2854754 1.0653646 1.2745031 1.178757
0002d0 35 33 91 3f 97 1f 95 bf 4e 82 9d bf 7d 51 8a 3f
       1.1343752 -1.1650265 -1.2305391 1.0806118
0002e0 a6 7c 96 3f 58 33 92 bf a7 ce 8d 3f f5 70 a3 3f
       1.175679 -1.1421919 1.107869 1.2768847
0002f0 34 ef 92 bf 86 46 92 bf 20 ac 98 bf d5 25 99 3f
       -1.1479249 -1.1427772 -1.1927528 1.196467
000300 17 67 9f 3f be ef 88 bf ff 5b 89 3f 03 f8 9d bf
       1.2453336 -1.0698164 1.07312 -1.2341312
000310 3a a6 a3 3f ca 5d 87 bf 1d 86 9f bf c8 f3 a1 bf
       1.2785103 -1.0575497 -1.2462803 -1.2652521
000320 f8 12 8f 3f 5d ab 9e 3f 3e b5 a2 3f 99 15 92 bf
       1.1177664 1.2396046 1.2711561 -1.1412841
000330 9e d6 9b 3f 97 d2 91 3f ab 4e 8e 3f 72 16 94 bf
       1.2174871 1.1392392 1.1117758 -1.156935
000340 3c 76 8c 3f dd 39 a0 3f 32 02 94 3f 60 a1 93 3f
       1.0973582 1.2517658 1.156317 1.1533623
000350 11 4f a1 3f d8 1d 91 bf e4 7f a3 bf df a5 8b bf
       1.2602254 -1.1337233 -1.2773404 -1.0909995
000360 00 e9 8a 3f 08 57 8f 3f 16 9b 9a bf f4 f0 a1 3f
       1.0852356 1.1198435 -1.2078578 1.2651658
000370 33 e4 92 3f 59 eb a6 bf aa d0 a5 bf 83 ea 94 bf
       1.1475891 -1.3040572 -1.2954304 -1.1634067
000380 ac 90 85 bf 41 22 97 bf 34 bf 9a 3f a7 cf 98 bf
       -1.0434775 -1.1807328 1.20896 -1.193837
000390 86 36 9c bf 87 4e 90 3f 4c a3 95 bf b9 80 a4 3f
       -1.2204139 1.1273965 -1.1690459 1.2851783
0003a0 0d a4 9c bf 15 29 96 bf 96 1f 92 bf a3 f0 9c bf
       -1.2237564 -1.1731287 -1.1415889 -1.2260936
0003b0 fe 8a 97 bf b9 fd 92 bf 94 f3 a1 bf 33 16 a5 3f
       -1.1839292 -1.148368 -1.2652459 1.28974
0003c0 fe 85 a4 3f 7f f8 a4 3f f2 2f 8b 3f 3e 75 9d 3f
       1.2853391 1.2888335 1.0874007 1.2301404
0003d0 40 16 9e 3f 2f 14 9a bf d8 ff a3 bf 5f c4 88 3f
       1.235054 -1.203741 -1.2812452 1.0684928
0003e0 59 c3 98 3f 1f a2 8d bf 20 eb 9c 3f ba b3 8f 3f
       1.1934615 -1.10651 1.2259254 1.1226723
0003f0 8c 1a 8f bf 4b 9a a2 bf 39 00 9f bf 52 35 87 3f
       -1.1179976 -1.2703336 -1.2421943 1.0563147

bias f4 [32]
000000 78 72 40 c0 5c 18 4c c0 0a 9f 4b c0 72 1b 40 c0
       -3.0069866 -3.1889868 -3.181582 -3.0016751
000010 65 dc 47 c0 a5 61 4a c0 e4 b4 4f 40 1e ae 49 c0
       -3.1228268 -3.1622097 3.2454157 -3.1512523
000020 f6 56 4c c0 2b 19 3c c0 8d 02 52 c0 22 ac 46 c0
       -3.1928077 -2.9390361 -3.2814057 -3.1042562
000030 a1 b7 49 40 1e f1 52 40 a3 95 49 40 54 26 48 c0
       3.1518328 3.2959666 3.149758 -3.1273394
000040 7c c5 4b c0 81 c3 4d c0 ae ca 38 40 22 14 44 40
       -3.1839285 -3.2150576 2.8873706 3.0637288
000050 b1 04 44 c0 cd 5b 46 40 a2 86 3f c0 46 42 44 c0
       -3.0627863 3.099353 -2.9925923 -3.066545
000060 b7 53 4d c0 2a 9d 4e 40 0a 2b 4a 40 a0 4b 40 40
       -3.2082345 3.2283425 3.158877 3.0046158
000070 48 35 42 40 92 52 46 40 73 73 4c 40 72 05 4d c0
       3.034502 3.0987897 3.1945465 -3.2034574

weight f4 [16, 32]
000000 d2 0d 78 3f 6a d6 95 3f b6 bb 9d 3f d8 3e 8f 3f
       0.9689609 1.1706059 1.232291 1.1191053
000010 7d eb 9c 3f fb d4 8a 3f 43 77 81 bf c6 76 7c 3f
       1.2259365 1.0846246 -1.0114521 0.98618734
000020 8e 88 90 3f e1 12 9c 3f ae d9 90 3f 53 8f 9b 3f
       1.1291673 1.2193261 1.131643 1.2153114
000030 52 27 7f bf b4 c1 91 bf 67 88 97 bf 9e de 9a 3f
       -0.99669373 -1.1387239 -1.1838502 1.2099187
000040 42 c5 6e 3f 2a 98 7f 3f d0 57 8c bf 02 37 7d bf
       0.9326974 0.9984156 -1.0964298 -0.9891206
000050 9d 96 87 3f be ba 8e bf ab fd 87 3f 54 d8 8c 3f
       1.0592839 -1.1150739 1.0624288 1.1003518
000060 53 e4 76 3f 6c 04 7e bf bf 7f 84 bf 26 09 89 bf
       0.96442145 -0.992255 -1.0351485 -1.0705917
000070 e6 28 8a bf 4d 28 9a bf fb 54 82 bf 16 99 94 3f
       -1.0793731 -1.2043549 -1.0182184 1.1609218
000080 02 95 54 bf ce 77 7c bf 5b e1 85 bf b4 1a 4f bf
       -0.8303987 -0.9862031 -1.0459398 -0.8090012
000090 ab a9 66 bf bc 5f 76 bf 93 7e 60 3f 04 37 66 bf
       -0.9010264 -0.9623983 0.87693137 -0.899277
0000a0 b8 5c 40 bf 54 5c 4c bf fc 0b 49 bf 66 1d 42 bf
       -0.7514148 -0.7982838 -0.7853391 -0.7582611
0000b0 15 79 53 3f 67 6d 73 3f 86 4a 32 3f bf 8e 5d bf
       0.8260663 0.9508881 0.69644964 -0.8654594
0000c0 47 d2 52 bf 76 8b 26 bf 92 12 80 3f a0 ca 43 3f
       -0.8235211 -0.6505655 1.0005667 0.76481056
0000d0 67 ab 63 bf 83 72 7b 3f 80 b3 6a bf 6c e9 39 bf
       -0.88933414 0.98221606 -0.91680145 -0.726218
0000e0 6c dc 52 bf 88 c3 48 3f 20 bd 4d 3f e6 d8 42 3f
       -0.8236759 0.78423357 0.80366707 0.7611221
0000f0 dc c9 6a 3f 57 59 41 3f f5 ae 2f 3f d7 de 34 bf
       0.9171426 0.75526947 0.6862634 -0.70652527
000100 25 99 39 bf c7 a7 36 bf 85 96 47 bf 59 98 21 bf
       -0.72499305 -0.7134976 -0.7796405 -0.6312309
000110 0b 74 6a bf e9 49 44 bf 20 3c 46 3f 50 19 3f bf
       -0.9158332 -0.7667528 0.77435493 -0.74648
000120 0d 91 1b bf 8f 66 73 bf 85 7a 43 bf df 3e 73 bf
       -0.60768205 -0.95078367 -0.76358825 -0.9501781
000130 ef 1c 68 3f 65 5f 46 3f 20 12 54 3f 63 8d 33 bf
       0.9066915 0.7748931 0.82840157 -0.70137614
000140 34 ed 4a bf 06 4f 67 bf 57 32 2d 3f a6 5a 2d 3f
       -0.79268193 -0.90354955 0.6765494 0.67716444
000150 d5 3e 49 bf c6 1f 4f 3f d6 f6 78 bf 5d 2e 4a bf
       -0.786115 0.8090786 -0.9725164 -0.78976995
000160 50 11 5c bf 1d 8f 6b 3f 14 44 68 3f 53 3e 4b 3f
       -0.85963917 0.9201525 0.9072888 0.79391974
000170 9b 4d 55 3f a3 70 3a 3f b5 a3 6a 3f 30 6d 44 bf
       0.8332154 0.7282812 0.9165605 -0.76729107
000180 61 42 63 bf 00 22 39 bf 99 78 5e bf 39 64 5a bf
       -0.8877316 -0.72317505 -0.8690277 -0.8530918
000190 9d a4 59 bf 0e 9a 81 bf 66 22 83 3f 83 b0 6f bf
       -0.85016805 -1.0125139 1.0244873 -0.9362871
0001a0 a7 17 69 bf fe eb 3a bf 1e 08 6c bf 8c eb 75 bf
       -0.91051716 -0.73016346 -0.92199886 -0.9606254
0001b0 f9 d4 69 3f 7e fb 4d 3f f7 24 5d 3f 24 91 4b bf
       0.91340595 0.8046187 0.8638453 -0.7951834
0001c0 ae a7 47 bf 5d 98 7e bf a4 5f 56 3f 6b 60 34 3f
       -0.77990234 -0.9945124 0.83739686 0.7045962
0001d0 df 14 55 bf e9 d3 70 3f e7 c5 3c bf 39 56 66 bf
       -0.8323497 0.9407335 -0.73739475 -0.89975315
0001e0 51 fb 6a bf 1d c9 58 3f db d0 7e 3f 64 0d 46 3f
       -0.9178973 0.84681875 0.9953744 0.7736418
0001f0 f7 f5 40 3f a2 ff 2f 3f cc 41 59 3f d8 e1 75 bf
       0.7537531 0.6874944 0.84866023 -0.96047735
000200 14 b7 7f bf 85 91 84 bf c3 e8 7a bf 6f 5b 7f bf
       -0.9988873 -1.0356909 -0.98011416 -0.9974889
000210 ea f9 78 bf c4 fb 6c bf b4 24 8f 3f 82 58 67 bf
       -0.9725634 -0.92571664 1.1183076 -0.9036943
000220 d4 1e 81 bf 1b 98 81 bf 20 94 7c bf b5 35 7c bf
       -1.0087533 -1.0124544 -0.9866352 -0.9851945
000230 fc 2a 88 3f c7 7f 93 3f b3 c2 83 3f f7 c4 95 bf
       1.0638118 1.152337 1.0293792 -1.1700734
000240 ac 2b 8a bf cd 8a 59 bf 70 42 91 3f a6 6d 8e 3f
       -1.0794578 -0.8497742 1.13484 1.1127212
000250 de aa 7f bf fb c9 68 3f d2 98 8b bf 6a 7e 91 bf
       -0.998701 0.909332 -1.0906012 -1.1366704
000260 34 db 76 bf d6 a5 90 3f 9d d5 71 3f a0 f3 78 3f
       -0.9642823 1.1300609 0.94466573 0.9724674
000270 c5 d9 8a 3f e1 42 89 3f f1 28 7e 3f 3e b8 70 bf
       1.0847708 1.0723535 0.9928122 -0.9403113
000280 65 e4 77 3f ee a2 50 3f 0f c4 62 3f 43 91 4f 3f
       0.9683288 0.8149861 0.8858041 0.81081027
000290 ed c4 7a 3f 3c d6 82 3f e7 55 61 bf 8b d9 83 3f
       0.97956735 1.0221629 -0.880217 1.0300764
0002a0 46 c0 50 3f 8e a2 3d 3f 8e bd 7e 3f b6 3d 78 3f
       0.81543386 0.74076164 0.9950799 0.96969163
0002b0 2d aa 47 bf 01 06 76 bf 48 c4 79 bf ec e3 84 3f
       -0.7799404 -0.9610291 -0.97565126 1.0382056
0002c0 22 03 64 3f ba dc 55 3f 4b df 4d bf 03 14 85 bf
       0.8906728 0.83539927 -0.80418843 -1.0396732
0002d0 d7 9e 6c 3f e9 fd 89 bf cd 07 3f 3f 3d 5d 84 3f
       0.9242987 -1.0780612 0.7462128 1.0340954
0002e0 0d 57 4a 3f df 69 41 bf fb fc 45 bf 04 f8 5d bf
       0.7903908 -0.7555217 -0.7733914 -0.86706567
0002f0 90 30 56 bf c7 fa 68 bf 66 4d 3e bf b9 90 65 3f
       -0.8366785 -0.91007656 -0.7433685 0.89673954
000300 0f 44 3c 3f b6 9e 6f 3f b4 33 8d 3f a1 70 6e 3f
       0.7354135 0.9360155 1.1031404 0.9314061
000310 9a e7 80 3f a3 6c 8c 3f fb 2f 71 bf f4 76 80 3f
       1.0070679 1.0970653 -0.9421384 1.0036302
000320 c2 82 82 3f f9 2d 69 3f 02 7c 87 3f 57 be 67 3f
       1.0196154 0.91085774 1.0584719 0.9052481
000330 20 99 8a bf 17 f6 6d bf ac b3 64 bf 9f 8c 66 3f
       -1.082798 -0.9295363 -0.8933666 0.9005832
000340 45 c0 8d 3f 74 a6 83 3f 9a 2d 85 bf 7a 76 8b bf
       1.1074301 1.0285172 -1.0404541 -1.0895531
000350 16 ba 74 3f 55 ee 67 bf 81 ee 72 3f 8a f1 6b 3f
       0.95596445 -0.9059804 0.9489518 0.92165434
000360 c1 5f 55 3f 15 b2 59 bf 49 b6 7c bf 20 d0 61 bf
       0.83349234 -0.85037357 -0.98715645 -0.882082
000370 22 4d 85 bf ff 6c 61 bf 4a 34 5d bf 56 e6 75 3f
       -1.0414164 -0.8805694 -0.8640791 0.9605459
000380 8c 98 35 bf bd 27 74 bf 97 52 5a bf 02 71 4a bf
       -0.70935893 -0.95373136 -0.8528227 -0.79078686
000390 53 98 69 bf ca cf 69 bf fe 76 7e 3f 5d 3e 5f bf
       -0.91248053 -0.91332686 0.9940032 -0.87204534
0003a0 0f 3d 50 bf a8 a7 32 bf 9c f8 4f bf e7 59 83 bf
       -0.8134317 -0.69787073 -0.8123872 -1.0261811
0003b0 40 13 77 3f ff 5f 4a 3f 15 ef 46 3f 3e 5e 58 bf
       0.9651375 0.7905273 0.7770856 -0.845188
0003c0 ca 63 66 bf c2 b8 5f bf 9b a0 42 3f ac 46 45 3f
       -0.89996016 -0.87391293 0.76026314 0.7706096
0003d0 63 6b 2f bf 70 71 54 3f 31 b4 3a bf cb f8 5b bf
       -0.68523234 0.8298559 -0.729312 -0.859265
0003e0 b0 c6 67 bf 30 24 7e 3f a8 45 7c 3f 50 78 64 3f
       -0.9053755 0.9927397 0.98543787 0.8924608
0003f0 a9 27 39 3f f4 8f 3d 3f 79 03 6e 3f 21 f9 36 bf
       0.7232614 0.7404778 0.9297405 -0.7147389

bias f4 [16]
000000 93 58 40 c0 8a 44 3f 40 82 d9 50 40 48 92 52 40
       -3.0054061 2.9885583 3.2632756 3.2901783
000010 37 6b 45 40 e2 a0 3c c0 66 8b 33 c0 21 99 49 40
       3.0846689 -2.9473195 -2.8053832 3.1499712
000020 14 19 3f c0 53 d9 4d c0 8d 4c 4d c0 fa c2 48 40
       -2.9859056 -3.2163894 -3.2077973 3.1369004
000030 2d 1c 3f c0 96 12 53 40 1e 5f 40 40 a2 85 27 40
       -2.9860947 3.2980094 3.0058055 2.6175313

weight f4 [4, 16]
000000 59 34 3a 3e 03 68 18 bf fd 49 17 bf e5 90 c6 be
       0.18184032 -0.5953371 -0.5909727 -0.3878242
000010 3e 28 71 be 6a 1d d8 3e 4f ce 14 3f 03 cc c3 be
       -0.23550507 0.4220994 0.581273 -0.38241586
000020 d4 de de 3e c3 60 07 3f 86 a1 8c 3e bf 00 b9 be
       0.4352938 0.5288202 0.27466983 -0.36133382
000030 ff 94 26 3f 12 f5 21 bf 17 72 65 be 3a 19 06 be
       0.650711 -0.6326457 -0.22406803 -0.1309556
000040 40 5b 82 bd f9 79 42 3e a1 6e 9e 3e 7c c8 aa 3e
       -0.06365061 0.18991841 0.30943778 0.33356082
000050 94 c7 60 3d e6 b0 03 be d9 c6 95 3c b7 83 5b 3e
       0.054877833 -0.1286045 0.018283295 0.21436964
000060 b8 35 55 3d d8 8e 69 be fd 14 68 be cd 88 f2 3c
       0.052053183 -0.22808397 -0.22664256 0.029606247
000070 1d 16 97 bc 5e 2c c7 3e 25 3f bc 3b 70 55 36 3d
       -0.018443162 0.38901037 0.005744832 0.044515073
000080 54 7a 37 bf 69 33 03 3f f5 b1 1f 3f e5 a1 33 3f
       -0.7167103 0.5125032 0.62380916 0.70168906
000090 aa 87 3a 3f 2d cc 3d bf 8e 8b 16 bf a1 a7 07 3f
       0.72863257 -0.7413967 -0.58806694 0.52990156
0000a0 54 c0 53 bf 1c 99 ea be ec 51 48 bf f5 aa 03 3f
       -0.82715344 -0.45819938 -0.7825 0.51432735
0000b0 ea 42 3e bf ac 5a f7 3e d7 cb 37 3f eb a3 1e 3f
       -0.7432085 0.48311365 0.7179541 0.6196887
0000c0 28 6a 8a 3e 62 90 68 be 63 66 e9 be 2e 78 9a be
       0.27034116 -0.22711328 -0.45585927 -0.30169815
0000d0 82 e5 c1 be 81 fb f6 3e 2e 4f 81 3e 84 ef f0 be
       -0.37870413 0.48238757 0.25255722 -0.47057736
0000e0 70 fd ac 3e 79 83 8b 3d d7 41 e4 3e d0 08 0b bf
       0.33787107 0.06812186 0.44581482 -0.5431032
0000f0 bc 67 32 3e 89 14 02 bf 2d 99 04 bf f2 13 21 be
       0.17422384 -0.50812584 -0.5179623 -0.15730265

bias f4 [4]
000000 5a 70 3d c0 28 b6 1a 40 c6 13 39 40 5e 38 27 c0
       -2.9599824 2.417368 2.8918319 -2.6128154
