matrix/result/0906/save/inverse_det_mul_conv_relu.pt (torch, 71143 bytes, 18 tensors)

weight f4 [4, 16]
000000 a9 99 1f bd 43 9a f8 3c 5e a1 e3 3d 19 d4 e8 bd
       -0.0389649 0.030346995 0.11114763 -0.113685794
000010 6a 7e 50 3d a7 0a 08 3e 4f b4 08 be 3d 25 d1 bd
       0.050901808 0.13285314 -0.13350032 -0.10212181
000020 27 a4 a7 3c c0 90 20 be 4b 91 27 bc 0b cf 4f bc
       0.020464016 -0.15680218 -0.010227512 -0.01268364
000030 60 dc 19 3c e7 2f 89 bd 70 73 cb 3b b5 0b 79 bd
       0.00939092 -0.0669859 0.0062088296 -0.06080218
000040 07 c4 b2 bb f9 6a 3e 3d 9b 82 93 bd 96 dc c7 3c
       -0.005455497 0.046488736 -0.072026454 0.024397176
000050 96 96 17 3d f4 ba c5 3d f7 71 a5 b2 5f 76 bd 3d
       0.037008844 0.09654799 -1.9260353e-08 0.09251093
000060 24 05 f6 3d 3a d5 54 bd 51 78 95 bc 99 a7 59 bd
       0.12012699 -0.05196116 -0.018245848 -0.05313835
000070 28 db 1e bc 97 ce 24 3d 0d b5 36 be 5b e5 4c bd
       -0.009695806 0.040236082 -0.17842503 -0.050023418
000080 f7 4c 21 bd 68 a8 04 bc 27 31 07 bd 5d 28 7e 3c
       -0.03938004 -0.008096792 -0.03300586 0.015512553
000090 e2 5a 91 3d 47 34 c1 bd 54 4e ba b2 52 9d 36 be
       0.07097413 -0.09433799 -2.168887e-08 -0.1783345
0000a0 61 d7 f4 3d 68 2f 49 3e 83 eb b6 bd 40 82 2f 3e
       0.11955143 0.1964699 -0.08931639 0.1713953
0000b0 00 9a de bc ba 8a c6 3c b3 6c 0e 3e bb 35 53 3d
       -0.027173042 0.024236072 0.13908653 0.051564913
0000c0 80 37 8e bc b9 20 c8 bd d9 58 4c bd f8 71 96 bd
       -0.017360449 -0.09771866 -0.04988942 -0.073459566
0000d0 77 1a 01 3e 84 ae c3 bd 10 db ae bc ff 5d 91 ba
       0.12607752 -0.095547706 -0.021344692 -0.0011090635
0000e0 c9 c7 2b be 15 5a 01 3b c1 9a b7 bd b4 04 59 bd
       -0.1677543 0.001973753 -0.08965064 -0.052983
0000f0 8c dc 27 3d 95 db 2f be ca 3a 1e 3c 8d 0e d2 bd
       0.040981814 -0.17173608 0.009657571 -0.102566816

bias f4 [4]
000000 e2 ca 9e 3c 0e 0b eb 33 a0 0d ed 33 aa fc ba 3d
       0.019383851 1.0945051e-07 1.1038651e-07 0.09130223

weight f4 [32, 16]
000000 30 c7 1f bd f6 73 5e be 38 84 50 3e 06 ee 1b be
       -0.03900832 -0.21723923 0.20362937 -0.15227517
000010 c2 49 50 3e 00 56 e9 3d 9e 12 32 be 7e fa 6d be
       0.20340636 0.11393356 -0.17389914 -0.23240086
000020 e0 ce 5b 3e 30 28 78 3e f8 8a 51 3d 30 6a 26 3d
       0.21465635 0.2423408 0.05115792 0.040628612
000030 40 10 eb 3d 74 89 69 be 56 91 49 3e 60 12 30 3d
       0.11477709 -0.2280634 0.19684348 0.042986274
000040 bc 32 a1 bd e8 1f cf 3d 52 08 3b 3e c0 64 41 3d
       -0.07871005 0.101135075 0.18264893 0.047215223
000050 a6 4c 23 3e 04 b8 fb 3d 12 da 3d be 70 49 5a be
       0.15947208 0.122909576 -0.18540218 -0.21317077
000060 90 90 bf 3c c0 3c c3 bc a6 46 39 3e dc 4c 3c be
       0.023384362 -0.023832679 0.18093356 -0.18388695
000070 e0 25 34 3e 40 aa b9 3c 28 eb 6a 3e 90 9b 2f 3e
       0.17592573 0.02266419 0.22941267 0.17149186
000080 c8 f9 34 3d 44 b0 17 3e 3c 61 db bd 70 e3 d2 3c
       0.044183522 0.14813334 -0.10711905 0.025743216
000090 de 7e 74 be d0 0b f8 bc 10 ff 68 be 20 1f 48 be
       -0.23876521 -0.03027907 -0.22753549 -0.19543123
0000a0 4e d8 26 3e 4c 83 e1 3d e0 13 1e be 20 69 29 3c
       0.16293451 0.11011371 -0.15437269 0.010340005
0000b0 de 0e 38 be 56 f8 48 be 18 d7 cb 3d 6e 14 4b be
       -0.17974421 -0.19625983 0.09953135 -0.19832012
0000c0 e6 5d 41 3e 32 e1 32 be 78 5b aa 3d e8 7d 59 3d
       0.18883476 -0.17468718 0.083182275 0.05309859
0000d0 06 3e 14 be 30 42 ed 3d 88 b1 03 3e 84 dc e0 3d
       -0.14476785 0.1158489 0.12860692 0.1097956
0000e0 d0 a8 1f bd 88 4c 40 3e a0 43 22 bd 8c e4 28 3e
       -0.03897935 0.18779194 -0.039615273 0.16493434
0000f0 c2 4e 1f be 74 65 5a 3e 1a 33 14 3e 18 d4 49 bd
       -0.15557387 0.21327764 0.14472619 -0.049274534
000100 42 89 76 be 5c 1f 09 3e 40 3f 96 3b cc 2d 2b be
       -0.24075797 0.13390869 0.0045851767 -0.16716689
000110 fa ec 2b 3e d8 77 ad 3d f4 35 03 be 1e f9 09 3e
       0.16789618 0.08470124 -0.1281355 0.13473937
000120 3a 3f 23 3e 7c 84 cd 3d f4 cf 83 3d 16 ed 1d 3e
       0.15942088 0.10035035 0.06436148 0.15422472
000130 c4 80 b4 3d 38 fa df bd 5e 51 7b be 70 ff 25 be
       0.088136226 -0.10936397 -0.24542758 -0.16210723
000140 12 43 66 3e 80 f3 ca bc 46 7e 02 be ca 55 6b be
       0.22486523 -0.024774313 -0.12743482 -0.22981945
000150 ec 9d f8 3d 8c 6c 27 be 16 9c 7f be 86 ca 3c be
       0.12139496 -0.16350001 -0.24961886 -0.18436632
000160 b0 23 f5 3d ca 22 3d be f4 64 6b be 04 b0 fb bd
       0.119696975 -0.18470302 -0.2298773 -0.12289432
000170 ac 02 00 3e 90 29 4b 3d 00 f6 3b bc b4 c2 49 be
       0.12501019 0.049600184 -0.011472225 -0.1970318
000180 a8 49 bd bd 98 5e 14 3d a0 de e7 3c 82 43 3f be
       -0.092425644 0.036223024 0.028304398 -0.18678096
000190 80 fa 97 3d 58 47 79 be d4 59 6b be 00 c8 7c bc
       0.07420826 -0.24343622 -0.22983485 -0.015428543
0001a0 80 e3 2b 3d b0 09 04 bd 88 d7 69 3d a6 39 60 be
       0.041965008 -0.0322358 0.057090312 -0.21896991
0001b0 00 a7 34 bb 20 27 67 3d 48 c5 5d 3d 6e 03 78 3e
       -0.002756536 0.056433797 0.05414322 0.24220058
0001c0 1a da 39 be 92 d5 3d be 08 93 ae bd 62 f7 74 3e
       -0.18149605 -0.18538502 -0.08524138 0.23922494
0001d0 a8 51 73 bd dc 09 9b bd 00 6d d7 bb 5c 6e 1d be
       -0.059404045 -0.0757024 -0.006574273 -0.1537413
0001e0 bc 30 65 be d6 70 7b be c4 7e e7 bd e4 29 a8 bd
       -0.22381872 -0.24554762 -0.113034755 -0.08211115
0001f0 00 a1 19 3b b8 5c 6b bd 9e 54 4e be 60 4d 1a 3c
       0.002344191 -0.05746147 -0.20149466 0.009417862
000200 a0 42 d5 bd 56 22 77 3e 92 f5 32 3e 80 94 0a bb
       -0.10413098 0.24134192 0.1747649 -0.0021145642
000210 2c ea a8 3d 34 03 3b be 92 f0 5b be 3e 2f 33 be
       0.0824779 -0.1826294 -0.21478489 -0.1749849
000220 90 cb 58 bd 90 6c bc 3c 22 e7 13 be ac 97 65 3e
       -0.052928507 0.023000985 -0.14443639 0.2242114
000230 ac 3f cb bd f0 17 44 be 22 08 31 be b0 84 2f bd
       -0.09924254 -0.19149756 -0.17288259 -0.04285115
000240 50 10 8b 3d b8 e1 39 bd 3a e1 03 be 4a 2e 5c be
       0.06790221 -0.045381278 -0.12878886 -0.21502033
000250 ba e9 00 3e f4 e7 f1 bd 4e b9 1b 3e b0 cc 0b 3d
       0.1258916 -0.1181182 0.15207407 0.034130752
000260 54 bd 1f be 90 1b c1 bc 3a 54 35 be dc d8 0e 3e
       -0.15599567 -0.023572713 -0.17707911 0.13949913
000270 d6 2c 1a 3e c6 a2 16 be 4c 85 2d be 1c 55 91 3d
       0.15056166 -0.1471053 -0.1694538 0.070963115
000280 80 72 4b bd 88 8b 40 3d 84 4a 0d be e0 5c 58 bc
       -0.049669743 0.047008067 -0.13797957 -0.013205737
000290 6e 9d 59 3e 98 c7 cf bd 30 c1 98 3d 2e b5 3e 3e
       0.21251461 -0.10145491 0.074587226 0.18623802
0002a0 18 d4 4a 3e 10 97 c9 3d 70 a7 81 3c a2 0c 14 3e
       0.1980747 0.09843266 0.01582691 0.14457944
0002b0 4a 41 4e be 38 fb 60 be e0 a1 7e bd 80 be 08 3b
       -0.20142093 -0.21970832 -0.062166095 0.00208655
0002c0 c4 2e 4b 3e e2 5e 6c be 18 da 1a bd 6a 38 1e 3e
       0.19842058 -0.2308307 -0.037805647 0.15451208
0002d0 38 b3 98 3d 00 2c c9 bd 72 c6 45 be a0 88 18 bd
       0.07456058 -0.098228455 -0.19313982 -0.03723967
0002e0 26 94 7d 3e 7c 3e 54 3e 58 ab c0 bd 9e a6 1e 3e
       0.24763545 0.20726961 -0.09407681 0.15493247
0002f0 a0 bd 89 bd 52 fe 52 be d0 46 11 3d fa 18 6a 3e
       -0.06725621 -0.20604828 0.035467923 0.2286109
000300 00 e0 6d 38 ba 72 7c be d0 79 12 3d f4 0d 30 3e
       5.671382e-05 -0.2465314 0.0357607 0.17192823
000310 c4 33 70 be 90 19 82 3c f0 ec 68 be 96 e7 5c 3e
       -0.23457247 0.01588133 -0.22746634 0.21572718
000320 f4 cb f6 bd f8 73 0e be 00 7a e0 bd 8e af 46 3e
       -0.1205062 -0.13911426 -0.1096077 0.19402906
000330 68 1b 75 3d 38 16 15 be ca 5a 2d be 96 53 24 3e
       0.05984059 -0.14559257 -0.16929165 0.1604751
000340 1e 01 6a 3e 6c 10 85 bd 30 6a 67 3e 20 8c 18 3c
       0.22851989 -0.06497273 0.22599101 0.009310752
000350 d8 2e b0 3d 9c be d7 3d 9c 82 b0 bd d0 b2 d5 3c
       0.08602685 0.10534403 -0.08618662 0.026086241
000360 f0 ea b2 3c b0 81 41 3e c4 1e 6f 3e 7e 01 33 be
       0.021840543 0.18897128 0.2335158 -0.17481038
000370 68 c4 32 bd 86 77 20 3e 14 ef 56 be 7a f9 62 3e
       -0.04364434 0.15670595 -0.20989639 0.2216548
000380 a8 9f 73 3d 7c 0b 3d 3e 94 64 1b be 60 e2 b4 bc
       0.059478432 0.18461412 -0.15175086 -0.0220806
000390 98 2b 06 be 02 d0 5c 3e be 53 64 3e 80 4e 7f be
       -0.13102567 0.21563724 0.2229757 -0.24932289
0003a0 8e b4 3a 3e 34 e2 e0 bd 54 ac 82 bd 9e f2 32 be
       0.18232939 -0.10980645 -0.06380525 -0.17475364
0003b0 90 0a 83 3d 62 9e 05 3e a4 51 7f be a0 9b 95 bc
       0.06398499 0.130487 -0.24933487 -0.018262684
0003c0 80 9e ea 3b 40 34 5e be 14 6c 82 bd 2c d8 20 3e
       0.007160008 -0.2169962 -0.063682705 0.15707463
0003d0 c8 3f 7f bd a8 05 72 3e ea ed 4c be 80 8d c4 bb
       -0.062316686 0.2363497 -0.20012632 -0.0059983134
0003e0 ba 93 7a 3e 08 59 32 3e b4 28 61 be 2a 1c 58 3e
       0.24470416 0.17416775 -0.21988183 0.21104494
0003f0 b0 e8 73 bd 1e 2d 12 be 00 35 db bb 8c ef 0f 3e
       -0.05954808 -0.14275023 -0.0066896677 0.14056224

bias f4 [32]
000000 d4 e5 39 3e 88 fc 76 3e 60 d0 05 bd 90 5c 1d 3e
       0.18154079 0.2411977 -0.032669425 0.15367341
000010 32 ed 2a be 94 66 99 bd 30 c6 51 3e 9c 6c 63 be
       -0.16692045 -0.07490268 0.20485759 -0.222094
000020 60 75 0d bc 50 a5 5a 3d 9c 23 a2 3d aa 76 42 3e
       -0.008633941 0.05338031 0.07916948 0.18990579
000030 68 c4 f4 bd 56 d4 6c be 2c d0 7c 3e d8 13 a0 3d
       -0.11951524 -0.23127875 0.24688786 0.07816285
000040 10 2f e2 3d 6e ab 37 be 80 3f 7e bd d8 19 19 bd
       0.11044133 -0.17936489 -0.062072277 -0.037378162
000050 08 53 3c bd 80 64 22 3d 00 94 73 be ae 59 46 be
       -0.045977622 0.039646626 -0.23786926 -0.19370148
000060 0c 37 2c be 6a da 03 3e 48 98 08 bd 80 b8 17 3e
       -0.16817874 0.12876287 -0.03334835 0.14816475
000070 f8 84 14 3d 82 8d 0e 3e a0 38 b0 3d 30 dc fa bc
       0.03625962 0.13921168 0.0860455 -0.030622572

weight f4 [64, 32]
000000 87 d6 01 3d e4 f2 07 bd a4 c9 0a 3d c5 a5 2d bc
       0.03169873 -0.033190623 0.033883706 -0.010598605
000010 0a f2 b7 3d 99 d1 e0 bd 9e 4a 0f be df 32 06 bc
       0.08981712 -0.109774776 -0.13993308 -0.00819084
000020 21 fa d2 3d d2 0d 8d ba 1f a2 09 3e 77 e2 15 3e
       0.103016146 -0.0010761565 0.1344075 0.1463717
000030 cb c8 2e 3e db da ab bd d6 ca 16 be 07 26 b1 bd
       0.17068784 -0.08391353 -0.14725813 -0.08649831
000040 90 63 ed 3d b7 05 18 be 95 9e d8 bd 21 db 9f bd
       0.11591256 -0.1484593 -0.10577122 -0.078054674
000050 0c cc 41 bd a9 76 2d bd 1e 35 7d 3d 44 d4 21 3e
       -0.047313735 -0.04234949 0.061818235 0.15803629
000060 23 c4 d2 bd 6c c1 d3 3d 76 21 6f bd 1b 3b 29 3e
       -0.10291316 0.10339627 -0.05838152 0.16526453
000070 d2 7d 74 3c fe 16 00 be ea a3 a9 3d 5e 7b e3 3c
       0.014922576 -0.12508771 0.08283217 0.027768787
000080 f6 16 67 3d 6c f7 ce bc cc a5 30 3e 2e 65 31 3d
       0.05641838 -0.025264464 0.17250746 0.043309383
000090 db b7 2b 3d e7 f9 29 3e 5f 87 c7 bd 7f 05 a5 3d
       0.041923385 0.16599236 -0.09742617 0.08057689
0000a0 af f5 16 3e 2a f6 16 3e 03 38 ff 3d bf 10 e8 bd
       0.14742158 0.14742342 0.12461855 -0.11331319
0000b0 e1 c8 cb bc b4 85 36 3c b3 41 c1 3d 59 de f7 bb
       -0.02487606 0.011140276 0.09436359 -0.0075643477
0000c0 b5 fe 0d be 4a 18 73 bc e0 18 a3 3d 3a 99 30 bd
       -0.13866694 -0.014837334 0.07963729 -0.04311488
0000d0 3e cb a1 3d aa 49 ef bd 6c 1a 64 bd bc 7d 29 3e
       0.079000935 -0.11683972 -0.05568926 0.1655187
0000e0 4c be ee 3d 70 d8 c0 3d 2c 4c 0c 3e 34 3b b2 3d
       0.1165739 0.09416282 0.13700932 0.08702698
0000f0 55 c8 07 be bb 20 06 3e 13 fd 29 be 4e 75 bb bc
       -0.13260014 0.13098423 -0.16600446 -0.022883084
000100 42 eb b9 3d cf e3 40 3d 78 09 d0 3d 84 6a 12 3e
       0.09078075 0.047092255 0.10158056 0.14298445
000110 11 c3 08 3e d7 56 ea bd f1 5c 4a bc c0 d9 1e 3e
       0.13355662 -0.11442345 -0.0123512605 0.15512753
000120 f6 37 ce bd 21 86 b1 bd 7c 16 2a 3e 3f 28 40 3d
       -0.100692675 -0.08668161 0.1661014 0.04691338
000130 e0 6e 00 bc 2c 6a de bd 76 25 26 be 7d 68 c3 3c
       -0.007838935 -0.108600944 -0.16225228 0.023853535
000140 94 cb d9 3d a7 19 07 bc 28 2d a2 bc 30 5e 55 bd
       0.106345326 -0.008245862 -0.019796923 -0.052091777
000150 58 6c 8f 3d 4e 30 a4 3d 65 be ef 3b 9c 18 c5 3d
       0.07003087 0.08017026 0.007316398 0.096238345
000160 3d e3 00 3e 29 07 f2 bd ac 46 b0 bd 9f 22 27 3e
       0.12586685 -0.11817772 -0.086072296 0.163218
000170 87 86 fc bb 6d bd 1e 3a f3 ee d4 bd 9f 52 63 3d
       -0.0077064666 0.00060554483 -0.103971384 0.055498715
000180 fe 9f 0b 3e 2c 57 4a bd 9d 55 ea bc d6 bf f0 bd
       0.13635251 -0.04939954 -0.028605277 -0.1175534
000190 93 dd de bd ce be 2e 3e c4 11 10 be be fb 0d 3d
       -0.10882106 0.17064974 -0.14069277 0.03466391
0001a0 b3 35 d2 bd 68 80 bd bd f9 75 1c 3e fd 07 df bd
       -0.102641486 -0.09253007 0.15279378 -0.108901955
0001b0 28 cf e8 bd 17 94 83 3b d3 fb a3 bc af 4c f7 bd
       -0.11367637 0.0040154564 -0.02001754 -0.12075173
0001c0 7c 12 76 3d c4 a2 0e be 35 c1 19 be ea 12 21 3e
       0.06007622 -0.13929278 -0.15015109 0.15729871
0001d0 9b 84 8f bd 5d c7 c7 3d db 48 18 be 21 27 29 bc
       -0.07007714 0.097548224 -0.14871542 -0.01032427
0001e0 cf df 2b 3d a5 d9 9a bb c3 c6 21 3e 3f 99 8a bc
       0.041961487 -0.0047256523 0.15798478 -0.016918777
0001f0 9a 1f da bc 6d 9f 8c bd 68 45 0c 3e 85 9f bd 3d
       -0.026626397 -0.068663456 0.13698351 0.092589416
000200 e4 11 95 bc 87 75 8c 3d c0 3b 22 be aa 8d 06 be
       -0.018197007 0.06858354 -0.15843105 -0.13139978
000210 a0 a4 86 3b 96 fd 35 bd 2b d5 18 be 8f e9 80 bb
       0.0041089803 -0.04443129 -0.14925067 -0.0039340924
000220 09 f6 2a be e1 e8 81 3d 95 a9 af 3d a0 2b 1e 3e
       -0.16695417 0.06343246 0.08577267 0.15446329
000230 d1 ac 14 bc 96 d8 72 bd 8c 68 12 bd d4 0f 25 be
       -0.009074406 -0.059288584 -0.035744235 -0.16119319
000240 a4 ba 6a 3d 7a 57 5c 3d 3d b1 9e 3d 91 ef 26 be
       0.0573069 0.05379436 0.07748649 -0.16302325
000250 41 57 d8 bb ad cb 29 3e 2b e0 3f 3d f0 6d b0 bd
       -0.0066021984 0.16581602 0.046844643 -0.08614719
000260 4e e1 a8 bc da a3 10 3e c0 3a cb 3c 4d d3 bc bd
       -0.020615246 0.14125004 0.024808288 -0.0921999
000270 b1 db 67 bc 40 08 d7 bd 33 c3 1d bd 76 8c 2c be
       -0.0141515 -0.104996204 -0.038516235 -0.16850457
000280 14 2c 1d be 41 cd 22 3e 9e 1f 1c bc cf 8a 21 bd
       -0.15348846 0.1589861 -0.0095290225 -0.03943902
000290 dc b3 01 be 27 44 5e bd de 13 97 bd 99 93 22 3e
       -0.12666267 -0.054264214 -0.07376836 0.15876617
0002a0 88 56 5f 3d 01 97 ac bd 99 8b 05 bd b1 e6 ec bd
       0.054525882 -0.08427239 -0.032603834 -0.115674384
0002b0 e0 43 fe bd b7 86 30 3e 56 3b 9d bd 3c dc 17 be
       -0.1241529 0.1723889 -0.07677333 -0.14830106
0002c0 b2 36 13 3e e2 67 ae 3d 16 ce 03 be 29 71 0b be
       0.14376333 0.08515908 -0.12871584 -0.13617386
0002d0 1f 29 a0 3d a0 67 a2 3d c1 a9 b8 bc 0c d8 b2 bd
       0.07820343 0.07929921 -0.022541882 -0.08732614
0002e0 96 b8 1a 3b fd 07 a0 bd 19 11 cd bd a0 3c 2d 3e
       0.0023608557 -0.07814024 -0.10013027 0.16917658
0002f0 78 5f ad 3d d0 ee 6a bd a4 de 3f 3d 0a 1c 42 bd
       0.08465475 -0.057356656 0.046843186 -0.04739002
000300 81 6d 26 3d 83 ba 99 bd 5a 2e 02 3e 80 d2 6f 3d
       0.040631775 -0.075062774 0.12712994 0.058550358
000310 5e 08 14 be 75 7f 80 3d ee 1b 8b 3d 8c 23 d8 bd
       -0.14456317 0.062743105 0.067924365 -0.10553655
000320 d3 7c 1e 3e f8 4c b8 bd af 31 31 3e c6 d7 cb bb
       0.15477304 -0.089990556 0.17304109 -0.0062207906
000330 bd 4e 15 be a7 8d d5 3d 3a dc 01 bd 8b 99 cc bd
       -0.14580818 0.10427409 -0.031704165 -0.099902235
000340 8a 5a 2e 3e a9 80 f8 3d 0e 19 26 be f6 48 64 b9
       0.17026725 0.12133915 -0.16220495 -0.00021770954
000350 fe fe 3f bd fb d4 72 3d 04 50 9d bd 80 64 b2 3d
       -0.04687404 0.059285145 -0.076812774 0.08710575
000360 68 ef e6 bd 64 75 1d 3e ff eb ca bd 26 24 18 3e
       -0.11276132 0.15376812 -0.09908294 0.1485754
000370 52 64 0a be e5 fd ec bd 78 d8 bc 3d 5c 6b 17 3e
       -0.13514832 -0.11571864 0.09220976 0.14787048
000380 94 5f 2f 3d 8b a6 3e 3c d7 ad 31 be 5d c3 34 3e
       0.04281576 0.011636387 -0.17351471 0.1765265
000390 16 4d a4 3d ff aa 1c 3e db c6 d4 3d c5 ba 45 3c
       0.080225155 0.15299605 0.10389491 0.012068455
0003a0 8c b0 65 bd 57 da 07 b9 58 de 1c 3e 76 8a b5 3c
       -0.05607657 -0.00012955941 0.15319192 0.02216075
0003b0 70 2f b2 bd 6d 51 2c 3e 1a 34 c4 3d 09 ff 65 bd
       -0.08700454 0.16827936 0.0958025 -0.056151424
0003c0 bf 1f 29 3e 57 02 35 be 44 f7 2d 3d 64 a2 30 be
       0.16516016 -0.17676674 0.04247214 -0.17249447
0003d0 88 49 e9 3b ae f0 1c 3e 5a e6 28 be 44 62 1e be
       0.0071193613 0.15326187 -0.16494122 -0.15467173
0003e0 4b 94 1e be 14 16 0b 3e d3 48 8a bd d3 f2 2f be
       -0.15486257 0.13582641 -0.06752171 -0.17182474
0003f0 b0 ce b9 bd 27 82 4a bc 20 2e 98 3d ea 3a 2f be
       -0.09072626 -0.012360132 0.07430673 -0.17112318

bias f4 [64]
000000 7f e0 02 be fa 9c 8b 3c d9 ac 03 be 62 6d 17 3d
       -0.12780951 0.017042626 -0.12858905 0.03696955
000010 bf ad d1 3d c8 f8 76 bd 5b f9 04 3c b6 f9 e9 bd
       0.102382176 -0.06029585 0.008116092 -0.11424582
000020 74 b3 07 3e 46 38 c3 3d 97 e1 a8 bd bf 0b d0 3d
       0.1325205 0.09532218 -0.08246153 0.101584904
000030 f9 97 a2 bd ad 70 bb 3d aa b7 21 3e 54 56 0c 3c
       -0.07939143 0.091523506 0.15792719 0.008565504
000040 06 3f 1b 3d 14 a6 c0 bd 62 fe a8 bd 83 5d 02 be
       0.0379019 -0.09406677 -0.08251645 -0.12730984
000050 b1 c3 6c 3d f0 7e 22 3d 08 f6 7c bd 55 50 0d 3d
       0.057803813 0.03967184 -0.06175807 0.03450044
000060 8b e4 07 3e b1 58 99 bd d6 13 09 3e db b0 fe 3c
       0.13270776 -0.0748762 0.13386473 0.03109019
000070 f6 b8 9a 3d 73 86 93 bd 78 9d e0 bd 23 f4 62 3a
       0.0755481 -0.072033785 -0.10967535 0.0008657595
000080 90 2d a2 bd 29 b5 1a 3e 7b dc 57 bc b6 45 0e be
       -0.079188466 0.1510817 -0.013175125 -0.1389378
000090 4d 9d 8a bd 98 8e e7 3d a5 f9 43 3d ce 17 bc bd
       -0.06768284 0.113064945 0.0478455 -0.09184228
0000a0 a0 34 69 bd 50 50 c8 3d b7 48 58 3d 80 a0 2d 3e
       -0.056934953 0.097809434 0.05280372 0.16955757
0000b0 f6 1c 01 3e d3 bc c1 3d 15 8d 0c be 8a e3 f3 3c
       0.12608704 0.094598435 -0.13725694 0.029771585
0000c0 d6 ba 23 3e 4c 02 ca bc 50 ce 58 bc a4 b8 e6 bd
       0.15989241 -0.024659298 -0.0132327825 -0.11265686
0000d0 03 9f 0e be fc 44 2f 3e 1a 58 10 3e 6c 48 ab bd
       -0.13927846 0.17116159 0.14096108 -0.08363423
0000e0 0b ae 55 3d da c6 1c bc a6 47 cc 3d b0 f7 df bd
       0.052167933 -0.009568894 0.09974603 -0.109359145
0000f0 17 87 9a bc 99 c5 9f 3d 2d 4e 2b be 8e e3 25 be
       -0.018863244 0.07801361 -0.1672904 -0.16200086

weight f4 [32, 64]
000000 04 7c 33 bd 74 fa 79 3d 2a a1 bb 3d 88 7f de 3d
       -0.043819442 0.061029866 0.09161599 0.108641684
000010 3c 97 f5 bd 40 e7 2a 3d dc df 07 3d c0 e1 b0 3d
       -0.11991736 0.041724443 0.033172473 0.086368084
000020 f4 80 7c 3d fa ab b1 bd 88 e5 85 3c 9e b8 e6 bd
       0.061646417 -0.0867538 0.0163448 -0.11265682
000030 b0 14 50 3d 96 cd bc bd 58 92 a1 3d a0 3f dd 3c
       0.05080098 -0.092189 0.07889241 0.027007878
000040 0e 34 ba 3d fe 57 f3 3d e0 80 87 3d 18 6f ca bd
       0.0909196 0.118820176 0.06616378 -0.09884471
000050 4e 93 89 bd d4 37 b4 bd 70 1d b0 3d 20 f0 60 bd
       -0.06717549 -0.08799711 0.08599365 -0.0549165
000060 a0 2c ab bc 8c 89 c9 3d 54 04 5b bd c2 1d 88 bd
       -0.020895302 0.09840688 -0.053470924 -0.06646301
000070 10 9b 6d 3d d4 fc ef bd 78 47 92 3c fc 8e 9b bd
       0.058009207 -0.11718145 0.017856345 -0.075956315
000080 d0 7f b8 bd 9a bd f6 bd 34 f9 0d 3d fc 1e fb bd
       -0.09008753 -0.120478824 0.034661487 -0.12261769
000090 70 38 79 3d 4e f9 ed bd da a9 b3 bd 46 a9 fb 3d
       0.06084484 -0.11619817 -0.08772631 0.12288146
0000a0 a0 d0 1f bc c0 d8 dc 3b 30 f7 b0 3c 00 e7 76 3c
       -0.00975433 0.006739706 0.021602243 0.015069723
0000b0 90 97 02 bd 80 24 4f bd 18 74 eb bd 08 1f 65 bd
       -0.031882823 -0.05057192 -0.114967525 -0.055937797
0000c0 70 b1 6d 3c 38 84 6b bd ae 3e a1 3d 64 0b 98 3d
       0.014507636 -0.05749914 0.07873283 0.074240476
0000d0 c0 eb 84 bc 3e 8b e6 3d 8c 13 b4 3d 2a 76 bc 3d
       -0.016225696 0.11257027 0.08792791 0.092022255
0000e0 4c 7f 54 bd 9a 64 b2 3d b4 8f 70 3d e0 30 fb 3c
       -0.051879212 0.087105945 0.058730796 0.030662954
0000f0 86 e9 af 3d 3c c5 1d bd 2e d6 e8 3d 38 f7 40 3d
       0.08589463 -0.038518175 0.113689765 0.047110766
000100 e0 ea 58 bd f0 02 4a bd b6 cb 89 3d e0 e1 3c 3c
       -0.05295837 -0.049319208 0.06728308 0.011528462
000110 18 11 a8 3c 7a 04 9e 3d b8 27 c2 bd 2e cb 84 bd
       0.020515963 0.077156976 -0.09480232 -0.06484066
000120 f6 98 c8 3d 38 55 0c bd 8c 85 b3 3d 80 10 23 bb
       0.097948 -0.03426096 0.087657064 -0.002488166
000130 c0 53 89 bd 8a 3c a9 3d 2a 73 95 3d 36 9e aa 3d
       -0.06705427 0.082635 0.072973564 0.083309576
000140 a8 86 be 3c d0 6d 01 bd 82 a4 eb bd 60 36 77 3c
       0.023257568 -0.031598866 -0.11505987 0.015088648
000150 c0 e2 29 bc 88 e7 fb bd 94 2d 45 bd 3c 2a 02 3d
       -0.010369003 -0.123000205 -0.04813917 0.03177856
000160 b8 ce a9 3d f2 6c 8a bd 84 a1 7a bd 60 67 a9 3d
       0.082913816 -0.06759061 -0.06118919 0.0827167
000170 56 6a b3 3d d6 b0 a6 3d 82 a0 dd 3d 20 bf 89 3b
       0.08760516 0.081391975 0.1082163 0.004203692
000180 72 0f e3 3d 78 2a 45 3d f8 9f bc 3c c0 5b e5 bd
       0.1108693 0.048136204 0.023025498 -0.111991405
000190 d0 9f e3 bc b6 00 e7 bd 44 c5 22 bd 44 00 ea 3d
       -0.027786165 -0.112794325 -0.03973891 0.11425832
0001a0 22 3a de bd 56 02 8d bd 9c d9 10 3d 10 8c 8a bc
       -0.10850932 -0.06885211 0.03536378 -0.01691249
0001b0 00 03 5e 3b 90 b8 4b bc 58 bc 94 bc 84 9a 3c bd
       0.00338763 -0.01243414 -0.018156216 -0.046045795
0001c0 0a 4d ac bd 54 87 67 bd c4 60 46 bd a8 ad a5 bd
       -0.084131315 -0.056525543 -0.048432127 -0.08089763
0001d0 30 7d 44 3d 80 0d 25 3b 52 0b e4 3d 94 bf 74 3d
       0.04797095 0.0025185049 0.11134972 0.059753016
0001e0 58 d1 bb 3c 24 fd af bd 58 2f fe 3d 98 bf 29 bd
       0.022926971 -0.085932046 0.12411374 -0.041442484
0001f0 00 32 1b 3d f0 ad a5 3c b8 6f 90 3c 86 04 e0 3d
       0.03788948 0.020224541 0.017631397 0.10938363
000200 dc b6 03 bd c8 1b 4e bd 48 a8 4a bd f0 cf 7f bd
       -0.03215681 -0.050319463 -0.04947689 -0.062454164
000210 80 08 1d bd 4c e8 8d 3d c2 35 c0 bd 82 c4 c6 bd
       -0.038338184 0.06929073 -0.093852535 -0.0970545
000220 5e de 8a 3d 24 d9 d3 3d 28 37 bb bd c2 f3 a9 3d
       0.067806944 0.10344151 -0.091413796 0.08298446
000230 e0 67 ec bc 46 0b fa bd c8 3e 34 bd f0 51 70 3d
       -0.028858125 -0.122091815 -0.044005185 0.05867189
000240 5e df d4 bd 6c bc bd 3d bc 54 7a 3d e0 84 5a bc
       -0.103941664 0.09264454 0.061115965 -0.013337344
000250 6c d8 75 bd e4 dd 41 bd 98 87 9a bd a2 74 e5 3d
       -0.06002085 -0.047330752 -0.07545394 0.112038866
000260 54 ca 51 bd 80 06 9a 3a d0 bf 5a 3c 32 e3 af bd
       -0.051218346 0.0011751205 0.013351396 -0.08588256
000270 40 40 06 bc f0 7f a7 3d 00 9e d6 39 d2 8a db bd
       -0.008194029 0.08178699 0.0004093498 -0.10719837
000280 08 8e 48 bd fa 24 db bd 80 9c 1c 3d b0 36 9b 3d
       -0.048963577 -0.10700412 0.038235188 0.0757879
000290 80 04 5d 3b 74 38 18 bd 4c f7 64 3d e0 1e 87 bb
       0.0033724606 -0.037163213 0.055899903 -0.0041235536
0002a0 a0 7c f7 bb 28 c1 bf 3c 70 2e b1 3d 68 a6 b0 3d
       -0.0075526983 0.023407534 0.086514354 0.086254895
0002b0 44 ea 1d bd b4 10 34 bd be dd a4 bd fc db da 3d
       -0.03855349 -0.04396124 -0.080501065 0.1068649
0002c0 cc ae 04 3d 3e 56 d2 3d 0a 1b d8 bd b2 c0 90 3d
       0.03239326 0.10270356 -0.10552032 0.07068004
0002d0 9c 4a 97 3d be c3 a3 3d 38 38 20 3d b0 e8 56 3c
       0.073872775 0.07996319 0.039116114 0.013117
0002e0 68 0a fd 3c 74 25 86 3d 80 1f a9 3a 08 95 f6 bc
       0.030888751 0.06550112 0.0012903064 -0.03010036
0002f0 20 07 87 3d e8 2b 1a 3d c0 99 b9 bb f2 b3 c4 3d
       0.06593156 0.03763953 -0.0056640804 0.09604634
000300 18 f8 a1 3d 7a 9c fb bd d0 b7 b8 bc 4c 09 9c 3d
       0.07908648 -0.12285705 -0.022548586 0.07618961
000310 14 31 1e bd c4 90 21 3d bc 6e 8d bd 44 e9 33 3d
       -0.038621023 0.0394447 -0.069058865 0.04392363
000320 1a bd b2 3d c0 5e ee 3d a8 4f b8 3d 30 1f 3c bd
       0.087274745 0.11639166 0.08999568 -0.04592818
000330 b0 18 53 bc e0 d8 a5 bc 00 93 f5 3a 5a 95 9c bd
       -0.012884304 -0.020245016 0.0018735826 -0.07645674
000340 e4 b3 c0 bd da 30 8d bd ca b3 9d 3d 60 8f a3 3c
       -0.094093114 -0.06894083 0.07700308 0.019965827
000350 0c 80 4f 3d 98 8d cc 3d 62 ba b5 bd 4c c9 37 3d
       0.050659224 0.09987944 -0.0887344 0.044869706
000360 b4 af 66 bd d0 be 5b 3c c0 f6 e2 3d f0 40 ea bc
       -0.056319907 0.013412192 0.1108222 -0.028595418
000370 44 ac 1b 3d 64 be 71 bd 2c 06 f5 3d e0 a7 46 3d
       0.038006082 -0.05901946 0.11964068 0.04849994
000380 0e a5 88 bd 80 5b 20 3c 08 45 be 3c c0 d1 57 3c
       -0.06672107 0.00978744 0.023226276 0.013172567
000390 94 45 a1 3d 98 99 ec 3c 2c 80 e9 3d 26 da a0 bd
       0.07874599 0.028881833 0.114014 -0.078541085
0003a0 d0 fc a3 bc e6 a1 b2 3d 98 91 7b 3d 64 e3 f9 bd
       -0.020018011 0.08722286 0.061418146 -0.122015744
0003b0 a0 1e 9e 3c 56 21 ce 3d 04 74 4c 3d 66 82 bf 3d
       0.019301713 0.10064952 0.04991533 0.093510434
0003c0 98 94 d0 3c e8 f5 fa 3c 0c b8 82 3d 0c 79 ce bd
       0.02546148 0.030634835 0.063827604 -0.100816816
0003d0 64 82 aa bd f8 fb a7 bd 3a 3d c0 3d e0 4c 39 3d
       -0.08325651 -0.08202356 0.09386678 0.04523933
0003e0 fc 16 16 3d e0 41 e2 3c 50 ad a1 bd 10 45 3d 3c
       0.036643013 0.027619302 -0.07894385 0.01155211
0003f0 92 6d c0 bd ea f4 fa bd 8c 7e a0 3d 72 19 89 bd
       -0.09395899 -0.12253745 0.07836637 -0.066943064

bias f4 [32]
000000 7c 37 4d 3d fc 86 55 bd 76 48 bf bd 02 e8 c2 3d
       0.050101742 -0.052130684 -0.09339993 0.09516908
000010 ba 95 ea bd bc d5 29 3d 20 28 ec 3c e6 8b bf bd
       -0.11454339 0.0414636 0.028827727 -0.093528554
000020 40 2b 6d 3d c0 79 81 3c 40 e7 41 3d 54 f7 ee bd
       0.057902575 0.015805125 0.047339678 -0.11668268
000030 f4 95 7b 3d 58 98 7e bd 32 b0 e1 bd 58 13 80 3d
       0.061422303 -0.062157005 -0.11019935 0.062536895
000040 96 90 d3 bd a6 50 bf bd 1e ab ea bd ec f3 f6 bd
       -0.10330312 -0.09341554 -0.11458419 -0.12058243
000050 8a f5 c8 bd 8c ea f0 3d 64 b0 c1 3d e0 ec 6a 3c
       -0.09812458 0.11763486 0.09457472 0.014338702
000060 6c a6 f7 bd 40 2e bb 3b e0 72 39 bd 62 1c c1 bd
       -0.12092289 0.0057123005 -0.04527557 -0.09429242
000070 b0 e4 9f 3c 18 2a 5f 3d 72 09 9e 3d a8 9d 9d 3d
       0.019518226 0.054483503 0.07716645 0.07696086

weight f4 [16, 32]
000000 b5 d5 81 3d 2b f3 11 bc 59 f7 2e be 33 1e 0c bc
       0.063395895 -0.008908073 -0.17086543 -0.008552122
000010 94 13 0b bd 8d 14 20 bd b9 11 0f 3d c9 e8 1e be
       -0.033954218 -0.0390821 0.03492901 -0.15518488
000020 c2 42 aa 3d 1f 13 98 bd 57 6a 2f 3e 62 06 32 3e
       0.08313514 -0.07425522 0.17130409 0.17385247
000030 1c 6f 94 bd 5d 9c ef 3d e4 ee c4 3d ed 9c 33 3e
       -0.07247755 0.11699746 0.09615877 0.17540331
000040 fc 9f bd bd 74 16 02 3d 3e 95 2f 3e ae 70 f9 bd
       -0.0925903 0.031759694 0.17146775 -0.12179695
000050 5e 49 de 3d 62 8f b6 bc 9b d2 81 bd b9 69 33 3d
       0.108538374 -0.022285167 -0.06338998 0.043801997
000060 cb f5 9a bd bd 4a b2 3d 09 a2 b1 3c 93 68 f6 3d
       -0.075664125 0.087056614 0.02168371 0.12031665
000070 24 b1 5d bd f9 0d 90 bd a6 33 14 be 7d a9 1e 3e
       -0.054124013 -0.07033915 -0.14472827 0.15494342
000080 93 3c 34 bc a1 c6 70 3d 5a 55 e1 bd 1d dc b4 bd
       -0.01100077 0.058783177 -0.11002608 -0.08831046
000090 6b 28 ed 3d 6c f3 ca 3d 4e 18 70 bd a7 e3 89 bb
       0.11579975 0.0990971 -0.05861693 -0.0042080465
0000a0 0d 50 86 3d 39 13 f2 3d e5 3b 34 3e 43 cc ab bd
       0.06558237 0.11820073 0.17600973 -0.08388569
0000b0 d0 17 9f 3d a3 ae b0 3d 12 69 cc 3d f3 c1 0a be
       0.07768214 0.08627059 0.09980978 -0.13550548
0000c0 50 6f 2f 3d d1 3a 1f 3e 60 c3 fc 3d 24 5c cf 3d
       0.042830765 0.1554978 0.12341952 0.10124996
0000d0 9e ad 00 3e 07 bf 16 3e 72 e9 8f bd 10 2b 3e 3d
       0.1256623 0.14721309 -0.07026948 0.046427786
0000e0 9b 2e c5 3d ec 65 37 3d 2f 34 84 3d 35 e9 cf bc
       0.0962803 0.044774935 0.06455266 -0.025379756
0000f0 05 64 07 3e 55 1c 33 3e b0 b9 92 3d 29 9c b5 bd
       0.13221748 0.17491277 0.07164323 -0.08867676
000100 4a 61 34 3e d8 ca 16 be 17 28 c5 bd 5f 86 21 be
       0.17615238 -0.14725816 -0.09626787 -0.15773915
000110 de dc 19 3e 19 dd cf bc f7 58 d6 bd 75 67 5f 3d
       0.1502566 -0.025373982 -0.104661874 0.054542024
000120 08 40 22 be d9 4b ff 3d 49 91 ad bd 3b 03 05 be
       -0.15844738 0.12465639 -0.084749766 -0.12989514
000130 66 9d 80 bd a6 b7 b9 bc a7 52 83 bd 5b 45 cb 3c
       -0.06280021 -0.022670578 -0.06412249 0.024813345
000140 86 e2 7b bd bd ac a7 bb 6f 2d c5 bd 6f 4c af 3d
       -0.061495326 -0.0051170276 -0.096278064 0.085595004
000150 6f 44 db bb de 6b ce bd c8 78 d7 3c 7a b7 45 3d
       -0.0066915075 -0.10079168 0.02630271 0.04827068
000160 7b b5 03 bd eb 3d fa bd f7 04 60 3d 67 4d 06 be
       -0.032155495 -0.12218841 0.054692235 -0.13115464
000170 0e 5d f3 ba 79 8f 29 3e d3 c4 1d be e6 9e df bd
       -0.0018567161 0.16558637 -0.15407114 -0.10918979
000180 7c 51 21 be c1 b9 cf bd af 21 18 3e 6d 10 ff 3d
       -0.1575374 -0.101428516 0.148566 0.12454305
000190 44 15 ea 3c 94 36 a2 3d 93 21 81 3d 82 be b3 bd
       0.028574593 0.07920566 0.06305232 -0.08776571
0001a0 76 08 ec 3d f8 dd ef 3d f4 3e 0b be c3 91 b3 bc
       0.11525051 0.11712259 -0.13598233 -0.02192009
0001b0 44 61 d1 3d 94 c3 ba 3d e8 5f 2f 3e dc 52 e8 bd
       0.1022363 0.09119335 0.17126429 -0.11343929
0001c0 20 0b a4 3d fa f4 0b 3e 3a 45 be 3b 2a f3 55 3d
       0.080099344 0.1366767 0.0058065923 0.052233852
0001d0 66 91 78 3d 44 71 e4 3d b1 ed 18 3e 6b d4 07 bc
       0.060685538 0.11154416 0.14934422 -0.0082903905
0001e0 9f 79 8b 3c 0d e0 ee 3d 3c 92 c2 3c c2 b3 ea 3d
       0.017025767 0.11663828 0.02375137 0.11460067
0001f0 bf ae 63 3d e3 e6 79 bd 6a 23 e7 3d e3 2c 90 bd
       0.055586573 -0.061011206 0.112860516 -0.070398115
000200 90 5e 83 3d fd e7 19 ba 88 0a 6d bd 53 49 38 3d
       0.06414521 -0.0005871056 -0.05787137 0.044991802
000210 05 7f de bd 9a 66 0e 3d 08 39 22 3e e8 a1 82 bd
       -0.10864071 0.034765817 0.15842068 -0.063785374
000220 94 16 cf 3c 7e 55 20 be f6 a0 01 3c cc 55 33 3e
       0.02527932 -0.15657613 0.007911911 0.17513198
000230 50 1a 0c 3e b0 f9 cc bd 25 aa 18 3e 48 83 82 bd
       0.13681912 -0.100085616 0.14908655 -0.06372696
000240 bb 35 28 3e 98 d4 b1 bb e8 a9 82 3d 18 12 a9 bc
       0.16426747 -0.0054269545 0.06380063 -0.02063851
000250 e0 3c a0 bd 3b 3e 34 3d dc 67 15 3e a1 89 07 3e
       -0.07824111 0.04400466 0.145904 0.13236095
000260 6c 1e dc bd 95 07 9f 3d a4 72 2c 3d 05 a0 1d 3d
       -0.1074799 0.07765118 0.042101517 0.038482685
000270 30 a1 cc bd 4b 9a 24 be 47 9a 2d bd 3e 99 06 3e
       -0.099916816 -0.16074483 -0.04238346 0.13144395
000280 36 9d a6 bd 7c 82 c1 3c 06 3c a9 3d 6b 0a a6 3d
       -0.08135454 0.02362179 0.08263402 0.08107456
000290 e9 7d a0 bb 6b 9c ef bd 72 0d 32 3e df aa d8 3d
       -0.004897822 -0.11699756 0.17387941 0.10579466
0002a0 5b 7a 23 3d 4a 52 a0 bd 43 57 80 bd 8e f6 11 be
       0.03991161 -0.078281954 -0.06266644 -0.1425421
0002b0 10 75 bf bd a5 0f 32 be a5 d9 20 3e 8c 2b 19 3c
       -0.093485 -0.1738878 0.15708025 0.009348761
0002c0 4d 6d 0b be d8 82 0d be ac 34 f1 3d e4 7e 72 3d
       -0.13615914 -0.13819444 0.117776245 0.059203044
0002d0 fe e4 28 3d c3 a2 24 be 8e 43 6b bd e8 d0 c6 bd
       0.04123401 -0.16077714 -0.057437472 -0.097078145
0002e0 9e d7 8c bd 6a fa 72 bb 53 7e 8c 3d 73 c6 79 3d
       -0.06877063 -0.0037075528 0.06860032 0.06098027
0002f0 07 bd dd 3d fa 2a 94 3c a0 4c ae bd e7 2e e5 3d
       0.1082707 0.0180869 -0.08510709 0.111905865
000300 c2 2e a4 3d f5 bb df 3c 68 69 ef 3d bb 2e a7 bd
       0.08016731 0.027311305 0.116900265 -0.0816321
000310 89 7c a5 3b 03 71 03 3e 94 57 2f be b8 42 16 3e
       0.005050246 0.1283608 -0.17123252 0.14673889
000320 17 dd 2d be 55 4f bd 3d d0 83 67 bd ea bb a8 3b
       -0.1697887 0.09243647 -0.05652219 0.005149354
000330 e6 2e 05 bd 99 32 10 3c 4b 86 c4 bc 80 ae 63 3d
       -0.03251543 0.008801126 -0.023989817 0.055586338
000340 ee 83 10 3e 33 3b 0e be 52 1f 44 3d f3 ba ec bd
       0.14112827 -0.1388977 0.047881432 -0.11559095
000350 2f e1 d0 3d ee 96 2c be 29 d6 27 3e 1a d2 41 bd
       0.101992 -0.1685445 0.1639029 -0.04731951
000360 8d 1f a3 bd 27 7e ca bd 1a ff 3b 3c e4 7c 9c 3d
       -0.07965002 -0.09887343 0.011474395 0.076410085
000370 f7 5e 02 3e 78 05 22 bd 1a ca b7 bd 91 6d 89 3b
       0.12731539 -0.039555997 -0.08974095 0.0041939695
000380 c9 00 e7 3d a4 62 ad 3d ce 5a 26 be d0 40 ed bd
       0.11279447 0.0846608 -0.16245577 -0.11584628
000390 16 96 d0 3d eb f5 0b be d7 e4 29 be 33 34 da 3b
       0.101848766 -0.13668029 -0.16591202 0.0066590547
0003a0 2a 19 f5 3c 2f 25 f7 bd e4 8b 11 3e 06 49 d4 bd
       0.029919226 -0.12067639 0.1421352 -0.103654906
0003b0 a1 dd f7 bd f2 7a be 3d ac c4 16 bd 7e 9a 01 3e
       -0.12102819 0.09300794 -0.036808655 0.1265659
0003c0 98 1b 47 bd 85 a9 01 3e 3f be bd 3d 88 31 80 bb
       -0.0486103 0.12662323 0.09264802 -0.0039121546
0003d0 15 83 93 bd 4a b3 0f 3e 04 36 1e 3c 0d 38 c3 bd
       -0.07202736 0.14033237 0.009656433 -0.09532175
0003e0 77 be 2f 3c 2f 76 c0 3c 22 f0 2e be 55 a8 d5 bd
       0.010726563 0.023493854 -0.17083791 -0.104324974
0003f0 7f 8a 6d 3d 3c a8 55 3d ed 19 a3 bd 6d b9 db bd
       0.05799341 0.052162394 -0.07963929 -0.107287265

bias f4 [16]
000000 a1 e5 60 bd b5 c7 71 3d 1e 2f b8 3b b6 0c 77 bd
       -0.05490649 0.059028346 0.005620851 -0.060314856
000010 41 26 2a be 00 8e bf 3d db 16 a3 3c bd c5 93 3d
       -0.16616155 0.09353256 0.01990836 0.0721545
000020 b0 7a a5 bd 59 2b 17 be 90 57 00 be fb ea ca bd
       -0.080800414 -0.1476263 -0.12533402 -0.099081
000030 d5 5f db bc a0 6f 8d 3d 4b e7 d2 3d 75 c3 7f 3d
       -0.026779095 0.069060564 0.10298022 0.06244226

weight f4 [4, 16]
000000 d0 00 f6 bc f8 8f 66 3d 00 ed af bd 5e 29 77 be
       -0.030029684 0.056289643 -0.08590126 -0.24136874
000010 80 88 3b bc 90 ac 52 be ca 8f 75 3e b0 26 1f bd
       -0.011446118 -0.2057364 0.23980632 -0.038855255
000020 58 36 de bd 10 83 85 bd 54 59 f9 3d 80 68 49 bb
       -0.10850209 -0.06519139 0.12175241 -0.0030732453
000030 a0 1e 95 3c 78 42 67 3e 80 6d d5 3d 20 ca da bd
       0.01820308 0.2258395 0.10421276 -0.106830835
000040 e2 ea 74 3e 48 70 eb 3d 98 2e c9 bd 48 9b 3a 3e
       0.23917726 0.11496025 -0.0982334 0.18223298
000050 34 88 4d 3e ee 33 11 3e 98 57 c7 bd 68 17 1c 3e
       0.20071489 0.14179966 -0.09733504 0.15243304
000060 9e 2b 5a be 4e 51 25 3e 34 b8 62 be e2 54 74 3e
       -0.21305701 0.16144297 -0.2214058 0.23860505
000070 80 90 58 be 18 01 dc bd d8 57 a6 3d 14 15 a8 bd
       -0.21148872 -0.10742396 0.081222236 -0.08207145
000080 68 d0 fa bd dc b7 2b be f0 fb 98 bd e0 23 f4 bc
       -0.122467816 -0.16769356 -0.07469928 -0.029802263
000090 70 61 ee bc 04 ec 63 be 40 f8 db bb c0 a3 00 3d
       -0.029099196 -0.22258002 -0.0067129433 0.031406164
0000a0 40 82 c4 3d 80 01 b8 bd d0 44 cb 3d fa 75 60 be
       0.09595156 -0.08984661 0.09925234 -0.21920004
0000b0 a0 39 b3 3c c6 a6 04 3e 48 86 6f bd 08 22 3d bd
       0.021878064 0.12954244 -0.05847767 -0.046175033
0000c0 a0 84 2c bc a0 97 88 bd e8 89 fb 3d da 9a 6f be
       -0.010529667 -0.06669545 0.12282163 -0.23398915
0000d0 44 c8 d8 3d 00 78 32 39 b8 ca f3 bd e0 6c 06 3c
       0.10585073 0.00017020106 -0.119039 0.008204669
0000e0 c4 82 7e 3e a8 84 8d 3d 20 68 65 be 50 20 fe 3c
       0.2485457 0.06910068 -0.22403002 0.031021267
0000f0 c0 3d 09 3c 40 e2 04 bd f2 50 3e 3e 28 c7 11 bd
       0.008376539 -0.03244233 0.18585566 -0.03559032

bias f4 [4]
000000 dc 62 cd 3d c0 7e 62 bd 28 cb 00 be 74 49 6f be
       0.100286216 -0.05529666 -0.12577498 -0.23367864

weight f4 [32, 10, 3]
000000 39 be c7 3d 7a f8 03 3e 6f 3d 2a 3e c9 6a 7e 39
       0.09753079 0.12887755 0.16624998 0.00024263108
000010 9f f4 7c be 6f 15 3a 3e 53 ab 06 3d f7 22 73 3e
       -0.2470269 0.18172239 0.03287823 0.23743807
000020 eb b9 26 be 1c 9a ff bd ea 86 02 3e 3c e3 13 3e
       -0.1628186 -0.12480566 0.12746778 0.14442152
000030 f1 5f 89 bd ad 50 0d bf f2 e0 3a 3e 8f 20 23 3c
       -0.067077525 -0.55201226 0.18249872 0.009956493
000040 74 3c b8 be c3 1e 21 be ac cf 2c be eb e6 52 be
       -0.35983622 -0.15734391 -0.16876096 -0.205959
000050 76 c5 ab 3d 34 85 0e 3e ef b4 63 bc c2 52 12 3e
       0.08387272 0.13918 -0.013898118 0.14289382
000060 f8 ac 91 3d 2f b3 29 3e f9 c5 d5 bc 2a fb f3 bd
       0.07113069 0.1657226 -0.026095377 -0.1191314
000070 b4 85 fb 3c e2 fd d4 3d c6 5d c5 bd 3c 61 3b 3c
       0.030703403 0.10399987 -0.096370265 0.011436757
000080 d2 ac 0a 3b ca cf cf 3c cc 86 90 bd c3 c8 b0 bd
       0.0021160138 0.025367636 -0.070569605 -0.08632042
000090 c8 7e 9a bd 99 17 d4 bc 23 eb 6a bd 03 3d 0b 3e
       -0.07543713 -0.025890158 -0.05735315 0.13597493
0000a0 f6 05 98 3e 75 51 64 3d e2 24 11 3e 25 78 6a be
       0.29692048 0.055741746 0.14174226 -0.22897394
0000b0 89 c5 66 3d c7 f9 0b 3e 01 46 ea be a7 4e 2f 3d
       0.056340728 0.13669501 -0.45756534 0.042799618
0000c0 a5 40 e6 bd 3d 8e 8d bd a7 3b 11 be 31 e8 d1 3d
       -0.11242799 -0.069118954 -0.14182912 0.10249365
0000d0 e8 d0 bc be 0f 6d 2d be 21 88 b6 3d e7 df 72 bd
       -0.36878133 -0.16936134 0.08912683 -0.05929556
0000e0 c3 c3 2c 3e cb ff 30 3e 1c 0f 56 bc e2 31 f5 3d
       0.16871552 0.17285077 -0.013065126 0.11972405
0000f0 7f de a1 3a bd 7c 78 3c cd c2 2e be 29 0e 7d 3d
       0.0012349634 0.015166459 -0.17066498 0.061781082
000100 8b 7b 8b be 19 a3 d4 bd a5 b5 27 3d 2d 7b 90 3c
       -0.27242693 -0.10382671 0.040944714 0.01763686
000110 e0 71 d5 3d 21 bb 34 3e 45 8f 65 3e de de 58 bd
       0.104221106 0.17649509 0.22417934 -0.052946918
000120 6c 29 2f 3e d4 cd b2 be 8d bd 15 be 7c 48 83 3c
       0.17105645 -0.3492266 -0.14623089 0.016025774
000130 7a 61 e6 be 58 e1 87 bd e4 dc 1e 3e e9 03 80 be
       -0.44996244 -0.06634778 0.1551395 -0.25002983
000140 5e 51 e4 bd 0b 81 93 3c 3d 2c 01 bd 48 1c 32 3d
       -0.11148332 0.018005868 -0.03153633 0.043484002
000150 48 4e df 3d 5e 54 5d bd 4d 92 11 3e 65 a9 42 bd
       0.10903603 -0.054035537 0.14215966 -0.04752483
000160 d0 e4 30 be d3 75 af bd 48 ea 8e bd f6 55 2d bb
       -0.17274785 -0.08567395 -0.06978279 -0.0026448942
000170 82 56 2b 3e ef 15 8a bd b5 f5 4a be 3f 64 db 3d
       0.16732219 -0.06742465 -0.19820292 0.1071248
000180 c9 7f 72 3d a7 e1 71 be 45 e9 f6 3d 37 c2 5f bd
       0.059203897 -0.23621236 0.120562114 -0.054628577
000190 0b da 41 be 75 a5 ac 3d fb 61 c4 3d c5 47 f5 bd
       -0.18930833 0.08429996 0.09589001 -0.119765796
0001a0 a3 46 fb 3c 98 b5 fb bd 1a e4 7f bd e8 20 01 3e
       0.03067333 -0.12290496 -0.062473394 0.12610209
0001b0 41 53 06 bd 1a b5 3f be 41 b0 36 3e 95 69 1c 3e
       -0.03279424 -0.18721429 0.17840673 0.15274651
0001c0 8c e6 df bd 1e aa 20 3e 80 7d 2f 3e db e5 23 3c
       -0.10932645 0.15689895 0.17137718 0.010003532
0001d0 0e 94 ec 3c a9 3f 05 bd 0d e2 d5 39 ad 07 33 3e
       0.028879192 -0.032531414 0.00040794947 0.17483397
0001e0 37 e7 f5 bc c8 f2 bb bd b3 53 b8 3d 11 e0 3b bc
       -0.030017478 -0.09177166 0.09000339 -0.011466996
0001f0 bc 7d a8 3c 95 ef 29 be ab 3e 33 be 1a d1 87 bd
       0.020567767 -0.165953 -0.17504375 -0.0663168
000200 c4 e3 c0 3d 7b f4 95 3d 04 54 84 be 76 ca 35 be
       0.09418443 0.073220216 -0.2584535 -0.17753014
000210 ba f8 a0 bc 9f 02 0f be 4f fe 9d bd 5f 12 35 3e
       -0.019649852 -0.13965844 -0.07714521 0.1768279
000220 0c f8 15 be d0 3b 97 3c 96 4e f3 bd a8 6f 85 3d
       -0.14645404 0.018461138 -0.118802235 0.06515437
000230 42 e4 99 3d ff 98 a2 bc bd 8e 31 bd ef 26 11 be
       0.0751424 -0.019848345 -0.043349016 -0.14175008
000240 f7 21 18 3e 2a b7 c7 3c 2d cb ea 3d fd 17 0e 3e
       0.14856707 0.024379332 0.11464534 0.13876338
000250 2e 21 53 bc fe fa be 3d 36 7b e4 3d fc 98 14 be
       -0.012886329 0.09325217 0.11156313 -0.14511484
000260 54 f7 ba bc b8 2f b0 bc 6d c2 8c 3d c1 0b 46 3c
       -0.022823013 -0.02150713 0.06873021 0.012087763
000270 6e 1c 26 3e b8 03 2c be 47 11 16 be f7 1b da bd
       0.16221783 -0.16798294 -0.14655028 -0.10649865
000280 f3 6a f2 3d 46 1b 2b 3e 69 9d 09 be 57 dc 95 3d
       0.11836805 0.16709623 -0.13438953 0.07317417
000290 93 d3 7c bd eb ff e0 bd 4b f1 bc be e8 9e 97 3d
       -0.06172521 -0.109863125 -0.36902842 0.07403356
0002a0 f4 12 61 bc d4 31 09 bc e9 a0 20 bc 1f ab 2f be
       -0.013737429 -0.008373696 -0.009803989 -0.17155121
0002b0 82 0e 4c be 9a 5b 6e 3d 72 07 24 3d 00 65 93 be
       -0.1992741 0.058192827 0.040046163 -0.28787994
0002c0 75 57 07 3e 2b 53 43 3d d8 a6 9f 3b 1b 5e 03 be
       0.13216956 0.047686737 0.0048721842 -0.12828867
0002d0 b3 cf 86 bd 9f b8 22 ba 2c 7c 17 bd 7b 74 a2 bc
       -0.06582584 -0.000620732 -0.036983654 -0.019830933
0002e0 3a c0 a3 bc cd 46 9a 3d 5a 6d 2a be ff 27 27 be
       -0.019989122 0.075330354 -0.16643277 -0.16323851
0002f0 09 b6 ac 3d 2b 71 55 bd 9a 69 42 bc 55 45 da bc
       0.08433158 -0.05210988 -0.011865998 -0.026644388
000300 02 21 00 be d6 ca 9a be 1b 44 ab bd bf 17 98 3d
       -0.12512591 -0.30232877 -0.083625995 0.07426404
000310 95 b4 30 be 15 49 2b 3e c8 c0 88 3d 79 1f 93 bd
       -0.17256387 0.16727097 0.06677395 -0.07183737
000320 c1 c7 0b be c1 f6 d8 bd ee a0 53 bd 50 6f b7 3c
       -0.13650419 -0.105939396 -0.051667146 0.022391945
000330 ae 8b f3 bd 75 16 75 bd 5b a6 f2 3c f2 82 0f 3d
       -0.11891876 -0.05983587 0.02962034 0.03503699
000340 24 b9 33 be 29 f8 06 be 98 cd 05 be c8 00 1e be
       -0.17551094 -0.13180603 -0.13066709 -0.15429986
000350 c4 18 f5 3d 83 f0 23 3d a8 0c 06 be 87 4f e3 3d
       0.11967614 0.04002429 -0.13090765 0.11099153
000360 15 35 76 3d 83 8a 89 bd 06 87 90 bd fe 35 b9 bd
       0.060109217 -0.06715872 -0.07057004 -0.09043501
000370 a0 03 14 3e 18 5d 22 be 67 42 95 bb 4b 44 1f be
       0.14454508 -0.15855825 -0.004555035 -0.15553395
000380 41 16 35 3d 28 49 21 be e8 ce 61 3d 93 9b 9a 3c
       0.044210676 -0.15750563 0.05512896 0.018873012
000390 52 2e ce bd c5 7b e2 bc bf bb bf 3d f8 3c 3f 3d
       -0.10067429 -0.027646909 0.093619816 0.046689004
0003a0 8c d1 00 be ff b8 20 3e 6c e8 0b 3e ec 48 42 3c
       -0.12579936 0.1569557 0.1366288 0.011858206
0003b0 50 fc 32 3e d1 32 58 bd 80 59 82 bc b3 7c 2f 3e
       0.17479062 -0.052782837 -0.015911818 0.17137413
0003c0 8b 36 2d 3d eb db da bd e0 b5 a8 bd b0 b0 31 be
       0.042288344 -0.10686477 -0.08237815 -0.17352557
0003d0 18 33 d2 bd 3c d6 d6 bd 92 b5 16 3e c5 cd 82 3d
       -0.102636516 -0.10490081 0.14717701 0.06386904
0003e0 5e 1e 91 bd c1 2e 47 3d 5d 3a 04 be e6 1c 1a be
       -0.0708587 0.048628572 -0.12912889 -0.15050086
0003f0 5f c9 cd 3d e5 e9 08 be 28 bb 0f be ca a6 b6 bd
       0.10048174 -0.13370474 -0.14036238 -0.08918531

bias f4 [32]
000000 6d 18 10 be 70 67 48 be 0a 2f 9f be 78 24 b3 be
       -0.14071818 -0.19570708 -0.31090575 -0.3498876
000010 8e 14 9b bd a2 84 0f be 38 7a a2 be 12 95 06 3e
       -0.0757228 -0.14015439 -0.3173387 0.13142803
000020 8c 3b e1 3d 2a 0e 06 bd 0c cd 28 3e dc 3c 92 be
       0.10997686 -0.03272835 0.16484469 -0.28562057
000030 18 f6 22 be 9e 4a 60 bd a3 df 8e bd 76 6c 9a 3e
       -0.1591419 -0.05475866 -0.06976249 0.30160874
000040 2d 24 70 be 81 e5 51 be 6c 41 4b be ff 3a 56 be
       -0.234513 -0.20497705 -0.19849175 -0.20920943
000050 66 cc d0 3d 63 ee af 3c 31 11 7c 3d 01 a7 bf be
       0.10195236 0.021475976 0.061539833 -0.374321
000060 d6 1a 08 bd e7 1e be be d5 de 33 3d 50 c7 be bd
       -0.033228718 -0.37132952 0.04391368 -0.093153596
000070 3f d4 5a be b8 45 10 bb a2 c2 5b be 8b c9 8c be
       -0.21370028 -0.0022014212 -0.21460965 -0.27497515
