matrix/result/0906/save/inverse_det_mul_conv.pt (torch, 71143 bytes, 18 tensors)

weight f4 [4, 16]
0	0x3e53543e	0.20637605
1	0xbebfc3a4	-0.3745395
2	0x3d8ea2de	0.06964658
3	0xbc9b337b	-0.018945446
4	0xbe6d681a	-0.23184243
5	0x3e429938	0.19003761
6	0xbde40876	-0.11134426
7	0xbe07d46c	-0.13264626
8	0x3e7dd388	0.24787724
9	0x3d4faaad	0.05069988
10	0x3ebd6ecb	0.3699859
11	0xbea7f964	-0.32807457
12	0xbdd4d01b	-0.103912555
13	0x3de1dde9	0.11028654
14	0x3e065fb2	0.13122442
15	0x3ec7ec59	0.39047506
16	0x3ec6902a	0.38781863
17	0xbd544324	-0.051821843
18	0x3f059c21	0.5219136
19	0x3c207895	0.009794374
20	0x3e4a5e9c	0.19762653
21	0xbe1f22a9	-0.15540566
22	0xbcd9d86b	-0.026592454
23	0xbe286320	-0.16444063
24	0xbdee121c	-0.11624548
25	0xbe361810	-0.17782617
26	0xbe426bf4	-0.18986493
27	0x3df87f22	0.12133624
28	0xbc97127c	-0.018441431
29	0xbdecfce0	-0.115716696
30	0x3ec6371c	0.3871392
31	0xbd3dc499	-0.04633007
32	0x3ec4d788	0.38445687
33	0x3d041dd5	0.032255013
34	0xbcaeb6bc	-0.021327369
35	0xbe9715df	-0.29508874
36	0xbc35a236	-0.011086037
37	0x3d9a571d	0.07536147
38	0xbde73b0c	-0.11290559
39	0xbde7ffec	-0.1132811
40	0x3eced452	0.40396363
41	0x3dc55569	0.09635431
42	0xbbec66b1	-0.00721439
43	0x3f022f9d	0.508539
44	0x3e22598b	0.1585447
45	0xbdb62a0c	-0.088947386
46	0xbec7de1f	-0.39036652
47	0xbba6f0c5	-0.00509462
48	0x3d9aadcf	0.075526826
49	0xbea7e208	-0.32789636
50	0x3d392c9b	0.045208555
51	0x3c193a03	0.00935221
52	0x3d332b33	0.04374237
53	0x3e3a7dc9	0.18212046
54	0x3f15caf2	0.58512795
55	0xbe80560e	-0.25065655
56	0x3d2baca1	0.04191268
57	0xbe580151	-0.21094252
58	0x3eccaf63	0.3997756
59	0x3e7de7bb	0.2479543
60	0x3e1628d6	0.14664015
61	0x3dbe03ea	0.0927809
62	0x3e125402	0.14289859
63	0xbe5bca4b	-0.21463887

bias f4 [4]
0	0x3fd2dadd	1.6473042
1	0x400ffad7	2.249685
2	0x400fc11c	2.2461615
3	0x400763c5	2.1154644

weight f4 [32, 16]
0	0x3e467a04	0.19382483
1	0x3cba32c0	0.022729278
2	0xbdb95aec	-0.09050545
3	0x3dccc2ec	0.09998116
4	0x3e4fd57a	0.20296279
5	0x3e34017e	0.17578694
6	0xbd50b230	-0.050951183
7	0xbdb4803c	-0.08813521
8	0xbddb9b3c	-0.10722968
9	0xbd6172a8	-0.055040985
10	0x3c46ffc0	0.0121459365
11	0x3e2453ce	0.16047594
12	0xbd237ba0	-0.03991282
13	0xbe7811cc	-0.24225539
14	0xbe72e5ae	-0.23720428
15	0xbe5b7076	-0.21429619
16	0x3e537ea2	0.20653775
17	0x3cdaa160	0.026688278
18	0xbd8b8cdc	-0.06813976
19	0xbe4a70e0	-0.19769621
20	0x3e670064	0.22558743
21	0x3c273940	0.010206521
22	0x3db04248	0.08606392
23	0xbdc07abc	-0.0939841
24	0x3d812cb0	0.063073516
25	0x3cef84b0	0.029238075
26	0xbc27b6a0	-0.010236412
27	0x3dfe55b0	0.12418687
28	0xbe754878	-0.23953426
29	0xbe3b0a5a	-0.18265668
30	0x3d0f1eb8	0.034941405
31	0xbd155fc0	-0.036468267
32	0xbe62a36a	-0.2213265
33	0x3e4568e4	0.19278294
34	0xbe5a783e	-0.21334931
35	0xbe232b58	-0.15934503
36	0xbddbdf90	-0.107360005
37	0x3c231860	0.009954542
38	0x3c85e500	0.016344547
39	0x3dcc5970	0.09977996
40	0x3dc39d38	0.095514715
41	0xbbc97e00	-0.0061490536
42	0x3e0b7984	0.13620573
43	0x3e1842d4	0.14869243
44	0x3e494ed4	0.19658977
45	0xbe07c922	-0.1326032
46	0xbddb4834	-0.10707131
47	0xbdcf2578	-0.101145685
48	0x3e29e07a	0.16589537
49	0xbe0ea690	-0.13930726
50	0xbe5a28f4	-0.21304685
51	0xbdf7e458	-0.121041
52	0xbe0aa334	-0.1353882
53	0x3cf9eba0	0.030507863
54	0xbe2e83ac	-0.17042416
55	0x3e204754	0.1565221
56	0xbd9fa56c	-0.077952236
57	0xbe40ad7c	-0.18816179
58	0x3d80c5d8	0.06287736
59	0x3e3d2926	0.18472728
60	0x3e19ae68	0.15007937
61	0xbe50ce7c	-0.20391268
62	0xbe315650	-0.17318082
63	0xbd2e3658	-0.042532295
64	0xbe678340	-0.22608662
65	0x3dcabdec	0.09899506
66	0xbe45c684	-0.19314009
67	0x3e18513c	0.14874738
68	0xbd56eae0	-0.052470088
69	0x3cc80c10	0.024419814
70	0xbc52afe0	-0.012859315
71	0xbe558e4a	-0.2085506
72	0xba451e00	-0.0007519424
73	0x3e07e514	0.1327098
74	0xbe184210	-0.14868951
75	0xbcb29870	-0.021801203
76	0xbcd21320	-0.025643885
77	0x3e26bad8	0.16282213
78	0xbdb46814	-0.08808914
79	0xbe33b416	-0.17549166
80	0x3d54c320	0.0519439
81	0xbe1e8198	-0.15479124
82	0xbe20a55a	-0.15688077
83	0xbce9d290	-0.028542787
84	0x3e551b34	0.20811158
85	0xbdbf44c8	-0.09339291
86	0x3d7dc620	0.061956525
87	0xbc234700	-0.009965658
88	0x3c727880	0.014799237
89	0xbe3e04d4	-0.1855653
90	0xbe36b31e	-0.17841765
91	0xbc269780	-0.010167956
92	0xbe361780	-0.17782402
93	0x3dfa7b4c	0.12230548
94	0xbc3eea20	-0.011652499
95	0x3c9a45f0	0.018832177
96	0x3b9cf780	0.0047902465
97	0xbe5a7fbe	-0.21337792
98	0x3d227f68	0.039672285
99	0xbe241214	-0.16022521
100	0x3e1e9b50	0.15488935
101	0xbd95c834	-0.07313576
102	0xbda6348c	-0.08115491
103	0x3df8efa4	0.12155083
104	0xbdd06200	-0.10174942
105	0x3e4ba69a	0.19887772
106	0xbdaf398c	-0.08555898
107	0xbe3031b8	-0.17206466
108	0x3e0b08e2	0.13577607
109	0xbe608d94	-0.21929008
110	0xbe17455e	-0.14772555
111	0xbcdabf70	-0.026702613
112	0x3d27d6c8	0.040976316
113	0x3e46254e	0.19350168
114	0xbe17f076	-0.14837822
115	0xbd99e524	-0.07514408
116	0xbe5e15f4	-0.21688062
117	0x3e5b0f70	0.21392608
118	0x3e4ba21a	0.19886056
119	0x3e54884e	0.20755121
120	0x3d9ba118	0.075990856
121	0xbe4786e0	-0.19485044
122	0xbe09e1fe	-0.13465115
123	0xbe4cf2c2	-0.2001448
124	0x3e568782	0.2095013
125	0x3d647c58	0.055782646
126	0x3d850e84	0.06496909
127	0x3e7aac34	0.24479753
128	0xbcaaa060	-0.020828426
129	0x3c81f880	0.015865564
130	0x3e6cfcf6	0.23143372
131	0xbdb5d9f0	-0.08879459
132	0xbe206a4e	-0.15665552
133	0x3e766996	0.24063715
134	0x3e1d5ad4	0.1536668
135	0xbe732e30	-0.23748088
136	0x3ddf44d8	0.10901803
137	0x3d43e220	0.04782307
138	0x3cc3ea60	0.02391547
139	0xbe19e6b6	-0.15029415
140	0xbe6ae21e	-0.2293782
141	0x3d4788e8	0.04871455
142	0x3e100470	0.14064193
143	0xbd803404	-0.06259921
144	0x3dc09504	0.094034225
145	0xbe1850f6	-0.14874634
146	0x3e32f41e	0.17475936
147	0x3d652438	0.055942744
148	0xbc322720	-0.010873586
149	0x3e717f5a	0.23583737
150	0x3e30c7d4	0.17263728
151	0x3d0dc178	0.034608334
152	0x3e715672	0.23568133
153	0x3d823210	0.06357205
154	0x3d154690	0.036444247
155	0xbe48b46c	-0.19600075
156	0x3c921fc0	0.017837405
157	0xbe317076	-0.17328057
158	0xbe448f44	-0.19195276
159	0xbe46ea48	-0.19425309
160	0x3c9eadc0	0.01936996
161	0x3e7fd9a4	0.24985367
162	0x3e2831b6	0.16425213
163	0xbd23d9f8	-0.040002793
164	0x3e746396	0.23866114
165	0x3e3b7194	0.18305045
166	0x3e2eac72	0.1705797
167	0xbd137310	-0.035998404
168	0xbdbfe8bc	-0.093705624
169	0x3c9ebff0	0.019378632
170	0x3db90970	0.09035003
171	0x3e18d1ac	0.14923733
172	0xba747400	-0.00093251467
173	0x3e782508	0.24232876
174	0xbe60b0f0	-0.21942496
175	0x3db13f78	0.08654684
176	0xbdd91ef0	-0.10601604
177	0x3d5062c0	0.050875425
178	0xbd1cdae8	-0.038294703
179	0x3e136c48	0.14396775
180	0xbe406f36	-0.18792424
181	0xbde64b04	-0.11244777
182	0x3e057824	0.13034111
183	0x3e5eb912	0.21750286
184	0xbe5d3cf8	-0.21605289
185	0x3e6069b8	0.21915329
186	0xbe7f1032	-0.24908522
187	0xbd7f5528	-0.06233707
188	0x3ddfb6c0	0.10923529
189	0x3bd4ca80	0.0064938664
190	0x3e599ab4	0.21250421
191	0xbd11bb80	-0.035579205
192	0xbd9db114	-0.076997906
193	0xbe195b9c	-0.14976352
194	0xbd9c3f88	-0.07629305
195	0xbe1ac9f2	-0.15116099
196	0xbd8eff1c	-0.06982252
197	0x3c9a9480	0.018869638
198	0xbe1f5678	-0.15560329
199	0x3e6f08ea	0.23343244
200	0x3d757ab8	0.059931487
201	0xbe243164	-0.16034466
202	0x3dd3a620	0.1033442
203	0x3e4a7534	0.19771272
204	0xbe304b00	-0.1721611
205	0x3e317f92	0.1733382
206	0xbd3d2480	-0.046177387
207	0x3e5cdaa0	0.21567774
208	0xbe50a474	-0.20375234
209	0xbe0e25f8	-0.13881671
210	0xbe0eaafa	-0.1393241
211	0x3ce46960	0.027882278
212	0xbcefdc20	-0.029279768
213	0xbe5f51ac	-0.21808499
214	0xbe523c06	-0.2053071
215	0xbdb4a2cc	-0.088201135
216	0x3ccdbc20	0.025114119
217	0x3e567a22	0.20945027
218	0xbd18dd10	-0.037320197
219	0xbdbc8934	-0.09205857
220	0xbdee9c6c	-0.11650929
221	0xbe0e3122	-0.1388593
222	0xbd906d90	-0.070521474
223	0xbd94b088	-0.07260233
224	0x3c9fc190	0.019501477
225	0xbd9c4140	-0.07629633
226	0xbdcada48	-0.09904915
227	0xbe781cc6	-0.24229726
228	0x3e046d02	0.12932208
229	0x3c73f920	0.014890939
230	0x3ca50960	0.020146072
231	0x3e0c8f36	0.13726506
232	0xbda2665c	-0.0792968
233	0xbe5f4946	-0.21805295
234	0xbe52ef58	-0.20599115
235	0x3e4e9104	0.20172507
236	0xbca14e60	-0.019690692
237	0x3de1e1e8	0.11029416
238	0x3e54b8ac	0.20773572
239	0x3d9f618c	0.077822775
240	0x3e2a6c22	0.16642812
241	0x3d310a20	0.043222547
242	0xbe5edb3a	-0.21763316
243	0xbc0c7dc0	-0.008574903
244	0xbda29490	-0.07938492
245	0x3d7c2e78	0.061567754
246	0x3dc08610	0.094005704
247	0x3cfa4280	0.030549288
248	0x3d4af170	0.04954666
249	0xbdaf5138	-0.08560413
250	0xbdf0dc48	-0.11760765
251	0x3e7f19e0	0.24912214
252	0x3e1766d4	0.1478532
253	0xbe7572b6	-0.2396954
254	0xbe182b86	-0.14860353
255	0xbd4e3328	-0.050341755

bias f4 [32]
0	0x3da350dc	0.07974407
1	0xbe7160b4	-0.23572046
2	0x3d9380ec	0.07202324
3	0x3e262266	0.1622406
4	0x3d0de198	0.03463897
5	0xbdd5564c	-0.104168504
6	0xbe48a5f2	-0.19594553
7	0x3e04a2a0	0.12952662
8	0x3dcf3968	0.10118371
9	0xbdd92bd0	-0.1060406
10	0xbe279dfc	-0.1636886
11	0x3c2a1140	0.010380089
12	0x3e765a30	0.24057841
13	0xbce82560	-0.028338134
14	0x3e70dc4a	0.23521534
15	0xbe04022e	-0.12891456
16	0xbd5d0b60	-0.053965926
17	0xbe30dc10	-0.17271447
18	0x3c231900	0.009954691
19	0x3e06ecdc	0.13176292
20	0x3e555ce8	0.20836222
21	0x3bcb4800	0.0062036514
22	0xbc57aac0	-0.013163269
23	0xbe2c3c1e	-0.16819808
24	0xbe2089a2	-0.15677503
25	0x3e352a54	0.17691928
26	0xbde431e8	-0.11142331
27	0x3e7d195c	0.24716705
28	0xbe02a32e	-0.1275756
29	0x3d924bd4	0.07143369
30	0x3e7b568a	0.24544731
31	0x3e01bab6	0.12668881

weight f4 [64, 32]
0	0xbdd2e6aa	-0.10297902
1	0xbc95c01a	-0.018280078
2	0x3e186527	0.14882337
3	0xbdc5ec25	-0.096641816
4	0xbda88a95	-0.082295574
5	0x3dbcda70	0.09221351
6	0xbdad496d	-0.084612705
7	0x3da7d0b1	0.081941016
8	0xbcd74ce5	-0.026281783
9	0xbcba9965	-0.022778222
10	0x3dee35d9	0.116313644
11	0xbd2f5789	-0.04280809
12	0x3d6ff36d	0.05858176
13	0xbdd52300	-0.10407066
14	0x3ce85720	0.028361857
15	0xbd92d155	-0.07168833
16	0xbd8ec94d	-0.06971989
17	0x3c473a49	0.012159892
18	0x3e140809	0.1445619
19	0xbe24d2c5	-0.16096027
20	0xbc0666ee	-0.008203251
21	0xbe0a5f78	-0.13512981
22	0xbc3ffd67	-0.011718131
23	0x3e0a3960	0.1349845
24	0x3d83b92e	0.064318046
25	0xbdf3747b	-0.11887451
26	0xbdf4e862	-0.11958386
27	0x3dfd5572	0.12369813
28	0xbe02886f	-0.12747358
29	0xbd8e35ec	-0.069438785
30	0x3cbc4767	0.022983266
31	0x3e1c0969	0.15237965
32	0xbe12790e	-0.14303991
33	0x3db58320	0.08862901
34	0xbe1b106b	-0.15142982
35	0x3d8ddd2e	0.06926952
36	0x3c8284b2	0.015932415
37	0xbe1ce965	-0.15323408
38	0xbe19fd45	-0.15038021
39	0x3d464dfb	0.04841421
40	0x3df7a729	0.1209243
41	0x3e271e64	0.16320187
42	0x3dbbd3de	0.0917127
43	0xbe0c85bb	-0.13722889
44	0xbe27231a	-0.16321984
45	0xbd2d0f33	-0.042250823
46	0x3e0fd669	0.14046635
47	0x3e047e3d	0.12938781
48	0xbe20a4a1	-0.15687801
49	0xbdeb907c	-0.115021676
50	0x3d55c59f	0.05219042
51	0xbd41c9f3	-0.047311734
52	0xbe05e504	-0.13075644
53	0xbdfdab4b	-0.12386187
54	0xbe2c3cbe	-0.16820046
55	0x3e15713d	0.14593978
56	0xbbdeb605	-0.0067966008
57	0xbe110b81	-0.14164545
58	0x3e102c32	0.14079359
59	0xbda2b48b	-0.07944592
60	0xbdff2f90	-0.12460244
61	0x3e1d8c45	0.1538554
62	0x3dd24d36	0.10268633
63	0x3d301538	0.042988986
64	0x3de6fae9	0.11278326
65	0x3e1139da	0.14182225
66	0xbe21e58a	-0.15810218
67	0xbcf31e91	-0.029677661
68	0xbdcc446a	-0.099739864
69	0x3e09683c	0.13418669
70	0xbc7f9e94	-0.015601773
71	0x3e19f9b0	0.15036654
72	0xbbf1e3d1	-0.007381894
73	0xbe20d702	-0.15707019
74	0xbcfd7e75	-0.030944088
75	0x3d490e5e	0.049085967
76	0x3dc51b4e	0.096243486
77	0xbd823744	-0.06358197
78	0x3d1e3a2b	0.038629692
79	0x3e1113cb	0.14167707
80	0x3d611b3c	0.054957613
81	0xbdd4c1f0	-0.10388553
82	0xbdec2634	-0.11530724
83	0x3ce90644	0.02844537
84	0x3d9c7ab1	0.07640589
85	0x3dfd1ce6	0.123590276
86	0xbdc30f8f	-0.09524452
87	0x3c14e563	0.009087893
88	0x3e02e141	0.1278124
89	0xbe04afbb	-0.12957661
90	0x3da520d8	0.08062905
91	0x3dc631dc	0.09677479
92	0x3db106d1	0.08643878
93	0xbd5a6524	-0.05331911
94	0x3d8e645c	0.06952736
95	0x3c2a4100	0.010391474
96	0xbe163c35	-0.14671405
97	0x3e1a9a8a	0.15098014
98	0x3db65079	0.08902068
99	0xbadf5f04	-0.0017041867
100	0xbe007811	-0.12545802
101	0x3dbfffeb	0.09374984
102	0x3dc0a3c5	0.094062366
103	0x3e2ffd7b	0.17186539
104	0xbd970f76	-0.07375996
105	0x3e01a2f1	0.12659813
106	0xbe24e2de	-0.16102168
107	0xbd9d0b02	-0.07668115
108	0xbe1c035a	-0.15235654
109	0x3cc98738	0.02460061
110	0x3d23b440	0.03996682
111	0x3d916c3e	0.07100724
112	0xbd94fbb4	-0.07274571
113	0xbdeecb42	-0.11659862
114	0x3de635b1	0.112407096
115	0x3ca6e5e9	0.020373302
116	0x3dd0c55d	0.10193894
117	0x3e24511c	0.16046566
118	0x3b43a131	0.0029850716
119	0xbcba1c04	-0.022718437
120	0x3e0c70b6	0.13714871
121	0xbd6c3d08	-0.05767539
122	0xbdc1eb83	-0.094687484
123	0xbdf8f9d5	-0.12157027
124	0xbda90087	-0.08252054
125	0xbdb4f526	-0.08835821
126	0x3def2b97	0.11678236
127	0xbdbe3d4b	-0.092890345
128	0xbcd1b33d	-0.025598163
129	0xbd6c1c92	-0.057644434
130	0x3d4c1123	0.04982103
131	0x3db7a330	0.089666724
132	0xbd65bce6	-0.05608835
133	0x3e2c6e65	0.16838987
134	0x3dc37a7d	0.09544847
135	0xbe1b4be3	-0.15165667
136	0x3df2e04f	0.1185919
137	0x3dd7a6be	0.105298504
138	0x3e116bd1	0.14201285
139	0x3d1676f5	0.03673454
140	0x3cdaa747	0.026691092
141	0xbd5c3c95	-0.053768713
142	0xbbe1a442	-0.006886036
143	0xbd93658c	-0.07197103
144	0xbdfe33cf	-0.124122255
145	0x3dd8832f	0.10571896
146	0x3c2f55fd	0.010701654
147	0x3c2aade5	0.010417436
148	0xba9d508f	-0.0012002158
149	0xbd04a816	-0.03238686
150	0x3e045ad4	0.12925273
151	0xbdb2e409	-0.087349005
152	0xbdaecfb2	-0.085357085
153	0x3e218d57	0.15776573
154	0x3cdbd9db	0.02683728
155	0xbd8f6896	-0.0700237
156	0x3e150014	0.14550811
157	0xbe1d3ca2	-0.15355161
158	0x3e0bbc46	0.1364604
159	0x3d806146	0.062685534
160	0x3d5f59cd	0.054529
161	0xbda32fec	-0.07968125
162	0xbe186027	-0.14880429
163	0xbdc221b8	-0.094790876
164	0xbe2e24d7	-0.17006241
165	0xbc606d38	-0.013697915
166	0xbdf74b8e	-0.12074958
167	0xbcf3bd2e	-0.029753294
168	0xbe042686	-0.1290532
169	0xbd42ff21	-0.04760659
170	0x3de155b7	0.11002677
171	0x3e25c10d	0.16186924
172	0xbd80ae20	-0.06283212
173	0x3d6003af	0.054691013
174	0x3da5ffae	0.08105408
175	0x3d85cd7a	0.06533332
176	0xbe203b90	-0.15647721
177	0x3d99a679	0.07502455
178	0x3d0d52eb	0.034502905
179	0xbdfb7013	-0.12277236
180	0xbded12aa	-0.115758255
181	0xbe16902b	-0.14703433
182	0xbe2e82f5	-0.17042144
183	0x3e1bc81d	0.15213056
184	0xbd9d5e72	-0.0768403
185	0x3e231c68	0.15928805
186	0x3d80d87f	0.06291293
187	0xbe0a2aa3	-0.13492827
188	0x3e1b6acf	0.15177463
189	0xbd36bbd2	-0.044612713
190	0xbde1a4e1	-0.11017776
191	0x3d6ec666	0.058294676
192	0xbd327bce	-0.0435751
193	0x3e23f02b	0.16009586
194	0xbddc6b3b	-0.1076264
195	0xbd5ede1a	-0.05441103
196	0xbe189595	-0.14900811
197	0xbd2edc74	-0.04269071
198	0x3db1d13a	0.08682485
199	0xbe0dc51b	-0.13844721
200	0xbdf3c88f	-0.11903488
201	0xbbe96c01	-0.007123471
202	0x3df641ed	0.12024293
203	0xbde80977	-0.1132993
204	0xbe0c6d3a	-0.13713542
205	0xbd5c2d34	-0.053754047
206	0xbd9c320f	-0.076267354
207	0x3d901790	0.07035744
208	0xbd9ffd31	-0.07811964
209	0x3dc5da0f	0.09660732
210	0x3d856bdd	0.06514714
211	0x3d98161b	0.07426091
212	0xbd5359f4	-0.051599458
213	0x3e0539fb	0.13010399
214	0xbd370cf0	-0.044690073
215	0x3e1fb8bf	0.15597819
216	0x3d02c2e0	0.03192413
217	0xbe153ba3	-0.14573531
218	0x3c9ca713	0.019122636
219	0x3def4865	0.1168373
220	0x3e0f2f73	0.13982944
221	0xbd039938	-0.032128543
222	0xbaeab4fc	-0.0017906721
223	0x3dfe946e	0.124306545
224	0xbe25a6ae	-0.16176865
225	0xbe16ff09	-0.14745726
226	0xbdfbc276	-0.1229295
227	0x3cc7bc9d	0.02438193
228	0xbd9c3a83	-0.07628348
229	0x3db27b87	0.08714967
230	0xbdc3baab	-0.095570885
231	0x3dcfc0b1	0.10144175
232	0x3ce3af13	0.027793443
233	0xbd9a46f1	-0.07533062
234	0xbde8fc0c	-0.11376199
235	0x3e1ad8f0	0.15121818
236	0x3dd2bc45	0.10289816
237	0x3e061de2	0.13097337
238	0xbe1cd4a5	-0.15315492
239	0xbdf3ae35	-0.11898462
240	0xbd610a33	-0.054941367
241	0xbdd1711f	-0.10226654
242	0x3c01f4ee	0.007931931
243	0xbdcb0bd4	-0.099143654
244	0x3dde51b0	0.108554244
245	0x3d411ca4	0.047146454
246	0xbe2e52de	-0.17023799
247	0x3df4ca63	0.11952665
248	0xbd54ba6d	-0.051935602
249	0xbd0a6388	-0.033786327
250	0x3d95de7d	0.07317827
251	0xbe005feb	-0.1253659
252	0x3d78f810	0.060783446
253	0xbd9b1d2f	-0.07573926
254	0xbdc37d5f	-0.09545397
255	0xbd54f4bd	-0.051991213

bias f4 [64]
0	0xbde4e620	-0.11176705
1	0x3e21273e	0.15737626
2	0x3e2168b1	0.15762593
3	0x3d5b6391	0.05356175
4	0xbd0d0085	-0.034424324
5	0x3d843d00	0.06456947
6	0xbd69f32c	-0.057116672
7	0xbd1a5137	-0.03767511
8	0xb796f7a1	-1.7996705e-05
9	0x3de280fd	0.11059759
10	0x3e08cc93	0.13359289
11	0x3d601e2e	0.05471628
12	0xbdcee904	-0.10103038
13	0x3e301b98	0.17198026
14	0x3d534047	0.05157497
15	0xbdc3cb4c	-0.0956026
16	0x3cc4d369	0.02402659
17	0x3d1a9338	0.037738055
18	0xbe300b16	-0.17191729
19	0x3cac9fb3	0.021072244
20	0xbe262d57	-0.16228233
21	0x3e292acb	0.1652023
22	0x3d85b68b	0.06528958
23	0x3e223cd5	0.15843518
24	0xbd96887b	-0.0735025
25	0xbe1f15b8	-0.15535629
26	0x3e2b9ce6	0.16759071
27	0x3e04bcda	0.12962666
28	0x3b91ce0c	0.0044496115
29	0x3e19c253	0.15015535
30	0x3c837e9d	0.016051585
31	0xbc62a2d1	-0.013832764
32	0xbd115521	-0.035481576
33	0x3d6a9c5e	0.05727803
34	0xbdc390f3	-0.09549131
35	0xbdef94b5	-0.116982855
36	0xbc09fb2a	-0.008421699
37	0x3daac365	0.0833805
38	0x3e2b9c3c	0.16758817
39	0x3d8ae47a	0.0678186
40	0xbd0955b9	-0.033529017
41	0xbd8a0fc5	-0.06741289
42	0xbd850868	-0.06495744
43	0xbd91daaf	-0.07121789
44	0xbbae8931	-0.005326413
45	0x3e312ddf	0.17302655
46	0x3c75c0f8	0.014999621
47	0xbd1e9897	-0.03871974
48	0x3d940166	0.07226829
49	0xbde690a5	-0.112580575
50	0xbde3a8b9	-0.11116166
51	0x3e33b768	0.17550433
52	0x3e1ea3a5	0.15492113
53	0x3d7b702c	0.061386272
54	0x3da70d60	0.08156848
55	0xbd7eaf17	-0.062178697
56	0x3ca3d9e2	0.020001356
57	0xbddd1ee1	-0.10796905
58	0x3dc20b63	0.09474828
59	0xbda5fb2f	-0.0810455
60	0xba95a163	-0.0011415895
61	0xbdb24e2c	-0.08706316
62	0xbbeedb97	-0.0072893607
63	0x3dd4e858	0.103958786

weight f4 [32, 64]
0	0x3d8e99ce	0.0696293
1	0xbde9559a	-0.1139328
2	0x3d472028	0.04861465
3	0xbd3c2f18	-0.04594335
4	0x3d8e58a8	0.069505036
5	0x3c7993e0	0.01523301
6	0x3dbb9f06	0.09161191
7	0x3c5cffb0	0.013488695
8	0xbdac1752	-0.084028855
9	0xbdde5976	-0.10856907
10	0x3dfd4da0	0.123683214
11	0xbdb357a4	-0.087569505
12	0xbd8fbb14	-0.07018104
13	0x3d291f64	0.041289702
14	0x3df81530	0.12113416
15	0x3a842a00	0.0010083318
16	0x3dc0a640	0.0940671
17	0x3d86e09c	0.065858096
18	0xbdefe47a	-0.117135
19	0xbdf144d0	-0.11780703
20	0xbc006370	-0.007836208
21	0xbdd6a212	-0.10480131
22	0x3ce86a58	0.028371021
23	0x3d81eb66	0.06343727
24	0xbdf5d6f0	-0.12003887
25	0xbdc62288	-0.09674555
26	0xbd2c4f5c	-0.04206787
27	0xbd819786	-0.06327729
28	0x3d840ff6	0.06448357
29	0xbd24afe0	-0.04020679
30	0xbc619aa0	-0.013769776
31	0x3cd117d8	0.025524065
32	0xbb5c9f00	-0.0033664107
33	0x3d97abee	0.0740584
34	0x3d4c5ca4	0.049893036
35	0xbd0d418c	-0.03448634
36	0xbdfdf5f6	-0.12400429
37	0xbcb7f238	-0.022454366
38	0xbd3badc0	-0.045819998
39	0x3d3cb304	0.04606916
40	0x3d8147b4	0.063125044
41	0xbd3c3270	-0.04594654
42	0xbdd974a6	-0.10617952
43	0xbd2ca664	-0.04215087
44	0x3bc3b5a0	0.005972579
45	0x3cf0a668	0.029376224
46	0xbc3f51d0	-0.01167722
47	0xbd841498	-0.064492404
48	0xbd72b39c	-0.05925332
49	0x3ca88f60	0.020576179
50	0x3d85c3f8	0.06531519
51	0xbd8e94f8	-0.06962007
52	0x3dae12b0	0.08499658
53	0xbddb89ec	-0.10719666
54	0x3de99a34	0.11406365
55	0xbdece782	-0.11567594
56	0x3cce6898	0.025196359
57	0xbc9e3fe0	-0.019317567
58	0xbdf0f4c2	-0.11765434
59	0xbade2b80	-0.001695022
60	0x3de5c1ee	0.1121863
61	0xbd04dfa4	-0.032439843
62	0x3de89d92	0.11358179
63	0x3da8da9a	0.0824482
64	0xbd7cac24	-0.061687604
65	0x3ddb984e	0.10722409
66	0xbdc042e4	-0.093877584
67	0x3dbc609c	0.09198114
68	0xbd9df516	-0.07712762
69	0xbc445cb0	-0.011984989
70	0x3dd3ca0a	0.1034127
71	0x3d92300e	0.07138072
72	0x3deeda04	0.11662677
73	0x3d67e958	0.05661902
74	0xbd2935fc	-0.04131125
75	0xbdc2f53e	-0.095194325
76	0xbd2be454	-0.041965798
77	0x3cd48598	0.025942609
78	0x3dc5078e	0.096205816
79	0xbcddc4a8	-0.027071312
80	0x3dec3a20	0.11534524
81	0xbdd0dcec	-0.101983875
82	0xbdacc284	-0.084355384
83	0x3ce41e38	0.02784644
84	0xbcfe7748	-0.031062737
85	0xbd8b58e8	-0.06804067
86	0x3d519080	0.051163197
87	0x3b5a41c0	0.003330335
88	0xbdabeb3c	-0.08394477
89	0x3d24858c	0.040166423
90	0x3d12644c	0.03574018
91	0xbd595f50	-0.053069413
92	0x3c9a65f8	0.01884745
93	0xbcde0378	-0.027101263
94	0x3c57db70	0.013174877
95	0xbd652f0c	-0.05595307
96	0x3ccc21a8	0.024918392
97	0x3c94cd10	0.018164188
98	0x3d941264	0.0723007
99	0x3d360fa8	0.044448525
100	0x3c4f55d0	0.012654737
101	0xbd622b88	-0.055217296
102	0xbc29bdb0	-0.010360166
103	0x3dd2bfc4	0.10290483
104	0x3d95cdce	0.07314645
105	0xbca333f8	-0.019922242
106	0x3d3899a0	0.045068383
107	0x3b776a00	0.003775239
108	0x3dcc688c	0.09980878
109	0xbd4283e8	-0.047489077
110	0x3d14936c	0.036273405
111	0xbda8e710	-0.08247197
112	0xbc3b3c60	-0.011427969
113	0x3d96a43e	0.073555455
114	0x3d48ae4c	0.048994347
115	0xbb8f2220	-0.0043680817
116	0xbdb945fa	-0.0904655
117	0xbd85d2b8	-0.06534332
118	0x3d55f810	0.052238524
119	0x3c1633c0	0.009167612
120	0x3dd6926a	0.10477145
121	0xbc807e88	-0.015685335
122	0xbc92f328	-0.017938212
123	0x3df04bde	0.117332205
124	0xbc0a2550	-0.008431748
125	0x3c052c10	0.008128181
126	0x3dc701a4	0.0971711
127	0x3d0c2ff0	0.034225404
128	0x3ddb25a8	0.10700542
129	0xbcab0a90	-0.02087906
130	0xbc843bf0	-0.016141862
131	0x3db3cbc8	0.087791026
132	0x3dfee2a2	0.124455705
133	0xbd25ce3c	-0.040479884
134	0x3d6b7024	0.057479993
135	0x3d3d33b8	0.0461919
136	0xbd987a96	-0.074452564
137	0x3c23f340	0.010006726
138	0xbcc503c0	-0.02404964
139	0x3da788c6	0.08180384
140	0xbd9683c6	-0.073493525
141	0xbdf9d7e8	-0.12199384
142	0xbc025e60	-0.007957071
143	0x3dce8236	0.100834295
144	0xbd9b5ea0	-0.07586408
145	0x3d52b240	0.051439524
146	0x3cccc538	0.024996385
147	0x3be9cf80	0.0071353316
148	0xbd216ef4	-0.039412454
149	0xbdb90602	-0.09034349
150	0xbdf843e6	-0.121223256
151	0x3de45750	0.11149466
152	0xbd81e39a	-0.0634224
153	0x3df46ec2	0.11935188
154	0xb9d3ec00	-0.0004042089
155	0x3d8fbc2c	0.07018313
156	0xbd097ae8	-0.03356448
157	0xbdf6c81a	-0.12049885
158	0x3db53d48	0.08849579
159	0xbd4a98c0	-0.04946208
160	0xbda5f504	-0.08103374
161	0x3d4fd228	0.05073753
162	0xbbd2bb00	-0.0064309835
163	0xbdccae5a	-0.099941924
164	0x3d916ff0	0.071014285
165	0xbda99502	-0.08280374
166	0x3d348a94	0.04407747
167	0xbdd71860	-0.10502696
168	0xbdede124	-0.11615208
169	0x3d1b386c	0.037895605
170	0x3cd6e128	0.02623041
171	0x3dcff64a	0.10154398
172	0x3d61dd6c	0.055142805
173	0xbd3fd3f4	-0.046832994
174	0xba722f00	-0.0009238571
175	0xbcbd6ce0	-0.023123205
176	0xbd96e6d6	-0.07368247
177	0xbdef46b6	-0.11683409
178	0x3dae7146	0.08517699
179	0xbde5023a	-0.11182065
180	0xbdfcb802	-0.12339784
181	0xbd49d2d4	-0.049273327
182	0xbdee3874	-0.11631861
183	0x3d3811fc	0.044939026
184	0xbc280dd0	-0.010257199
185	0x3d7be284	0.06149532
186	0x3d4d46f0	0.05011648
187	0xbd846de6	-0.06466274
188	0xbd738de0	-0.059461474
189	0xbddaebfa	-0.1068954
190	0x3d640618	0.055669874
191	0xbb2c9900	-0.0026336312
192	0xbd7841a4	-0.060609475
193	0x3d60b5c8	0.05486086
194	0x3b3c9b80	0.0028779209
195	0x3de64cb6	0.112451
196	0x3cc60e70	0.024176806
197	0xbcfe9a00	-0.031079292
198	0x3db5218e	0.08844291
199	0x3da575f6	0.0807914
200	0x3dfd99f6	0.12382881
201	0x3de6d658	0.112713516
202	0xbdbbc5b2	-0.09168567
203	0xbce570e8	-0.02800794
204	0xbdb837ec	-0.08995041
205	0xbde54496	-0.11194722
206	0x3da559d6	0.080737755
207	0x3d54d11c	0.051957235
208	0xbc167fe0	-0.009185761
209	0xbdc6ea9a	-0.097127154
210	0xbdd75342	-0.10513927
211	0x3d42117c	0.047379956
212	0xbc7ae690	-0.015313759
213	0x3d2ebf04	0.042662635
214	0xbd7e9640	-0.06215501
215	0xbdba6f22	-0.09103228
216	0x3a957c00	0.0011404753
217	0x3db18b6c	0.08669171
218	0x3d74f91c	0.05980788
219	0xbdbcc4c4	-0.092172176
220	0x3da8671c	0.082227916
221	0x3db42206	0.08795552
222	0xbc4f6890	-0.012659207
223	0x3dd64c78	0.10463804
224	0x3bec1740	0.00720492
225	0xbda5bc4a	-0.08092554
226	0xbd8cd3d0	-0.068763375
227	0x3d979f14	0.074033886
228	0x3c8e9c58	0.017408535
229	0xbdd13c12	-0.10216536
230	0x3b907cc0	0.0044094026
231	0x3d66bc98	0.0563322
232	0xbdfb4bc8	-0.122703135
233	0x3d8108ac	0.06300482
234	0xbd601e9c	-0.05471669
235	0xbdd72414	-0.10504928
236	0x3dedef9a	0.11617966
237	0x3d5292b8	0.051409453
238	0xbd5dca6c	-0.054148123
239	0x3de8a722	0.11360003
240	0x3d47fce4	0.04882516
241	0xbd863296	-0.06552617
242	0xbd5aa854	-0.053383186
243	0x3daf0aa4	0.085469514
244	0xbd9bf5a0	-0.076152086
245	0xbde9b1da	-0.114108756
246	0xbdb0e602	-0.086376205
247	0xbdcca2e2	-0.09992005
248	0xbc29a4d0	-0.010354236
249	0x3df07ae8	0.117421925
250	0x3d912ae2	0.07088257
251	0xbd80a8ae	-0.06282173
252	0x3dcfcae4	0.1014612
253	0x3d2ca9d0	0.042154133
254	0xbcce9fb8	-0.025222644
255	0xbd9843c8	-0.07434803

bias f4 [32]
0	0x3cd63888	0.026150003
1	0x3d7d76c4	0.06188084
2	0xbde646de	-0.112439856
3	0xbc353f90	-0.011062518
4	0x3bd43940	0.0064765513
5	0x3dc3d3c2	0.09561874
6	0xbd1705c0	-0.036870718
7	0x3d59dc30	0.053188503
8	0x3bd08200	0.0063631535
9	0xbc028f20	-0.007968694
10	0x3ca7c460	0.020479381
11	0x3dfd7258	0.12375325
12	0x3de86940	0.113482
13	0x3da2bf6a	0.079466656
14	0x3d535748	0.05159691
15	0xbc880990	-0.016606122
16	0x3cf44818	0.029819533
17	0x3c8d11e0	0.017220438
18	0xbd0640dc	-0.0327767
19	0xbd317d70	-0.043332517
20	0x3db75b1c	0.089529246
21	0xbcae7820	-0.021297514
22	0xbd44cf5c	-0.048049316
23	0x3c3fdd40	0.011710465
24	0x3d61ca28	0.05512443
25	0x3d5758c0	0.052574873
26	0x3dc9641e	0.09833549
27	0xbd68e5f4	-0.056859925
28	0xbd579900	-0.052636147
29	0x3abaed80	0.0014261454
30	0x3d79a190	0.060945094
31	0xbdfbdae2	-0.12297608

weight f4 [16, 32]
0	0xbd819bf5	-0.063285746
1	0xbd821d37	-0.063532285
2	0xbe2cf27b	-0.16889374
3	0x3d87fbed	0.06639848
4	0x3de69992	0.1125976
5	0x3d83e207	0.06439596
6	0xbd1189eb	-0.03553192
7	0xbdffa976	-0.12483494
8	0xbd48a979	-0.048989747
9	0xbe13954a	-0.14412418
10	0xbe0a1420	-0.1348424
11	0xbda1d434	-0.07901803
12	0x3ad3403c	0.0016117166
13	0x3dab25d7	0.08356827
14	0x3e23af26	0.15984783
15	0x3c6b3cbf	0.014357745
16	0x3e2da3a7	0.1695696
17	0xbe1ad9fe	-0.1512222
18	0x3d631241	0.05543733
19	0x3e07b6db	0.13253348
20	0xbddb64f6	-0.10712616
21	0x3df59f86	0.11993317
22	0x3e0501e0	0.12988997
23	0x3c40582d	0.011739773
24	0xbd3e821b	-0.046510797
25	0x3e208658	0.15676248
26	0x3e143f3e	0.1447725
27	0x3bb288bb	0.0054484284
28	0xbde5c324	-0.11218861
29	0x3e28100e	0.16412374
30	0xbdf72075	-0.120667376
31	0x3cd9eb7f	0.026601551
32	0x3dadd284	0.08487418
33	0x3d1db541	0.038502935
34	0xbd3cf71e	-0.046134107
35	0xbaecda68	-0.0018070461
36	0x3d10688f	0.035255965
37	0x3cdd2c84	0.026998766
38	0xbddc1c2b	-0.1074756
39	0xbd0a88e5	-0.03382196
40	0x3dcce20b	0.10004052
41	0xbb1e973e	-0.0024199034
42	0x3d5513cf	0.052020844
43	0xbe29350f	-0.16524146
44	0xbdba316d	-0.090914585
45	0xbe2069ce	-0.15665361
46	0x3e2bb5a7	0.16768514
47	0x3dd806ad	0.10548148
48	0xbd174d7f	-0.03693914
49	0x3bba6fc3	0.0056895926
50	0xbceb8bfd	-0.028753275
51	0x3cc58146	0.024109494
52	0xbe1cc011	-0.15307643
53	0x3e243278	0.16034877
54	0x3d081cb8	0.033230513
55	0xbe2ff04e	-0.17181513
56	0xbc95b596	-0.018275063
57	0xbd3bf419	-0.045887087
58	0x3d596ab7	0.053080287
59	0x3d599bfe	0.05312728
60	0xbd6a9502	-0.05727101
61	0x3daf62d9	0.085637756
62	0x3d22c5f5	0.039739568
63	0xbe2514f9	-0.16121282
64	0xbe295f87	-0.16540347
65	0x3db41d24	0.08794621
66	0xbd89e692	-0.06733431
67	0xbe028c32	-0.12748793
68	0xbd8723dd	-0.06598637
69	0xbdd84c81	-0.10561467
70	0xbe208bd3	-0.15678339
71	0xbc1b7f48	-0.009490795
72	0x3dc48a64	0.095967084
73	0xbdd795bd	-0.10526607
74	0x3b4da3bf	0.0031378118
75	0xbd46bcf9	-0.048520062
76	0x3dfb4d50	0.122706056
77	0xbe33be02	-0.17552951
78	0xbddd97da	-0.10819979
79	0x3dc3fdbc	0.0956988
80	0xbcc4ca0b	-0.024022123
81	0x3d3e9631	0.046529952
82	0xbe273900	-0.16330338
83	0xbc821bd3	-0.015882408
84	0xbe0d1e1e	-0.1378102
85	0xbdbf366d	-0.09336553
86	0x3d09e7f6	0.03366848
87	0xbe271cd2	-0.16319588
88	0xbd9cc312	-0.07654394
89	0x3c0535e7	0.008130527
90	0x3d073513	0.0330096
91	0x3d125706	0.035727523
92	0xbdf5e52a	-0.120066
93	0xbe1354fa	-0.14387885
94	0xbdb2b821	-0.08726526
95	0xbdfd3949	-0.12364442
96	0xbe3251f2	-0.17414072
97	0xbe044a7a	-0.12919036
98	0x3ccf318a	0.025292177
99	0xbda0131a	-0.07816143
100	0xbdb3ac77	-0.087731294
101	0xbd8e8781	-0.06959439
102	0xbe05bfc7	-0.13061439
103	0x3dbdee68	0.09273988
104	0x3e0e98cd	0.13925476
105	0xbe2c2411	-0.16810633
106	0xbbe53c8f	-0.0069957445
107	0x3e144010	0.14477563
108	0x3e112098	0.1417259
109	0xbe0fd690	-0.14046693
110	0x3c2062f3	0.009789216
111	0xbdf47fd5	-0.119384445
112	0xbd29f009	-0.04148868
113	0xbe1a076b	-0.15041892
114	0x3d683365	0.05668964
115	0xbda261ae	-0.07928787
116	0x3d004fb2	0.031326003
117	0x3d84cbfe	0.06484221
118	0x3cca4b87	0.024694217
119	0xbd2db1e7	-0.04240599
120	0xbd2f9b65	-0.042872805
121	0xbda38e85	-0.07986168
122	0x3e01c678	0.12673366
123	0xbd0058c7	-0.031334665
124	0xbe2afc4a	-0.16697803
125	0x3d20cfde	0.039260738
126	0x3db43f97	0.08801191
127	0x3dc03a5b	0.093861304
128	0x3df0c762	0.11756779
129	0x3c44d934	0.012014676
130	0x3e00c8ce	0.12576601
131	0xbe02b048	-0.12762558
132	0x3d20aa69	0.039225016
133	0xbe04f13e	-0.12982652
134	0x3d35cbcd	0.044383813
135	0x3c8cbb17	0.017179055
136	0xbde79e43	-0.11309483
137	0xbdad5753	-0.084639214
138	0xbdf53b1e	-0.11974166
139	0xbe084080	-0.13305855
140	0xbd32b273	-0.043627214
141	0x3cde2636	0.02711783
142	0x3db81ac1	0.08989478
143	0x3e164025	0.14672907
144	0xbe296034	-0.16540605
145	0x3dc508fa	0.09620853
146	0xbdcf831f	-0.10132431
147	0xbd31321d	-0.043260682
148	0xbc60b0c0	-0.0137140155
149	0xbc33693c	-0.010950383
150	0xbdab4aad	-0.08363853
151	0xbdb79859	-0.08964605
152	0x3ce1339c	0.02749043
153	0x3a272034	0.0006375343
154	0xbc41f482	-0.01183808
155	0x3da03cb3	0.078240775
156	0xbce2828e	-0.027650144
157	0xbdd8ac1b	-0.105797015
158	0x3db78142	0.08960201
159	0xbd28f717	-0.04125127
160	0x3d849928	0.06474525
161	0xbdd3843f	-0.10327958
162	0xbe02f610	-0.12789178
163	0xbd7d92cf	-0.061907586
164	0x3de316b7	0.11088317
165	0xbcbedc04	-0.023298271
166	0x3e209404	0.15681463
167	0x3d2113c0	0.039325476
168	0xbc0e765c	-0.008695211
169	0x3e3099d2	0.17246178
170	0xbb734dda	-0.003712526
171	0x3d948207	0.07251363
172	0x3e13902c	0.14410466
173	0x3d8fc932	0.07020797
174	0x3d05d161	0.032670382
175	0xbd927941	-0.071520336
176	0xbbc154e1	-0.005900011
177	0xbd8b8309	-0.06812102
178	0xbe0e8405	-0.13917549
179	0x3d4102a8	0.047121674
180	0x3da3820f	0.07983791
181	0xbd8adbea	-0.067802265
182	0xbde66f71	-0.112517245
183	0x3dc27f63	0.09496953
184	0xbe0ab492	-0.13545445
185	0x3e2ace46	0.1668025
186	0x3e1d666e	0.15371105
187	0x3e33a430	0.17543101
188	0x3cf69788	0.030101553
189	0xbe19c025	-0.15014704
190	0xbe285205	-0.16437538
191	0xbd7803c2	-0.06055046
192	0x3d8273ef	0.06369769
193	0xbdad6d83	-0.08468153
194	0xbd1f896d	-0.03894942
195	0xbe229bbb	-0.15879719
196	0x3d3ab608	0.045583755
197	0xbdfffc72	-0.12499322
198	0xbcfa2052	-0.03053299
199	0xbcb7d8fb	-0.022442332
200	0x3c9766f4	0.018481709
201	0x3d847ffd	0.06469724
202	0xbdbd4b30	-0.092428565
203	0x3ada01d1	0.0016632621
204	0xbd5f78fb	-0.054558735
205	0x3dcdf146	0.10055785
206	0x3d0b8616	0.03406342
207	0xbda2db15	-0.07951943
208	0xbd42b16a	-0.047532476
209	0xbe1e8bc3	-0.15483002
210	0xbcb8aac6	-0.022542369
211	0xbd8bbe4d	-0.06823406
212	0x3d5350e5	0.05159082
213	0x3e022d8e	0.1271269
214	0x3e152094	0.14563209
215	0xbc0092c2	-0.00784749
216	0xbdc77df2	-0.09740819
217	0xbc71ada2	-0.01475087
218	0x3d9982b5	0.074956335
219	0xbdb9ccb2	-0.09072246
220	0xbdb3a275	-0.087712206
221	0x3d0b73be	0.034045927
222	0xbc8f86fe	-0.017520424
223	0x3dd41940	0.103563786
224	0x3deb45ee	0.114879474
225	0xbcf558ac	-0.029949509
226	0x3ca9d51f	0.020731507
227	0x3e269acf	0.16269992
228	0x3d6f711f	0.05845749
229	0x3e329a31	0.17441632
230	0xbd4c2966	-0.049844168
231	0x3d469927	0.0484859
232	0x3e2c7b13	0.16843824
233	0x3dd0a14f	0.10187017
234	0x3dd2ea11	0.10298551
235	0xbdd18eb6	-0.10232298
236	0x3dd2eed1	0.10299457
237	0xbdf5e20f	-0.12006008
238	0x3dc51a52	0.09624161
239	0xbc2813cd	-0.010258627
240	0x3d724746	0.059150003
241	0x3def6357	0.116888694
242	0xbd735b71	-0.059413377
243	0xbdce565e	-0.10075067
244	0xbd7eef20	-0.062239766
245	0xbdb94b9b	-0.09047624
246	0x3c8da05f	0.017288385
247	0xbe022505	-0.12709434
248	0xbcbdd899	-0.02317457
249	0x3ddc1b0d	0.10747347
250	0x3da6aef7	0.08138841
251	0xbe158e05	-0.14604957
252	0xbc2da308	-0.010597952
253	0xbd5047ac	-0.0508496
254	0x3d84ca12	0.06483854
255	0x3ddf5392	0.10904612

bias f4 [16]
0	0xbdbc7ff0	-0.0920409
1	0x3dc1bc2e	0.094597206
2	0x3e1980a4	0.14990479
3	0x3ddc8d73	0.10769167
4	0x3e2f1887	0.170992
5	0x3ddc2e8d	0.10751066
6	0x3e0f770f	0.14010261
7	0x3d49b2cb	0.049242776
8	0x3e2c4c85	0.16826065
9	0xbc85a595	-0.016314307
10	0xbc538998	-0.012911223
11	0xbda3f655	-0.080059685
12	0x3e08b130	0.13348842
13	0xbd9e6b15	-0.07735268
14	0x3cfb7b06	0.03069831
15	0xbddd3a9f	-0.10802197

weight f4 [4, 16]
0	0x3e394e2e	0.1809623
1	0x3e1e8b2c	0.15482777
2	0x3e31c244	0.17359263
3	0xbda84024	-0.08215359
4	0xbdb4df58	-0.08831662
5	0xbdf1ff14	-0.118162304
6	0xbe66fd66	-0.22557601
7	0x3da79988	0.08183581
8	0xbdd8e908	-0.10591322
9	0xbcc7bd50	-0.024382263
10	0xbe40c114	-0.18823653
11	0xbe5af894	-0.21383888
12	0x3e5c5b2c	0.21519154
13	0x3e57bbfc	0.21067804
14	0x3e763a6c	0.24045724
15	0x3e1ee6c0	0.15517712
16	0xbd9202c8	-0.07129437
17	0xbda44610	-0.08021176
18	0xbe35e7b6	-0.17764172
19	0x3e372100	0.17883682
20	0x3c7437e0	0.0149059
21	0x3e60fe5e	0.21972033
22	0xbe179324	-0.14802223
23	0x3e633060	0.22186422
24	0xbe68a8ee	-0.22720692
25	0xbd5db7f0	-0.054130495
26	0x3dbc1ee8	0.091855824
27	0xbe09a6fc	-0.13442606
28	0xbe7f875a	-0.24953976
29	0x3df1876c	0.11793408
30	0xbe72826c	-0.23682564
31	0xbe62dc4c	-0.22154349
32	0x3e192eb6	0.14959225
33	0x3e17ef6c	0.14837426
34	0xbd8ce6f0	-0.06879985
35	0xbe25d4ce	-0.1619446
36	0xbd76ae68	-0.06022492
37	0x3e388890	0.18020844
38	0x3e3847bc	0.17996114
39	0xbe686dda	-0.22698155
40	0x3de546d4	0.1119515
41	0x3e246ea0	0.16057825
42	0x3de22968	0.11043054
43	0x3cf64f90	0.030067235
44	0xbe21b8ec	-0.15793198
45	0xbe674e9c	-0.22588581
46	0xbe5494ca	-0.20759884
47	0xbe05d60e	-0.13069937
48	0xbdd719f8	-0.10503
49	0x3e0de44e	0.13856623
50	0xbe0c9376	-0.13728127
51	0x3e22c1da	0.15894261
52	0x3e12870c	0.14309329
53	0xbe44cc3a	-0.19218531
54	0xbe2d0096	-0.16894755
55	0x3dc85c5c	0.09783241
56	0x3e143e1a	0.14476815
57	0x3e6fb7d8	0.23409975
58	0x3ca9d7b0	0.02073273
59	0x3d3d6830	0.04624194
60	0x3dc94710	0.09828007
61	0x3e772d44	0.24138361
62	0x3c056580	0.008141875
63	0x3e5d6fb0	0.21624637

bias f4 [4]
0	0xbe240b62	-0.16019967
1	0x3e644d6c	0.22295159
2	0xbdacb1cc	-0.084323496
3	0x3e24ab1e	0.16080901

weight f4 [32, 10, 3]
0	0x3dddcb34	0.108297735
1	0xbb0303dc	-0.0019991314
2	0x3e396afd	0.18107219
3	0x3c8be3ed	0.017076457
4	0x3c3397bd	0.01096147
5	0xbda280c0	-0.07934713
6	0x3d39a909	0.04532722
7	0xbd6c1455	-0.057636578
8	0x3e1b4565	0.1516319
9	0x3e1a27fc	0.15054315
10	0xbd58d596	-0.052938066
11	0x3d9ee284	0.07758048
12	0x3dc6db46	0.09709792
13	0xbde4daae	-0.11174522
14	0x3db6e2d8	0.08929986
15	0x3e1399fe	0.14414212
16	0xbdb59175	-0.08865634
17	0xbe10a719	-0.14126243
18	0x3cd603f5	0.026124934
19	0xbd41cba5	-0.04731335
20	0xbca808ab	-0.020511946
21	0xbe176fd5	-0.14788754
22	0xbda18322	-0.0788634
23	0x3de0bfbb	0.1097407
24	0xbe38e301	-0.18055345
25	0xbdde0c3c	-0.10842177
26	0xbd253e13	-0.0403424
27	0xbcb1f602	-0.021723751
28	0xbd2124b7	-0.039341655
29	0xbd2d7095	-0.042343695
30	0x3d2d3870	0.04229015
31	0xbba0f2e7	-0.0049117687
32	0x3e3726ff	0.1788597
33	0xbd4a5558	-0.049397796
34	0xba1baa09	-0.0005938118
35	0x3e10d7cc	0.1414482
36	0xbcd7bd03	-0.026335245
37	0xbb3d941a	-0.0028927387
38	0x3dfab53a	0.122415975
39	0x3d9b32d0	0.07578051
40	0xbb15f24b	-0.0022880014
41	0xbdb45613	-0.0880548
42	0xbd5204db	-0.05127416
43	0xba83d3e9	-0.0010057661
44	0x3d0cdc98	0.034390062
45	0x3d26a740	0.040686846
46	0xbc73ffcd	-0.014892531
47	0xbd0a9140	-0.033829927
48	0xbcb88525	-0.022524426
49	0x3b5eaddb	0.0033978138
50	0x3e2d4dd7	0.16924225
51	0xbdfcc931	-0.12343062
52	0xbd244cfe	-0.040112488
53	0xbbc8ea40	-0.0061314404
54	0x3dc47668	0.09592897
55	0xbbc134d3	-0.0058961897
56	0x3e396359	0.18104304
57	0xbe29220a	-0.16516891
58	0xbb4a3bcc	-0.0030858396
59	0x3cc3beae	0.023894634
60	0x3dcfde36	0.10149805
61	0xbce28225	-0.027649948
62	0x3d22a87e	0.039711468
63	0x3dd3d97d	0.10344217
64	0xbbc076d9	-0.0058735427
65	0xbe1afb18	-0.15134847
66	0xbde1b430	-0.11020696
67	0xbb94e8ef	-0.0045443694
68	0xbd88ca84	-0.06679252
69	0xbc9420e3	-0.018082088
70	0xbc8a8913	-0.016911065
71	0x3e1cf21c	0.15326732
72	0x3cfe14a7	0.031015707
73	0x394581bd	0.00018835715
74	0xbe2ca57d	-0.16860004
75	0x3d46bbb6	0.04851886
76	0xbb28340b	-0.0025665786
77	0xbdea7968	-0.11448938
78	0xbd048f0a	-0.032362975
79	0xbb8e2aec	-0.004338613
80	0x3e1c7bc2	0.15281585
81	0xbde8af48	-0.11361557
82	0xba96e4a8	-0.0011512237
83	0xbe0d2661	-0.13784172
84	0xbcdca851	-0.026935728
85	0xba980efe	-0.0011601148
86	0xbe0c980b	-0.13729875
87	0xb8ed1e44	-0.00011306678
88	0xbb847cc9	-0.004043196
89	0x3cd8c6cb	0.02646198
90	0x3d25425d	0.040346492
91	0xbae4ae66	-0.0017446994
92	0xbdb44890	-0.08802903
93	0xbda67609	-0.08127982
94	0x3b0d4cd1	0.0021560679
95	0x3e1d8c97	0.15385662
96	0xbbd050a4	-0.0063572694
97	0x3cdd7f01	0.0270381
98	0x3e2ab04e	0.16668817
99	0xbdc8fd6f	-0.098139636
100	0xbca139c2	-0.019680861
101	0xbe01f1fa	-0.12689963
102	0x3e2f4486	0.17115983
103	0xba96f9d2	-0.0011518544
104	0xbe2679c4	-0.16257387
105	0x3e33ab48	0.17545807
106	0x3c83226a	0.01600762
107	0x3d65c698	0.056097597
108	0x3d385633	0.04500408
109	0xbc15a4bf	-0.009133517
110	0x3da8c357	0.08240383
111	0x3e20346f	0.15645002
112	0x3db204f6	0.086923525
113	0xbe34362a	-0.17598787
114	0xbdbdfb18	-0.09276408
115	0xbdb786bc	-0.089612454
116	0xbdaaff92	-0.083495274
117	0xbb0d30f1	-0.0021544064
118	0xbbc8c15a	-0.006126565
119	0xbde51c52	-0.11187042
120	0xbd7ac79c	-0.06122552
121	0x3beec1f9	0.007286307
122	0xbe10d716	-0.14144549
123	0xbdd81c53	-0.105522774
124	0xbc67235a	-0.01410755
125	0xbcf81895	-0.03028516
126	0x3daba45b	0.08380958
127	0xbd67984c	-0.056541726
128	0xbdde5b21	-0.10857225
129	0x3db21eff	0.08697318
130	0xbc301fdb	-0.010749782
131	0x3e22da4c	0.15903586
132	0xbd7df02f	-0.061996635
133	0x3af1439d	0.0018406991
134	0x3e35d05e	0.17755267
135	0xbe06ed50	-0.13176465
136	0xbd20a15c	-0.039216384
137	0xbdca1d5a	-0.098688796
138	0xbd818913	-0.06324973
139	0x3be1bf06	0.006889227
140	0x3de7080d	0.112808324
141	0x3d789386	0.060687564
142	0xbdfb0f73	-0.12258806
143	0x3e0ccd53	0.137502
144	0xbde98048	-0.11401421
145	0xbc97d0ff	-0.018532274
146	0x3d46704f	0.04844695
147	0x3d884ae3	0.066549085
148	0xbaac5ec2	-0.0013150799
149	0x3e0cff7d	0.13769336
150	0x3e2dfbd1	0.16990592
151	0x3d014f42	0.031569727
152	0xbd8ad580	-0.06779003
153	0x3e119b6c	0.14219445
154	0xbba63cd9	-0.0050731716
155	0x3cdf4409	0.027254121
156	0xbde09efc	-0.10967824
157	0xbcba889b	-0.022770217
158	0xbcf652cb	-0.030068776
159	0xbdbc6faf	-0.092009895
160	0xbb5cf2cd	-0.0033714056
161	0x3e1aab76	0.1510447
162	0x3e119967	0.14218675
163	0xbbca107b	-0.0061665154
164	0x3e1550e1	0.14581634
165	0xbe1a56c5	-0.15072162
166	0x3bf5833f	0.0074924524
167	0x3e034fe4	0.12823445
168	0xbb9bd87a	-0.0047560306
169	0xbc0c2626	-0.008554017
170	0x3dccab64	0.09993628
171	0xbddae879	-0.10688872
172	0xbc1b1c8b	-0.009467254
173	0xbda45972	-0.08024873
174	0x3e134b1c	0.1438412
175	0x39a42503	0.00031308093
176	0x3e1a5fdb	0.15075628
177	0x3dc4b894	0.09605518
178	0x3a5e9011	0.00084900955
179	0x3d9aaec1	0.07552863
180	0x3adc55ee	0.0016810277
181	0xbc96cb3d	-0.018407458
182	0x3d4f2ac4	0.050577894
183	0xbdea430b	-0.11438569
184	0xbbd37e2d	-0.0064542503
185	0xbb7f7f91	-0.0038985948
186	0x3def6bef	0.116905086
187	0x3bf0dcbd	0.007350533
188	0x3d37590a	0.04476265
189	0x3e2446f0	0.16042686
190	0x3cd5fda3	0.02612192
191	0xbd2f4118	-0.042786688
192	0x3d915b8a	0.07097538
193	0x3c1e3d09	0.009658107
194	0xbe10a2e2	-0.14124635
195	0x3d323e61	0.04351652
196	0xbcebf273	-0.028802132
197	0xbe0cfcb7	-0.13768278
198	0xbe35584d	-0.17709465
199	0x3c21605d	0.009849635
200	0xbe39502b	-0.18096988
201	0x3e273ca1	0.16331722
202	0x3c7427c7	0.014902062
203	0xbe29f2b1	-0.16596486
204	0x3defdb0d	0.117117025
205	0xbb147060	-0.0022649989
206	0x3cc3e9ad	0.023915136
207	0x3d70197e	0.05861806
208	0xbc879d2b	-0.016554436
209	0x3e217f96	0.15771326
210	0xbcb1c0be	-0.021698352
211	0x394c8754	0.0001950537
212	0x3ca207da	0.019779135
213	0xbd9252a2	-0.07144667
214	0xbd2f8be7	-0.04285803
215	0xbdfd1df3	-0.12359228
216	0x3dcd491c	0.1002371
217	0xbc4624e4	-0.012093756
218	0x3dbda869	0.09260637
219	0xbda3ce12	-0.07998289
220	0xbd29b304	-0.04143049
221	0x3d3d917f	0.046281334
222	0xbdcb9982	-0.09941389
223	0x3d318f89	0.043349776
224	0x3dca4d90	0.09878075
225	0xbd991ba1	-0.07475973
226	0x3b91bf6a	0.004447867
227	0x3d76015e	0.060059898
228	0xbd941fd9	-0.07232637
229	0x3d835e79	0.064145036
230	0xbe179cd6	-0.14805922
231	0x3dc5335f	0.09628939
232	0x3b6b57ea	0.0035910555
233	0xbe01b43b	-0.12666409
234	0xbe38b129	-0.18036331
235	0x3c6ae0b5	0.014335801
236	0x3dd57538	0.10422748
237	0xbcc8550b	-0.024454614
238	0x3cfaa61e	0.030596789
239	0xbdab7a86	-0.08372979
240	0x3dd5ff10	0.1044904
241	0xbd2eac72	-0.042644925
242	0x3d0b6971	0.034036104
243	0xbe23bcdf	-0.15990017
244	0x3d1bc7d8	0.038032383
245	0x3e212a59	0.1573881
246	0x3de8eeab	0.11373647
247	0x3c321c94	0.010871071
248	0x3e1924c5	0.14955433
249	0xbbfae452	-0.0076566124
250	0xbd5d269a	-0.05399189
251	0xbe0da5c1	-0.13832761
252	0x3d3dad62	0.04630793
253	0xbcd7e240	-0.026353002
254	0x3c175b43	0.009238067
255	0xbe34cf8e	-0.17657301

bias f4 [32]
0	0xbd6542e9	-0.055972014
1	0x41197086	9.589972
2	0x410593df	8.348601
3	0x40ac757a	5.3893404
4	0x4119ca89	9.611947
5	0x4024f6ee	2.5775714
6	0x41073b53	8.451983
7	0x3f2e3407	0.6804814
8	0x40a8792e	5.2647924
9	0x40a87735	5.2645516
10	0x40833af4	4.1009464
11	0x408ba28f	4.3635936
12	0x40de6a4c	6.9504757
13	0xc0c7b097	-6.2403064
14	0x410dda3b	8.865779
15	0x40fc3709	7.881718
16	0x410fc6ef	8.986068
17	0xbcffb662	-0.031214897
18	0xbe16c688	-0.14724171
19	0x4020dc6a	2.513453
20	0x40fa11d1	7.814675
21	0x4118df65	9.55454
22	0xc054d731	-3.3256342
23	0x40ae8ca9	5.4546704
24	0xc0e7f9bf	-7.2492366
25	0x40e29d7c	7.081724
26	0x41128872	9.158312
27	0xc011f51b	-2.280585
28	0xc0a75c92	-5.23005
29	0x4020da94	2.513341
30	0x4124915c	10.285488
31	0x409eab41	4.958405

weight f4 [64, 32, 3]
0	0x3cfb6a91	0.030690463
1	0x3925f731	0.00015827712
2	0xbc1a7d76	-0.009429326
3	0xbcf65db8	-0.030073985
4	0x3dfce2a9	0.123479195
5	0xbbef5bed	-0.0073046596
6	0x3dbb2d01	0.09139443
7	0xbd403a0a	-0.04693035
8	0xbca6750f	-0.02031949
9	0x3d698b4a	0.057017602
10	0x3d88a4df	0.06672072
11	0xbd0de0f2	-0.034638353
12	0x3cf1185b	0.029430559
13	0xbd42f38d	-0.04759555
14	0x3dae02e5	0.08496646
15	0x3ab25873	0.0013606682
16	0xbb6182eb	-0.0034410309
17	0xbd199d07	-0.03750327
18	0xbd3fcfac	-0.04682891
19	0xbd6af709	-0.057364497
20	0xbba05dc1	-0.004893989
21	0x3dbc04f4	0.09180632
22	0x3d95da57	0.07317036
23	0xbd2b4cec	-0.041821405
24	0xbd1bdfe3	-0.038055312
25	0xbe699801	-0.22811891
26	0x38498586	4.8046488e-05
27	0xbce892b4	-0.028390266
28	0x3d1a4654	0.037664726
29	0x3ccd9f76	0.025100451
30	0x3d41332b	0.04716794
31	0x3e03d5ff	0.12874602
32	0xbc75fe7f	-0.01501429
33	0xbd5d5e08	-0.054044753
34	0x3dc28ab8	0.09499115
35	0x3c2a754e	0.010403944
36	0x3c198d01	0.009371997
37	0x3d6fef51	0.05857784
38	0xbd802940	-0.06257868
39	0xbd6484e3	-0.055790793
40	0xbd56019f	-0.05224764
41	0xbdd0a5db	-0.101878844
42	0xbdc26040	-0.094910145
43	0x3d9f6880	0.07783604
44	0xbd71adc7	-0.059003618
45	0xbc970623	-0.018435543
46	0x3d427970	0.047479093
47	0x3dbf6c92	0.0934688
48	0xbd426acd	-0.047465134
49	0x3c9b0684	0.018924005
50	0x3dcdc00b	0.10046395
51	0x3cdaa207	0.026688589
52	0xbc0391b6	-0.008030346
53	0x3d881142	0.06643917
54	0xbd33c06f	-0.04388469
55	0x3d77c55a	0.060490943
56	0xbc88b0b3	-0.01668582
57	0xbd853b7a	-0.06505485
58	0x3d667d3f	0.056271788
59	0x3d2f5987	0.04280999
60	0xbda920d8	-0.082582176
61	0xbdc91f56	-0.0982043
62	0xbda3a99d	-0.079913355
63	0xbd2b71fc	-0.04185675
64	0xbcba73eb	-0.022760352
65	0x3d493349	0.049121175
66	0xbcf5ce73	-0.03000567
67	0xbd0d2b6b	-0.034465235
68	0x3b350410	0.002762083
69	0xbce1de39	-0.027571784
70	0xbcaf4272	-0.021393988
71	0xbd07c98d	-0.0331512
72	0x3dae0383	0.084967636
73	0xbdbf2d99	-0.09334869
74	0xbc8969e4	-0.016774125
75	0xbdcac6f9	-0.09901232
76	0x3d02af65	0.03190555
77	0x3d035ff1	0.03207392
78	0x3d5d7e8a	0.054075755
79	0xbd0062e9	-0.031344328
80	0x3d8ea5d1	0.06965221
81	0xbd9786fb	-0.07398792
82	0xbd845f66	-0.06463508
83	0x3c854da1	0.016272368
84	0x3d980e08	0.07424551
85	0xbbef6d8f	-0.0073067616
86	0xbb60fd1a	-0.0034330548
87	0x3db09af9	0.08623309
88	0xbaa148b6	-0.0012304995
89	0x3d00aa47	0.03141239
90	0xbd2b9fcf	-0.041900452
91	0x3c5eb8e4	0.013593886
92	0xbce3b3b5	-0.027795652
93	0xbd767011	-0.06016547
94	0x3d35092f	0.04419821
95	0x3d8f1b49	0.06987626
96	0x3d773828	0.06035629
97	0xbd16c92a	-0.03681294
98	0xbd7e8d66	-0.062146567
99	0xbd1f965a	-0.038961746
100	0x3ccdaeda	0.02510779
101	0x3d1bc927	0.03803363
102	0xbdb6359f	-0.08896946
103	0x3dece05e	0.11566232
104	0x3dc07f23	0.093992494
105	0xbd32dd83	-0.04366828
106	0xbc80d802	-0.015728
107	0x3cfbf368	0.030755714
108	0xbd6c82d6	-0.057741962
109	0x3cef367d	0.029200787
110	0x3be56a17	0.0070011723
111	0xbcd19889	-0.02558543
112	0xbe04a476	-0.12953362
113	0xbcdc06af	-0.026858656
114	0x3d8da971	0.06917084
115	0xbc23c92f	-0.009996696
116	0xbdc2f6e2	-0.095197454
117	0x3d70102b	0.05860917
118	0xbdbb0103	-0.09131052
119	0xbd8a3953	-0.06749215
120	0xbc25396f	-0.010084494
121	0xbdb1170d	-0.08646975
122	0x3caf4b4b	0.021398207
123	0x3d7fbaac	0.062433884
124	0x3d16d339	0.03682253
125	0xbd4e3b4f	-0.05034953
126	0xbd9eb262	-0.077488676
127	0xbd985e28	-0.07439834
128	0x3daa9dfb	0.08330914
129	0x3b9288b6	0.0044718636
130	0xbdbc5423	-0.09195735
131	0xbcd3c542	-0.025850896
132	0xbdb337c1	-0.087508686
133	0xbdce4cef	-0.10073268
134	0xbc2a11cb	-0.010380219
135	0x3dcf1dee	0.101131305
136	0xbdf5acd1	-0.11995853
137	0x3d0ac093	0.03387506
138	0x3db67daa	0.08910687
139	0xbc543e33	-0.012954283
140	0xbd82e8ad	-0.06392036
141	0xbdc72573	-0.0972394
142	0xbd21866f	-0.039434846
143	0x3dc9a95c	0.09846756
144	0x3dd01513	0.101602696
145	0x3d50929d	0.05092107
146	0x3dbe7478	0.092995584
147	0xbd266aba	-0.040629126
148	0x3d153f52	0.03643734
149	0xbd123762	-0.03569735
150	0xbcbab1bb	-0.022789827
151	0x3c81aedb	0.015830448
152	0x3d4906cd	0.04907875
153	0xbdb824e4	-0.08991411
154	0xbc87bb9b	-0.01656895
155	0xbd6adc25	-0.057338852
156	0x3ba1ccc5	0.0049377405
157	0x3c7dfd72	0.015502321
158	0xbdafa5ae	-0.08576523
159	0xbd866b95	-0.065634884
160	0xbc7efb28	-0.01556281
161	0x3dc2cb45	0.09511427
162	0x3dbb77bd	0.09153698
163	0x3d496bca	0.04917506
164	0xbdbc022e	-0.09180103
165	0x3da7a668	0.08186036
166	0x3b91d1f8	0.004450079
167	0xbd57ed8c	-0.052716777
168	0x3d8ba2a3	0.0681813
169	0x3d378c4f	0.044811543
170	0x3ca3723d	0.019951934
171	0xbdaca139	-0.08429188
172	0x3cf19e7c	0.029494517
173	0x3db50733	0.08839264
174	0xbc990508	-0.018679157
175	0xbdda2e0d	-0.10653315
176	0xbd91d6aa	-0.07121022
177	0x3d377d58	0.04479727
178	0xbd278eb8	-0.04090759
179	0x3d3b576b	0.045737665
180	0xbd9382b2	-0.072026625
181	0x3d48e7d0	0.0490492
182	0xbcd76484	-0.026293047
183	0xbd134eb0	-0.035963714
184	0xbdabad5c	-0.08382675
185	0x3cf365bd	0.029711599
186	0xbd99e9c3	-0.0751529
187	0xbcb7e730	-0.022449106
188	0xbce7cf0d	-0.028296972
189	0x3d390b04	0.04517652
190	0xbd0c4eb0	-0.03425473
191	0x3c0536c4	0.008130733
192	0x3c979f2d	0.018508518
193	0x3dd8a114	0.10577598
194	0xbd1b64da	-0.037937976
195	0xbdcb7269	-0.099339314
196	0xbd98556c	-0.07438168
197	0x3d06d959	0.032922123
198	0xbd933db5	-0.07189504
199	0xbbe38bef	-0.0069441716
200	0x3ceea022	0.029129092
201	0xbbb9360f	-0.0056521962
202	0xbc8e9468	-0.01740475
203	0x3ca0b087	0.019615425
204	0x3c93c3fb	0.018037787
205	0xbdacef6e	-0.08444105
206	0xbdb87d8b	-0.090083204
207	0xbce9b13e	-0.028526898
208	0x3da55226	0.08072309
209	0xbd90c4bb	-0.07068773
210	0xbcae5f18	-0.021285579
211	0x3d59bb9e	0.05315744
212	0x3d62cd6b	0.055371683
213	0x3dce1de0	0.10064292
214	0x3d6747bc	0.056464896
215	0xbd1886c5	-0.0372379
216	0x3d5ca92d	0.053872276
217	0x3d1a547c	0.037678227
218	0x3c50dbf9	0.012747758
219	0xbd652c4e	-0.055950455
220	0x3d2c8b2b	0.04212491
221	0xbd1d21db	-0.038362365
222	0xbd9e201e	-0.077209696
223	0xbdf9932a	-0.121862724
224	0x3b47464d	0.0030406893
225	0x3db48875	0.088150896
226	0x3d1c53d6	0.03816589
227	0xba665b78	-0.00087874336
228	0x3d8e9ba6	0.06963281
229	0x3d447ead	0.04797237
230	0x3ca8ab2c	0.020589434
231	0x3d80d9a4	0.06291512
232	0x3d017ff6	0.031616174
233	0xbd726a76	-0.05918356
234	0xbce89773	-0.02839253
235	0xbdba2a45	-0.090900935
236	0x3d8ec777	0.06971639
237	0xbd60c906	-0.05487921
238	0x3e063465	0.13105924
239	0xbbd2f0a3	-0.0064373775
240	0xbd041b2d	-0.03225248
241	0xbc8dc555	-0.01730601
242	0xbdbfe86c	-0.09370503
243	0x3d5f76a3	0.0545565
244	0xbc9b8459	-0.018984007
245	0xbd34e3b8	-0.044162482
246	0x3d1e532c	0.038653538
247	0xbd3c2125	-0.045930047
248	0xbdae4fc1	-0.085113056
249	0x3dc582b0	0.09644067
250	0x3c99bce3	0.018766826
251	0x3dc0312c	0.09384379
252	0xbd86d3d6	-0.06583373
253	0xbc9e0bb1	-0.019292684
254	0x3dccd0f2	0.10000791
255	0x3d62952b	0.05531804
