matrix/CNNs/result/0906/save/inverse_mse_mul_conv.pt (torch, 71141 bytes, 18 tensors)

weight f4 [4, 16]
-0.14705382 -0.05332191 -0.1113005 -0.15594177 0.24226353 0.018630326 -0.14125885 -0.08048637
0.15777926 0.15990555 0.14670461 -0.06367879 0.23443033 0.012426036 0.022471288 -0.22394954
-0.14803313 -0.15835007 0.11308019 0.010076106 0.10581339 -0.09876322 -0.16012059 0.08121124
-0.001734293 0.14685285 -0.01628844 -0.014513872 0.08092734 0.17027661 0.13406147 -0.19574808
-0.051707253 -0.14119354 -0.19455294 -0.18525262 -0.10375429 -0.14405224 0.0069258814 -0.06799469
-0.22395372 0.017264673 0.0028383783 -0.10821007 0.027746802 0.09923007 -0.10648285 0.22991857
-0.049497806 0.03955052 0.21768942 0.20393881 0.1997472 -0.2114943 0.12445888 -0.12455642
-0.028871534 0.22872667 0.19570495 -0.17170501 -0.07935393 -0.07538783 -0.03457941 0.076214716
00000000: 4795 16be 1368 5abd 84f1 e3bd 33af 1fbe
00000010: ee13 783e a09e 983c 29a6 10be 0ad6 a4bd
00000020: e390 213e 48be 233e bc39 163e 076a 82bd
00000030: 810e 703e 9396 4b3c b515 b83c 0753 65be
00000040: ff95 17be 8526 22be 9696 e73d 4016 253c
00000050: b1b4 d83d 5f44 cabd a7f6 23be 1452 a63d
00000060: 3751 e3ba 9860 163e 566f 85bc 97cb 6dbc
00000070: 3cbd a53d fe5c 2e3e 6947 093e 2f72 48be
00000080: fcca 53bd 0a95 10be e338 47be ddb2 3dbe
00000090: 217d d4bd 6e82 13be 81f2 e23b cd40 8bbd
000000a0: 2054 65be a56e 8d3c 1604 3a3b 3e9d ddbd
000000b0: 434d e33c 2339 cb3d ae13 dabd c66f 6b3e
000000c0: 36be 4abd baff 213d fae9 5e3e 56d5 503e
000000d0: 888a 4c3e f691 58be 4ce4 fe3d 7017 ffbd
000000e0: ff83 ecbc 5337 6a3e e166 483e 70d3 2fbe
000000f0: 5084 a2bd ef64 9abd 24a3 0dbd 7616 9c3d

bias f4 [4]
-0.31625733 1.9254164 -4.144512 2.5894003
00000000: 7bec a1be 0b74 f63f d89f 84c0 bcb8 2540

weight f4 [32, 16]
-0.030364364 -0.189224 0.066741675 -0.12568194 0.10921702 -0.21857014 0.21979734 0.042901635
-0.24129114 0.0963774 -0.15222046 0.24274239 0.15091562 -0.07357982 -0.01353386 -0.24942029
-0.18373176 0.004115671 -0.161904 -0.20283327 0.18285716 -0.0024839342 0.17345577 -0.15137535
0.17000544 0.04136008 0.034858644 0.22770116 0.07573515 0.20477086 0.21080425 -0.2474297
0.047163516 0.13331568 0.15073562 -0.06822789 0.13502175 -0.07369137 0.22234702 0.10133889
0.04448226 -0.106835365 0.23579606 0.034238577 0.07441658 0.14182132 0.03351447 -0.0016676188
-0.053427696 0.13513315 0.12012574 -0.016595453 -0.20423165 -0.1830608 -0.01396814 -0.09179449
0.17233527 -0.21402565 0.0011732876 -0.2204327 0.019094646 -0.014675796 -0.22454822 0.097414196
0.15093288 -0.09753615 -0.15020496 0.22816822 -0.14848256 -0.110075 -0.0052981377 0.18468112
-0.011161059 0.18374124 -0.2232044 0.026546597 0.046918064 0.077041954 -0.22812438 -0.21651775
-0.017451406 0.14695975 -0.13391858 -0.057542264 -0.19657516 0.11261058 0.16671842 0.00052565336
-0.19049752 0.20245919 0.19814378 -0.23446268 -0.13762319 0.06358132 0.12296957 -0.16968596
0.010582209 0.013563782 -0.15316999 -0.24179167 -0.23249337 0.12015027 -0.1742591 -0.15995303
0.23545402 1.859665e-05 -0.20497373 0.07802647 -0.039839804 0.24968955 -0.23621199 0.2249015
0.006268561 0.17221004 -0.09941605 -0.22522593 0.20166215 0.19215646 -0.055548817 -0.061079264
0.032161295 0.23732367 0.14146918 0.13432524 0.02352336 0.008025378 -0.0783087 0.07903978
-0.026245624 0.011377811 0.14735726 0.08260372 0.041150212 -0.044398516 -0.12042466 0.03755918
0.058705002 0.22561869 0.22693962 0.045605898 0.24972999 0.18777946 0.12528026 0.15109211
-0.18711603 -0.017557025 -0.15886861 -0.1538131 0.0077950954 0.21390262 -0.016216487 -0.094910145
-0.2126013 -0.17859492 0.22489956 0.030945301 -0.10879508 -0.105410814 -0.11369434 0.007220298
0.23291105 0.12575486 0.23733613 -0.091297686 0.064870656 -0.2227911 -0.08599654 -0.06886163
-0.13437429 -0.13234892 0.17741871 0.035428137 0.23423636 -0.15350145 -0.23646134 -0.080165416
0.06241694 -0.07345745 -0.2463426 -0.060072362 0.22715345 0.22365874 0.1596857 -0.035435796
-0.13685983 0.236013 -0.13190699 -0.081887424 -0.11958319 0.16591704 0.24681243 -0.2315476
-0.051718205 0.12722209 0.12938806 0.121949315 -0.101539016 -0.2196014 0.028520644 0.108418345
-0.05838409 -0.058551162 -0.118305 0.03248149 -0.14983854 0.20949227 0.19597694 -0.22289947
0.15495658 -0.24679527 0.23070386 0.23993665 0.21324858 0.068205774 -0.036513418 0.082710505
0.117747754 0.023810387 0.036940604 0.19447368 0.13512772 0.18807364 -0.092999786 0.20173016
-0.12743878 0.20802805 0.18509018 -0.16291556 0.2354632 0.1099295 0.11667645 0.2489464
0.06862736 -0.24142557 -0.0012045503 -0.026491016 0.14324158 0.18234697 0.24832031 -0.14078572
0.009869695 0.06475994 -0.09015593 -0.21110079 -0.05521986 -0.24468091 -0.21277803 -0.18233305
-0.023654014 -0.200953 0.1832973 -0.14614654 0.17413822 -0.070644766 -0.2330423 -0.12649989
00000000: b0be f8bc f0c3 41be dcaf 883d c4b2 00be
00000010: 2cad df3d dad0 5fbe 8e12 613e a0b9 2f3d
00000020: 0615 77be 8461 c53d aedf 1bbe 7691 783e
00000030: a089 1a3e 04b1 96bd 20bd 5dbc 0868 7fbe
00000040: 2e24 3cbe c0dc 863b 2aca 25be 86b3 4fbe
00000050: e83e 3b3e 80c9 22bb 649e 313e 2402 1bbe
00000060: e815 2e3e 3069 293d f0c7 0e3d 7e2a 693e
00000070: 081b 9b3d 74af 513e 12dd 573e 365e 7dbe
00000080: 882e 413d e883 083e 705a 1a3e 10bb 8bbd
00000090: 2443 0a3e 80eb 96bd f0ae 633e c48a cf3d
000000a0: 0833 363d 80cc dabd 8674 713e c03d 0c3d
000000b0: b867 983d 9c39 113e 7846 093d 0094 daba
000000c0: 00d7 5abd 5860 0a3e 7c04 f63d 30f3 87bc
000000d0: 1a22 51be 4a74 3bbe a0da 64bc c0fe bbbd
000000e0: a878 303e 8a29 5bbe 00c9 993a 1cb9 61be
000000f0: 606c 9c3c c072 70bc f8ef 65be 1881 c73d
00000100: 268e 1a3e 08c1 c7bd 54cf 19be eea4 693e
00000110: d00b 18be 006f e1bd 009c adbb 0c1d 3d3e
00000120: e0dc 36bc aa26 3c3e b28f 64be 4078 d93c
00000130: 282d 403d 2cc8 9d3d 7099 69be d4b6 5dbe
00000140: 40f6 8ebc 9e7c 163e f421 09be 70b1 6bbd
00000150: 004b 49be 60a0 e63d 3cb8 2a3e 00cc 093a
00000160: c811 43be 7651 4f3e 34e6 4a3e fc16 70be
00000170: 18ed 0cbe ec36 823d 78d7 fb3d 28c2 2dbe
00000180: 0061 2d3c a03a 5e3c 98d8 1cbe 3c98 77be
00000190: be12 6ebe 5811 f63d fa70 32be baca 23be
000001a0: dc1a 713e 0000 9c37 a2e4 51be 58cc 9f3d
000001b0: 102f 23bd 9eae 7f3e 8ee1 71be 944c 663e
000001c0: 8068 cd3b d457 303e a49a cbbd a0a1 66be
000001d0: 8680 4e3e aac4 443e 2887 63bd 402e 7abd
000001e0: 90bb 033d fa04 733e 4cdd 103e 8e8c 093e
000001f0: 10b4 c03c e07c 033c 5060 a0bd 9cdf a13d
00000200: 1001 d7bc 006a 3a3c d2e4 163e 242c a93d
00000210: 208d 283d 38db 35bd 34a1 f6bd a8d7 193d
00000220: a874 703d 9608 673e dc62 683e 40cd 3a3d
00000230: 38b9 7f3e 4249 403e 7849 003e e4b7 1a3e
00000240: 589b 3fbe c0d3 8fbc 74ae 22be 2e81 1dbe
00000250: 006e ff3b 4a09 5b3e 70d8 84bc 4060 c2bd
00000260: 28b4 59be 96e1 36be 124c 663e 0081 fd3c
00000270: f4cf debd a0e1 d7bd 94d8 e8bd 4098 ec3b
00000280: 3c80 6e3e e2c5 003e 3e08 733e 48fa babd
00000290: e8da 843d 5a23 64be f41e b0bd 5407 8dbd
000002a0: 6a99 09be 7a86 07be 40ad 353e 181d 113d
000002b0: a8db 6f3e 7c2f 1dbe ec22 72be c42d a4bd
000002c0: e8a8 7f3d dc70 96bd 3c41 7cbe 700e 76bd
000002d0: ea9a 683e cc06 653e a684 233e 2025 11bd
000002e0: fc24 0cbe 64ad 713e a012 07be 98b4 a7bd
000002f0: 08e8 f4bd 28e6 293e 66bc 7c3e d01a 6dbe
00000300: 78d6 53bd 8246 023e 4e7e 043e 90c0 f93d
00000310: b0f3 cfbd 30df 60be 20a4 e93c 700a de3d
00000320: 2824 6fbd 58d3 6fbd e449 f2bd 500b 053d
00000330: 466f 19be 2485 563e 2eae 483e c23f 64be
00000340: f0ac 1e3e e6b7 7cbe a23d 6c3e f4b1 753e
00000350: d65d 5a3e 78af 8b3d 188f 15bd 2064 a93d
00000360: bc25 f13d 000e c33c 084f 173d 1c24 473e
00000370: ec5e 0a3e 6096 403e ac76 bebd 5a92 4e3e
00000380: 507f 02be 4e05 553e 4888 3d3e 56d3 26be
00000390: 441d 713e b822 e13d 10f4 ee3d ceeb 7e3e
000003a0: 808c 8c3d 4438 77be 00e2 9dba b003 d9bc
000003b0: ecad 123e 2ab9 3a3e ae47 7e3e 222a 10be
000003c0: 80b4 213c dca0 843d aca3 b8bd ce2a 58be
000003d0: 382e 62bd a28d 7abe 7ce2 59be 84b5 3abe
000003e0: 10c6 c1bc a0c6 4dbe 4ab2 3b3e 70a7 15be
000003f0: 4a51 323e 34ae 90bd a4a2 6ebe 3089 01be

bias f4 [32]
0.21554783 -0.16155013 -0.061769485 0.0871605 0.12778887 0.22886947 0.08501601 -0.19084397
0.17599684 0.15574798 -0.09629738 -0.2478931 -0.16504952 0.1495358 0.13266557 0.07890934
0.019069672 0.015766531 -0.14595583 0.21609163 -0.09748742 -0.071828276 0.060561925 0.13604444
0.20201549 0.22700164 0.19572157 0.06340659 -0.10170478 0.017011464 -0.16445783 -0.17684668
00000000: 92b8 5c3e 666d 25be 0002 7dbd 3481 b23d
00000010: 16db 023e c25c 6a3e e01c ae3d 9a6c 43be
00000020: 8438 343e 667c 1f3e 9037 c5bd b0d7 7dbe
00000030: be02 29be ea1f 193e 7cd9 073e 389b a13d
00000040: 0038 9c3c d028 813c 7275 15be 2047 5d3e
00000050: 7ca7 c7bd b41a 93bd c80f 783d 3c4f 0b3e
00000060: 26dd 4e3e 1e73 683e 3c6b 483e 50db 813d
00000070: 984a d0bd a05b 8b3c a267 28be 4c17 35be

weight f4 [64, 32]
-0.15581349 -0.11104723 0.0012431002 0.17155327 -0.14981373 -0.15654895 0.16940011 -0.03009717
-0.11005758 0.05955493 -0.038062755 -0.1668833 -0.02529144 0.029706256 -0.09682406 -0.11462823
0.11944395 0.16580102 0.06521072 0.085187465 0.12675966 -0.055052064 -0.13854007 0.12219859
0.16536883 0.05195893 -0.16275519 0.15597168 -0.16443649 0.08106668 -0.091598965 0.0033018051
0.002431852 0.047211573 0.14394613 -0.11511193 0.015459464 0.09612318 -0.13624644 -0.04980611
0.021634314 0.16140082 -0.11914469 -0.05180014 0.0045554633 -0.016798364 0.11974722 0.016031481
0.117062934 0.008325941 0.044860873 0.17282873 -0.10595347 0.012942876 0.05654596 0.01564432
-0.044457212 0.13096052 0.16605131 -0.023818154 0.17601147 0.07441384 -0.10185262 0.033201896
0.06984188 0.045308895 0.0078053223 0.11580605 0.050434813 -0.05691639 0.022636019 -0.0057510426
0.13819772 0.13059473 0.08919757 0.023376223 -0.12479239 -0.06344989 0.04200336 0.14221577
0.052778874 0.050164547 0.04279258 0.16446678 0.063150585 -0.15860428 0.13478646 0.1129204
-0.029405223 0.06555133 0.12664704 0.15346064 0.096428275 -0.1754462 -0.055593904 0.0048506595
-0.019166868 -0.075991295 0.014359684 -0.17540899 0.13844074 -0.1137935 -0.07742633 -0.011159157
0.06434536 -0.06803456 -0.0755988 -0.08368362 0.058086406 0.11995256 -0.11455517 0.067554824
0.07874431 0.15732774 0.015295892 0.06783988 0.12087821 0.13108265 -0.09120856 -0.004636048
0.13178895 -0.13669649 0.10070928 -0.12678762 -0.016123487 -0.04807575 0.13542011 0.13489029
-0.07807718 0.16588129 -0.10896985 0.024421696 -0.10887159 0.01787981 0.14211142 -0.14234287
-0.027732078 -0.17307228 0.006768362 -0.0518276 -0.10182333 0.12256248 -0.13567682 0.16743825
-0.12951276 0.14349733 0.13563368 -0.12203647 0.065784946 0.15425605 0.0004067803 0.08614719
-0.17492379 -0.026146578 -0.029657895 0.15860403 0.11556859 -0.11721481 -0.07412292 -0.011579699
0.053982485 0.058049824 -0.023163676 0.07038347 -0.009582823 0.056688268 -0.16764212 -0.057350058
0.015376624 7.306156e-05 0.0288162 -0.066367015 -0.045395527 0.021669254 -0.13226922 -0.16647035
0.03835201 0.15960684 -0.11078695 -0.14619802 0.0914615 0.13840152 -0.004471528 -0.013966222
-0.16979049 0.05419037 0.0766853 -0.03405699 -0.11256279 -0.08735933 -0.007320528 -0.009944823
-0.00056761265 0.06475958 -0.16395792 -0.008433057 0.11769433 -0.16817568 -0.15282659 0.16013789
0.14934245 -0.08080326 -0.13435401 -0.08604911 0.106040455 0.17053653 -0.008637217 -0.024197496
-0.15143274 0.16547509 0.08703143 -0.08199429 -0.07929881 -0.005607638 -0.13440502 0.10697662
0.15475738 0.031328827 0.048003066 0.14001274 0.007959812 0.04499867 -0.015470232 -0.0837158
0.0813809 -0.16620083 0.053526666 -0.04770073 0.049181495 -0.15418339 0.008610812 0.08555614
-0.13524458 -0.09733214 0.16825658 -0.08907389 0.16352382 -0.139486 -0.068197265 0.13858998
-0.066868484 0.13388392 0.1347134 -0.036826357 -0.07340485 -0.053078666 0.056903597 0.11753993
-0.07847427 0.08280364 -0.021902304 0.041678406 -0.019552998 0.13710831 -0.11336501 -0.11238474
00000000: 928d 1fbe bb6c e3bd 85ef a23a a9ab 2f3e
00000010: c568 19be 5e4e 20be 3977 2d3e 578e f6bc
00000020: de65 e1bd dfef 733d b1e7 1bbd 75e3 2abe
00000030: fe2f cfbc 895a f33c b14b c6bd 35c2 eabd
00000040: 089f f43d bec7 293e 338d 853d c476 ae3d
00000050: 49cd 013e 467e 61bd 73dd 0dbe 4143 fa3d
00000060: 7256 293e e3d2 543d 4ca9 26be 0ab7 1f3e
00000070: 0a62 28be 4a06 a63d 3d98 bbbd 1963 583b
00000080: b55f 1f3b ec60 413d 9d66 133e cebf ebbd
00000090: b149 7d3c 3bdc c43d 3084 0bbe 7e01 4cbd
000000a0: 723a b13c 4246 253e 2202 f4bd 622c 54bd
000000b0: ff45 953b b99c 89bc 083e f53d 7454 833c
000000c0: b1be ef3d 8769 083c 09c0 373d 04fa 303e
000000d0: 22fe d8bd 5b0e 543c bd9c 673d 8428 803c
000000e0: c418 36bd 841a 063e 5b09 2a3e 4a1e c3bc
000000f0: 5a3c 343e 4966 983d 1b98 d0bd b6fe 073d
00000100: 4209 8f3d d295 393d cac3 ff3b b92b ed3d
00000110: bc94 4e3d 2921 69bd 2c6f b93c 3e73 bcbb
00000120: b483 0d3e a0ba 053e 37ad b63d 7e7f bf3c
00000130: 2793 ffbd 04f2 81bd b70b 2c3d 03a1 113e
00000140: a92e 583d 5779 4d3d 4647 2f3d fb69 283e
00000150: 1855 813d 2969 22be 7605 0a3e d042 e73d
00000160: 39e3 f0bc c73f 863d c3af 013e c924 1d3e
00000170: 307c c53d 2ba8 33be 6fb6 63bd 48f2 9e3b
00000180: d603 9dbc 53a1 9bbd e144 6b3c 6a9e 33be
00000190: 69c3 0d3e 910c e9bd b291 9ebd e6d4 36bc
000001a0: 80c7 833d b455 8bbd 8bd3 9abd 5162 abbd
000001b0: 03ec 6d3d b0a9 f53d e79b eabd 2f5a 8a3d
000001c0: b244 a13d 861a 213e 9f9b 7a3c a3ef 8a3d
000001d0: ff8e f73d 883a 063e 8ecb babd fde9 97bb
000001e0: aff3 063e 2afa 0bbe ab40 ce3d 9dd4 01be
000001f0: 6715 84bc 14eb 44bd 92ab 0a3e ae20 0a3e
00000200: eee6 9fbd c9dc 293e 962b dfbd 0210 c83c
00000210: 11f8 debd ae78 923c a885 113e 54c2 11be
00000220: 622e e3bc dc39 31be 23c9 dd3b 2d49 54bd
00000230: c088 d0bd 0a02 fb3d ddee 0abe ef74 2b3e
00000240: fe9e 04be f7f0 123e 8ee3 0a3e 42ee f9bd
00000250: 42ba 863d 4cf5 1d3e 2145 d539 f06d b03d
00000260: 391f 33be 5931 d6bc 1df5 f2bc 1869 223e
00000270: 3aaf ec3d 510e f0bd c2cd 97bd c7b8 3dbc
00000280: bd1c 5d3d a7c5 6d3d c0c1 bdbc 3525 903d
00000290: 4601 1dbc f531 683d 60aa 2bbe e5e7 6abd
000002a0: 3cee 7b3c a038 9938 f40f ec3c 6eeb 87bd
000002b0: a9f0 39bd b883 b13c 9571 07be 3477 2abe
000002c0: ff16 1d3d fa6f 233e 45e4 e2bd efb4 15be
000002d0: 2b50 bb3d 21b9 0d3e e585 92bb 95d2 64bc
000002e0: 8fdd 2dbe b9f6 5d3d 2f0d 9d3d 587f 0bbd
000002f0: 5287 e6bd 73e9 b2bd 0ae1 efbb 9cef 22bc
00000300: d7cb 14ba aca0 843d 96e4 27be ce2a 0abc
00000310: ba09 f13d 3f36 2cbe 937e 1cbe 30fb 233e
00000320: 3aed 183e 2e7c a5bd 1994 09be 843a b0bd
00000330: bd2b d93d 21a1 2e3e 1d83 0dbc d439 c6bc
00000340: 2f11 1bbe 4d72 293e 893d b23d 9fec a7bd
00000350: 6a67 a2bd 47c0 b7bb 78a1 09be 8f16 db3d
00000360: b878 1e3e a852 003d dd9e 443d 805f 0f3e
00000370: df69 023c 8750 383d db76 7dbc 3073 abbd
00000380: 08ab a63d 8d30 2abe c73e 5b3d d761 43bd
00000390: 8972 493d 40e2 1dbe 5d14 0d3c 0f38 af3d
000003a0: 8e7d 0abe 1356 c7bd 744b 2c3e 5f6c b6bd
000003b0: ca72 273e 6bd5 0ebe 02ab 8bbd 88ea 0d3e
000003c0: 58f2 88bd de18 093e 4ff2 093e 3cd7 16bd
000003d0: 4855 96bd 0469 59bd bf13 693d c6b8 f03d
000003e0: 1eb7 a0bd f494 a93d 766c b3bc fab6 2a3d
000003f0: 9c2d a0bc 1f66 0c3e ea2b e8bd f829 e6bd

bias f4 [64]
0.07303726 -0.09321494 0.09553346 0.08600914 -0.13855526 -0.13116314 -0.1637602 0.07701373
-0.0673368 -0.10043366 0.094996236 0.15706067 -0.13844196 0.1423091 0.14416009 -0.093716405
0.068622425 0.004401374 0.14904763 0.11129271 0.17080902 0.10100867 0.033021003 -0.13129196
-0.13145591 -0.05132112 0.030456746 -0.005772938 -0.07621446 0.061810628 -0.15974638 -0.12974247
0.12766303 -0.14155735 -0.08806649 0.17210548 0.095874615 -0.007208818 -0.059480496 -0.1482301
-0.117966965 0.014981181 -0.12349791 -0.08658269 -0.10467838 -0.07853924 -0.05639404 0.008201145
0.0760896 0.13921112 -0.04731694 0.10920661 0.017469995 0.037199736 0.09281202 0.12426971
0.15311559 -0.17096807 0.019812938 -0.15511832 -0.014286749 -0.10399766 -0.1441601 0.09734196
00000000: 8f94 953d 79e7 bebd 0ca7 c33d 8f25 b03d
00000010: 6ee1 0dbe a14f 06be c1b0 27be 60b9 9d3d
00000020: e0e7 89bd 2ab0 cdbd 638d c23d 83d4 203e
00000030: bbc3 0dbe 7ab9 113e b49e 133e 63ee bfbd
00000040: ea89 8c3d 6739 903b f19f 183e 6fed e33d
00000050: 8fe8 2e3e a2dd ce3d 0841 073d 6671 06be
00000060: 619c 06be 1836 52bd 6d80 f93c ea2a bdbb
00000070: 5416 9cbd 242d 7d3d 8e94 23be 36db 04be
00000080: 19ba 023e 69f4 10be 345c b4bd 6b3c 303e
00000090: e959 c43d f337 ecbb d2a1 73bd a2c9 17be
000000a0: aa98 f1bd a173 753c 79ec fcbd 4452 b1bd
000000b0: 9e61 d6bd 2ed9 a0bd 70fd 66bd 185e 063c
000000c0: ddd4 9b3d 5c8d 0e3e 68cf 41bd b7a7 df3d
000000d0: 3c1d 8f3c c05e 183d 3a14 be3d 1e81 fe3d
000000e0: 55ca 1c3e 4112 2fbe be4e a23c 56d7 1ebe
000000f0: f812 6abc bafc d4bd b59e 13be 395b c73d

weight f4 [32, 64]
-0.09810433 0.052566186 -0.033760726 0.08526793 -0.041625157 0.080570266 0.036133096 -0.025164038
0.0038703978 -0.011297092 0.08052562 0.059043884 -0.048815995 -0.024598747 0.038284868 0.05551307
0.108237654 0.085996926 -0.09485586 0.026339903 -0.10012701 -0.11408134 0.029115409 -0.117472306
0.0724463 -0.011409551 0.017644987 -0.11790015 -0.103796154 -0.034468397 0.04720193 -0.06455386
-0.0107292235 -0.08602798 0.101798385 0.09080073 -0.021961212 -0.07438074 -0.046897084 -0.042877987
-0.006065756 -0.009821758 0.10378289 -0.0082217455 0.06505868 -0.001040563 -0.036328003 0.08874203
0.11650537 -0.06519906 -0.05842711 -0.0588253 0.11054486 0.06354222 -0.0030344427 -0.113860026
-0.087318495 0.029036775 0.063992485 -0.0806576 0.067143664 0.0004002452 0.011216626 -0.032949686
0.018804476 0.08311789 0.08970231 0.0681829 0.008458436 -0.10948129 0.10182534 0.008306697
-0.11700152 0.02963394 0.037514776 0.07604407 -0.08146003 -0.09185079 -0.020313844 0.061933264
0.066155955 0.027427763 -0.109274775 -0.06673674 0.079678446 -0.01703909 -0.0569977 0.0767906
-0.11275433 0.10288006 0.076694235 0.063338086 -0.08660503 -0.023885146 -0.09531577 0.07229793
-0.08778845 0.00037261844 0.06252867 -0.03302802 0.12490885 -0.04564719 0.091064945 -0.020412177
-0.07392898 -0.027069882 -0.056818053 0.08047128 -0.0066896826 -0.11934471 -0.08901809 0.06228687
0.11444549 0.09760402 0.11965202 -0.106853336 0.05475217 0.016506627 -0.02511105 -0.0047006607
0.09107602 0.0604582 -0.075376704 0.09006867 -0.027406856 -0.007493645 -0.08128987 -0.07211129
-0.0044894516 -0.06527832 0.11903232 -0.061583385 0.011447325 0.010547355 0.102895185 -0.031580627
0.039514944 -0.116407484 -0.007198125 -0.1158545 -0.07744056 -0.06942323 0.06786512 0.10795565
0.06516084 -0.04246892 -0.085151926 -0.057324752 -0.040423557 -0.0635881 0.0087672025 -0.06134352
0.0838999 0.077939466 0.0010577142 0.08275196 0.08398433 0.04426214 0.06513378 0.04116547
0.09602459 0.10352634 0.11377266 0.07840401 0.05076064 0.12406656 -0.1081761 -0.030587241
0.11382572 -0.083724454 -0.10811129 -0.06535034 0.08626889 0.020726636 -0.020515904 0.10454622
0.032234997 -0.049539194 0.09679237 -0.040954605 0.058538422 0.016484216 0.10928263 -0.026845723
-0.08421075 0.05602351 0.11781359 0.08652942 -0.065766215 0.04884492 -0.121787265 0.058084756
0.039410993 0.050479382 0.013009891 -0.012825951 0.09939946 0.071275786 0.003525272 -0.06861317
0.09942764 -0.09423244 0.039399877 -0.06802374 -0.0030537099 -0.060213506 0.09192994 0.10050888
-0.08680588 -0.110443175 0.0036399215 0.055883452 -0.11012232 -0.06982082 0.029548347 0.09802596
0.057370573 -0.10058196 -0.036926955 0.12414618 -0.028169394 0.10333745 0.033410147 -0.051745474
0.10790223 0.0132802725 0.061136544 -0.0066521615 -0.028568968 0.09905431 0.09143782 -0.083817795
0.06905201 0.11177814 0.01067993 -0.1053756 0.04203938 -0.08067651 -0.08614378 -0.0014188141
0.065121695 -0.0026791394 0.099172726 0.046000436 -0.109189406 -0.04359372 -0.095753 0.047677815
-0.003721878 0.10151765 -0.122180134 -0.0022295564 0.09093799 0.10351549 -0.02420415 -0.09579331
00000000: ecea c8bd a44f 573d b048 0abd f4a0 ae3d
00000010: 247f 2abd 0602 a53d 4c00 143d d024 cebc
00000020: 80a6 7d3b 7017 39bc 9eea a43d 00d8 713d
00000030: 48f3 47bd 5083 c9bc 98d0 1c3d ac61 633d
00000040: b4ab dd3d 281f b03d ca43 c2bd c8c6 d73c
00000050: 640f cdbd 7aa3 e9bd 7083 ee3c 5295 f0bd
00000060: ba5e 943d 20ef 3abc 388c 903c a275 f1bd
00000070: 1493 d4bd bc2e 0dbd d056 413d d034 84bd
00000080: a0c9 2fbc 702f b0bd ac7b d03d bcf5 b93d
00000090: 00e8 b3bc ee54 98bd 2817 40bd d4a0 2fbd
000000a0: 40c3 c6bb 70eb 20bc 208c d43d 80b4 06bc
000000b0: 7c3d 853d 8063 88ba accc 14bd 62be b53d
000000c0: 5e9a ee3d 1687 85bd 4451 6fbd ccf2 70bd
000000d0: 5865 e23d 6c22 823d 80dd 46bb 722f e9bd
000000e0: 0ad4 b2bd 88de ed3c 7e0e 833d d02f a5bd
000000f0: 9e82 893d 00d8 d139 f0c5 373c 40f6 06bd
00000100: d80b 9a3c b639 aa3d d8b5 b73d 7aa3 8b3d
00000110: 4095 0a3c ba37 e0bd ce89 d03d d018 083c
00000120: 7e9e efbd e0c2 f23c 18a9 193d febc 9b3d
00000130: 84d4 a6bd 441c bcbd 3869 a6bc bcad 7d3d
00000140: c67c 873d 30b0 e03c 74cb dfbd 46ad 88bd
00000150: 742e a33d 9095 8bbc 6c76 69bd 6444 9d3d
00000160: beeb e6bd c8b2 d23d de11 9d3d 66b7 813d
00000170: fa5d b1bd c8aa c3bc ea34 c3bd f010 943d
00000180: 6eca b3bd 005c c339 080f 803d 6448 07bd
00000190: 36d0 ff3d 8cf8 3abd 4280 ba3d 7037 a7bc
000001a0: 1468 97bd a8c1 ddbc 0cba 68bd 20ce a43d
000001b0: 2035 dbbb 006b f4bd 1e4f b6bd 8420 7f3d
000001c0: 6662 ea3d 9ee4 c73d 1e0c f53d ecd5 dabd
000001d0: d043 603d e838 873c b0b5 cdbc 0008 9abb
000001e0: 1086 ba3d 04a3 773d 1a5f 9abd ec75 b83d
000001f0: 5884 e0bc 408d f5bb 4e7b a6bd 16af 93bd
00000200: 401c 93bb a4b0 85bd 38c7 f33d dc3e 7cbd
00000210: 908d 3b3c d0ce 2c3c b6ba d23d b05a 01bd
00000220: 6cda 213d 0c67 eebd 40de ebbb 2045 edbd
00000230: 2899 9ebd c42d 8ebd defc 8a3d da17 dd3d
00000240: 0c73 853d e4f3 2dbd 2264 aebd 5ccd 6abd
00000250: 2c93 25bd 7a3a 82bd 50a4 0f3c 5843 7bbd
00000260: b6d3 ab3d ba9e 9f3d 00a3 8a3a dc79 a93d
00000270: faff ab3d 384c 353d dc64 853d 209d 283d
00000280: 8aa8 c43d 9e05 d43d a401 e93d 4892 a03d
00000290: 64ea 4f3d 9c16 fe3d 6e8b ddbd 1892 fabc
000002a0: 761d e93d ba77 abbd 7469 ddbd 66d6 85bd
000002b0: bead b03d e8ca a93c f810 a8bc 541c d63d
000002c0: d808 043d 9ce9 4abd 143b c63d 04c0 27bd
000002d0: fcc5 6f3d e809 873c 92cf df3d 90eb dbbc
000002e0: b076 acbd e878 653d 4048 f13d 5636 b13d
000002f0: 70b0 86bd 9c11 483d 9a6b f9bd 48ea 6d3d
00000300: 6c6d 213d 78c3 4e3d 7027 553c f023 52bc
00000310: f291 cb3d 0af9 913d 4008 673b 1085 8cbd
00000320: b8a0 cb3d f0fc c0bd c461 213d 0850 8bbd
00000330: c020 48bb 70a2 76bd c445 bc3d 9ad7 cd3d
00000340: 48c7 b1bd 0830 e2bd c08b 6e3b 0ce6 643d
00000350: d087 e1bd 38fe 8ebd 600f f23c d6c1 c83d
00000360: 68fd 6a3d eafd cdbd b840 17bd 5a40 fe3d
00000370: 80c3 e6bc 96a2 d33d 14d9 083d 10f3 53bd
00000380: d8fb dc3d 8095 593c 506a 7a3d 60fa d9bb
00000390: 7809 eabc fcdc ca3d c043 bb3d aaa8 abbd
000003a0: 246b 8d3d f0eb e43d e0fa 2e3c 2acf d7bd
000003b0: 7c31 2c3d ba39 a5bd 266c b0bd 80f7 b9ba
000003c0: 865e 853d 8094 2fbb 121b cb3d f46a 3c3d
000003d0: b29e dfbd 548f 32bd 261a c4bd d049 433d
000003e0: c0ea 73bb 7ce8 cf3d 9439 fabd c01d 12bb
000003f0: b23d ba3d eeff d33d c847 c6bc 482f c4bd

bias f4 [32]
0.023347005 -0.085690975 -0.048662513 -0.016329765 -0.009375557 0.085615754 -0.022799253 -0.058499366
-0.11573309 0.032582268 0.044119045 0.073038116 0.0717815 0.0030960739 -0.109374955 0.011468872
-0.1191075 -0.11269978 0.047610253 -0.033054546 0.10999073 0.11984086 -0.055318728 -0.031518593
-0.022509977 -0.02371703 -0.116154015 -0.11091405 0.09807481 -0.07948755 0.0027008802 -0.08076587
00000000: 3842 bf3c c07e afbd 5852 47bd 00c6 85bc
00000010: f09b 19bc 5057 af3d 80c5 babc 089d 6fbd
00000020: 7805 edbd fc74 053d 2cb6 343d 0295 953d
00000030: 2e02 933d 80e7 4a3b faff dfbd f0e7 3b3c
00000040: a2ee f3bd 24cf e6bd f802 433d 3464 07bd
00000050: d242 e13d 206f f53d e495 62bd a419 01bd
00000060: d866 b8bc 384a c2bc 28e2 edbd e826 e3bd
00000070: 72db c83d 5eca a2bd 4001 313b 9468 a5bd

weight f4 [16, 32]
-0.12918104 0.12605998 0.058653764 0.16969733 0.1647993 -0.0011891733 0.07405827 -0.1425247
0.13917193 0.0988512 0.17066118 0.15117694 0.16411744 -0.11300261 0.09986129 -0.093621485
0.15842381 0.016537033 -0.08068911 -0.12919727 0.06367885 -0.10492592 -0.1752371 0.08018453
0.09876962 0.10221203 -0.14772455 -0.06940117 0.013934591 -0.10302342 -0.090219244 -0.17454481
0.13133286 -0.15234764 -0.061399885 -0.07751005 -0.16723852 -0.046829488 -0.09387275 -0.0008770127
-0.17441607 -0.07589014 -0.13976063 0.16585717 -0.1722496 -0.10240584 0.0032637888 -0.050391257
0.1312569 0.12194171 -0.17423128 0.13876112 0.14672239 -0.05007659 -0.104713865 -0.12603265
-0.012424153 0.07936115 -0.12133643 -0.026573313 -0.079868294 -0.11110676 0.02413063 0.15541214
0.14309807 -0.064687975 -0.050912738 -0.0026913714 -0.045556825 -0.023251405 0.12499499 0.11668357
0.026223557 0.06707469 0.08071886 0.14368889 0.08194536 0.12839152 -0.027923003 0.13656093
-0.10476362 -0.10208753 0.09003197 -0.14680542 -0.09440306 -0.14184567 -0.13253544 -0.027757177
0.035803977 -0.15507269 -0.16711228 -0.15167429 -0.07126332 -0.14403933 -0.07424833 0.08162656
-0.013192975 -0.017654408 0.06873447 -0.0030149114 -0.11694254 -0.07815121 0.082626745 0.14200558
0.051117297 0.15827444 -0.076763526 -0.09635806 0.040705785 -0.04873794 -0.097447135 -0.15539683
-0.10734225 -0.089643165 0.07100827 -0.06945659 0.078694046 -0.14232479 0.096904285 0.012664411
0.08288618 0.02737678 -0.17548078 0.05881346 0.10907381 -0.08960974 -0.07277776 0.003104326
0.016718158 -0.09315138 0.14124516 0.1347779 -0.11195973 0.04609154 0.054836694 0.1486276
0.165608 0.1721037 -0.1363936 0.027017584 -0.17133874 0.03842115 0.12652723 -0.12870866
-0.06639526 0.07089496 0.09591518 0.06246953 -0.03264996 -0.05711612 -0.10128939 -0.15345795
0.05273205 0.10627692 0.117152326 -0.17043684 -0.085478805 0.06099928 0.057105545 0.17423274
0.04739908 0.12518542 0.012953455 -0.033576116 0.13200663 0.13009152 0.04918164 0.10446054
-0.12821634 0.16173366 0.12303483 -0.012983505 -0.00994929 0.08320085 0.0007807493 0.026566654
0.1099692 0.07240936 -0.131804 0.01561722 0.10431202 -0.020216284 -0.052876867 -0.15719056
0.06727773 -0.1738577 0.15064646 0.035182733 0.049280055 -0.008347267 0.060774405 -0.027625995
-0.08552961 0.012494601 -0.13957104 -0.13392149 0.07002362 0.059748426 0.051098417 0.08487545
0.16655734 0.10264831 0.026102364 0.15758982 0.0015967966 0.09844981 -0.07346021 0.07153728
0.1734877 0.13651444 0.10868583 -0.06282211 -0.05412686 -0.1336211 0.1402933 0.033537913
-0.12496593 -0.06722218 -0.10377589 0.10956166 -0.08789078 0.0066455463 0.09437202 -0.057997033
-0.05564326 0.11694895 -0.16562748 0.015353064 -0.12612587 0.089797586 -0.1739108 -0.047056764
-0.0783992 -0.07008551 -0.15282756 0.06009793 -0.0062727784 -0.03690102 -0.053809304 -0.00033837598
0.10277631 0.11595603 -0.017133873 -0.15102991 0.112494044 0.034281634 -0.11628739 0.106398836
-0.01984065 -0.020290146 0.064588316 -0.12090245 0.14688459 -0.13766299 -0.102358826 -0.04894191
00000000: 0948 04be de15 013e ee3e 703d 23c5 2d3e
00000010: 26c1 283e 09de 9bba ddab 973d fff1 11be
00000020: 1683 0e3e 7f72 ca3d cec1 2e3e 21ce 1a3e
00000030: 670e 283e ea6d e7bd 1384 cc3d 9fbc bfbd
00000040: da39 223e ac78 873c 5540 a5bd 4a4c 04be
00000050: 0f6a 823d 67e3 d6bd 5b71 33be c937 a43d
00000060: ba47 ca3d 8a54 d13d 1b45 17be 3322 8ebd
00000070: e94d 643c f1fd d2bd dec4 b8bd e0bb 32be
00000080: 1f7c 063e 0501 1cbe 727e 7bbd 97bd 9ebd
00000090: 9340 2bbe 47d0 3fbd 5b40 c0bd 53e7 65ba
000000a0: 209a 32be 4a6c 9bbd 691d 0fbe 76d6 293e
000000b0: 3362 30be 27ba d1bd 4ae5 553b 1067 4ebd
000000c0: 3568 063e 93bc f93d af69 32be 6517 0e3e
000000d0: 653e 163e 1c1d 4dbd 3974 d6bd b40e 01be
000000e0: ad8e 4bbc 1988 a23d 3c7f f8bd 47b0 d9bc
000000f0: fd91 a3bd f18b e3bd 99ad c53c 5c24 1f3e
00000100: 4d88 123e 217b 84bd e089 50bd b861 30bb
00000110: cb99 3abd bb79 bebc 60fd ff3d ccf7 ee3d
00000120: c9d2 d63c 745e 893d ee4f a53d 2e23 133e
00000130: f8d2 a73d 1179 033e c8be e4bc a1d6 0b3e
00000140: 4f8e d6bd 4413 d1bd ae62 b83d 2954 16be
00000150: 6456 c1bd fe3f 11be 5fb7 07be 0563 e3bc
00000160: 31a7 123d 60cb 1ebe 7b1f 2bbe 8150 1bbe
00000170: 81f2 91bd 0c7f 13be 820f 98bd d32b a73d
00000180: 5927 58bc fa9f 90bc a8c4 8c3d d295 45bb
00000190: 927f efbd be0d a0bd 3638 a93d e969 113e
000001a0: 5f60 513d b212 223e 3236 9dbd 6057 c5bd
000001b0: 1cbb 263d 6fa1 47bd 5d92 c7bd 5920 1fbe
000001c0: 41d6 dbbd d696 b7bd c96c 913d 423f 8ebd
000001d0: 582a a13d 97bd 11be c175 c63d 647e 4f3c
000001e0: 3bc0 a93d 4545 e03c 3cb1 33be 62e6 703d
000001f0: 1762 df3d 5085 b7bd 820c 95bd f371 4b3b
00000200: 85f4 883c 27c6 bebd 92a2 103e 3803 0a3e
00000210: 254b e5bd 7cca 3c3d 719c 603d d531 183e
00000220: 2595 293e f43b 303e c4aa 0bbe fb53 dd3c
00000230: 6c73 2fbe 7f5f 1d3d 5b90 013e 34cc 03be
00000240: 3dfa 87bd 6031 913d 2e6f c43d 0de0 7f3d
00000250: f7bb 05bd 98f2 69bd d070 cfbd 1524 1dbe
00000260: 90fd 573d b7a7 d93d 8fed ef3d ff86 2ebe
00000270: 830f afbd 62da 793d 81e7 693d 116a 323e
00000280: 8a25 423d 9b30 003e ba3a 543c 1c87 09bd
00000290: bf2c 073e b636 053e b072 493d 68ef d53d
000002a0: 254b 03be 829d 253e aff9 fb3d c4b8 54bc
000002b0: 5902 23bc 3565 aa3d 33ab 4c3a 50a2 d93c
000002c0: 8837 e13d 5c4b 943d a1f7 06be 5edf 7f3c
000002d0: 8aa1 d53d 9f9c a5bc 6a95 58bd 90f6 20be
000002e0: e8c8 893d c107 32be 1143 1a3e c51b 103d
000002f0: e2d9 493d fac2 08bc 95ee 783d e94f e2bc
00000300: 262a afbd 28b6 4c3c b6eb 0ebe b722 09be
00000310: 8b68 8f3d c4ba 743d 934c 513d 2ed3 ad3d
00000320: 028e 2a3e 4739 d23d a0d4 d53c 3a5f 213e
00000330: 9a4b d13a 0ea0 c93d 4e72 96bd 2382 923d
00000340: c2a6 313e 71ca 0b3e ad96 de3d e1a8 80bd
00000350: 20b4 5dbd f8d3 08be 0ca9 0f3e 0d5f 093d
00000360: 23ee ffbd c8ab 89bd 7488 d4bd dd61 e03d
00000370: 1500 b4bd e2c2 d93b 1e46 c13d 4c8e 6dbd
00000380: 30ea 63bd ee82 ef3d 409a 29be 6b8b 7b3c
00000390: 2427 01be cce7 b73d ac15 32be 98be 40bd
000003a0: c38f a0bd fe88 8fbd d47e 1cbe 3f29 763d
000003b0: e18b cdbb 8625 17bd 2567 5cbd 0e68 b1b9
000003c0: 637c d23d 5b7a ed3d 565c 8cbc 96a7 1abe
000003d0: 4763 e63d e66a 0c3d 1528 eebd a2e7 d93d
000003e0: dc88 a2bc 8537 a6bc e146 843d b49b f7bd
000003f0: ea68 163e 87f7 0cbe 81a1 d1bd 5077 48bd

bias f4 [16]
-0.14841041 0.1634715 0.037186943 0.033218544 0.09949857 0.061735015 0.15856011 0.17191954
0.04091654 -0.017611735 -0.1315644 0.1729274 -0.019756123 -0.1034769 -0.121080205 -0.026484426
00000000: e6f8 17be 1365 273e 5651 183d 2b10 083d
00000010: e8c5 cb3d dbdd 7c3d 955d 223e ad0b 303e
00000020: 1a98 273d 7c46 90bc d1b8 06be e113 313e
00000030: 98d7 a1bc b2eb d3bd e6f8 f7bd def5 d8bc

weight f4 [4, 16]
-0.19402829 -0.23098758 -0.18703291 -0.23914367 0.23854548 0.12132475 -0.18912807 0.10742119
0.11754531 -0.20161232 -0.14924926 -0.23825985 0.18267265 0.17079547 0.19923857 0.048152983
-0.13361207 0.14396653 0.0759297 -0.06377953 0.06371203 -0.044979274 0.1589427 -0.1549837
0.19197345 -0.08343226 0.063999355 0.20221016 -0.23101664 -0.16320342 0.0692969 0.0697805
-0.21528456 -0.00063452125 -0.101260364 -0.12833107 0.028654754 0.109395504 0.13448122 -0.10368794
0.15854108 -0.1441231 -0.22780699 -0.17112857 -0.18683943 0.019790322 0.21036243 -0.114702076
0.1859313 0.10361904 -0.18386444 -0.20316792 -0.100060135 0.0066851974 -0.08578676 0.027485669
0.16956308 0.12305969 0.18701947 0.049060374 -0.077009976 0.06405944 -0.06572446 -0.116131246
00000000: 5aaf 46be 0288 6cbe 8e85 3fbe 14e2 74be
00000010: 4445 743e 1c79 f83d caaa 41be a4ff db3d
00000020: 98bb f03d 7673 4ebe ccd4 18be 64fa 73be
00000030: 8a0e 3b3e 02e5 2e3e 3205 4c3e 103c 453d
00000040: 9ad1 08be f66b 133e 0881 9b3d d89e 82bd
00000050: 747b 823d 303c 38bd e0c1 223e 0cb4 1ebe
00000060: b094 443e 88de aabd 1812 833d 2e10 4f3e
00000070: a08f 6cbe cc1e 27be 88eb 8d3d 14e9 8e3d
00000080: 8e73 5cbe 0056 26ba 9861 cfbd 3869 03be
00000090: 60bd ea3c c00a e03d 72b5 093e 585a d4bd
000000a0: 9858 223e 0295 13be 3c46 69be 543c 2fbe
000000b0: d652 3fbe 501f a23c 4069 573e ece8 eabd
000000c0: c664 3e3e 3836 d43d f646 3cbe 400b 50be
000000d0: 54ec ccbd 800f db3b f8b0 afbd a029 e13c
000000e0: f2a1 2d3e b806 fc3d 0882 3f3e 88f3 483d
000000f0: 68b7 9dbd 9831 833d 8c9a 86bd 38d6 edbd

bias f4 [4]
-0.02040273 0.23446473 0.18176848 -0.111279726
00000000: a023 a7bc 8617 703e 8421 3a3e a0e6 e3bd

weight f4 [32, 10, 3]
-0.102159694 -0.023405151 -0.01144275 -0.036101036 0.05039068 0.13568965 -0.099161 0.064587645
0.098832205 -0.025027718 0.013399054 -0.16004242 0.0042607784 0.018169338 0.0014973349 0.10509732
0.14494704 0.0112956 -0.14311668 0.13241749 0.16193245 -0.01876556 0.18272406 0.10207851
-0.029481657 0.10329224 0.04291819 -0.068433 0.03495483 0.11488773 -0.07642746 -0.024104878
-0.09637015 0.16553134 -0.101083934 0.16564614 0.12580071 0.033104517 -0.07900887 0.1370606
0.15704957 0.115608834 0.114304096 -0.0032273622 -0.059691772 -0.027690457 0.023665449 -0.11403502
-0.13107494 0.16153844 0.13516174 -0.0055394885 -0.13538489 0.0495113 -0.098181665 -0.05080249
0.07357709 -0.095445335 0.08762672 -0.131234 -0.08579257 0.14728494 0.017090255 -0.12531467
-0.120805584 -0.019190338 -0.006126674 -0.06950562 0.011406076 -0.096261986 -0.1724437 -0.17575526
0.112676695 0.09410565 -0.06647758 0.058320977 0.17225178 -0.07207462 -0.157994 0.05337837
-0.1050995 0.021752242 0.023170408 0.16252646 0.14000478 -0.0075528435 0.14346707 0.058950428
0.06427222 -0.14860454 -0.17659779 0.11464146 0.10720933 0.17734598 -0.013207098 -0.16086532
0.03959851 -0.12603356 0.11927507 -0.03135567 -0.18392947 0.039162785 -0.15488072 0.024443144
0.07536559 -0.05892329 0.053270675 -0.1784312 -0.029279726 -0.05126832 0.14192383 0.13515411
-0.16692372 -0.09166112 0.05400457 -0.007963646 0.011687688 0.1396498 -0.016961964 0.1176962
0.052151557 -0.15194306 -0.11135595 0.12275041 -0.08273881 -0.017466674 0.12498216 0.15975262
0.03302466 0.1797106 -0.08780575 -0.037630104 -0.11036288 -0.10432388 -0.07933651 -0.14362417
-0.108162224 0.14250793 0.06447888 -0.070471816 -0.18133487 -0.10364375 -0.096557744 0.11014036
0.11576732 0.15539667 -0.01983731 0.13863555 -0.180212 0.08318124 0.027283112 -0.07519976
-0.09677809 -0.15280923 0.09374478 -0.006194253 0.02794939 0.15553673 0.14209805 0.15684932
0.077140234 -0.07554349 0.018691016 0.14332624 -0.10839097 -0.032288738 0.114664845 -0.15959701
0.06451238 0.12043399 -0.0868718 0.08324799 -0.1678228 0.060380075 -0.021211416 -0.029422276
0.0922861 0.0366502 0.05614117 -0.08486155 0.10820199 0.11147383 0.15735419 -0.10720609
-0.12283705 -0.13310225 -0.043119185 -0.12101829 0.060387976 0.12037588 0.07813469 0.05248436
-0.14786795 -0.072933406 -0.17845511 6.466245e-05 0.12118347 0.15167312 0.12050241 -0.05301308
0.07695225 0.13833395 0.008073002 0.149221 0.03521204 0.03376905 0.00042003384 0.09133519
-0.01387519 0.0030422255 -0.10496064 -0.024745414 0.16507833 0.0032333399 0.12555459 0.014791615
-0.021873578 0.024596836 0.111790724 -0.071737334 0.13228425 0.07578199 0.16959666 -0.0731859
0.07075105 -0.1657724 -0.08205265 -0.16894166 -0.11845398 -0.007115922 -0.04395662 0.005700067
-0.02732807 -0.11575194 0.058506105 -0.06477361 -0.08599326 -0.004582393 0.15222226 0.075459786
0.0824427 -0.026813442 -0.11172018 -0.055950493 0.14677808 -0.1717726 0.070168875 -0.04179334
0.06398102 0.079713166 -0.033214048 0.13350238 -0.06030103 0.082180694 -0.16144569 0.16211843
00000000: 1a39 d1bd 29bc bfbc 5f7a 3bbc aede 13bd
00000010: 7566 4e3d 3af2 0a3e ec14 cbbd 8746 843d
00000020: 8a68 ca3d ee06 cdbc b587 5b3c 29e2 23be
00000030: 009e 8b3b ddd7 943c 3942 c43a 443d d73d
00000040: ff6c 143e 2e11 393c 2e8d 12be 7398 073e
00000050: 9fd1 253e 3bba 99bc 041c 3b3e 8a0e d13d
00000060: 8483 f1bc e28a d33d fcca 2f3d 9a26 8cbd
00000070: cc2c 0f3d 424a eb3d 0086 9cbd 9877 c5bc
00000080: b75d c5bd 0c81 293e 1805 cfbd 249f 293e
00000090: e7d1 003e 9a98 073d 67cf a1bd 9d59 0c3e
000000a0: 9ad1 203e 53c4 ec3d 4418 ea3d 2782 53bb
000000b0: 5c7f 74bd 19d7 e2bc 0bde c13c 318b e9bd
000000c0: 8238 06be 556a 253e d767 0a3e 9984 b5bb
000000d0: 56a2 0abe 5ccc 4a3d 7813 c9bd 4616 50bd
000000e0: 96af 963d d878 c3bd a375 b33d 3562 06be
000000f0: 04b4 afbd ddd1 163e dd00 8c3c 7d52 00be
00000100: eb68 f7bd 0e35 9dbc 44c2 c8bb f658 8ebd
00000110: 8de0 3a3c 0125 c5bd 1595 30be 30f9 33be
00000120: 0ac3 e63d 77ba c03d 6625 88bd fae1 6e3d
00000130: c562 303e dc9b 93bd 2ec9 21be 47a3 5a3d
00000140: 683e d7bd c231 b23c decf bd3c 566d 263e
00000150: 6a5d 0f3e d87d f7bb 08e9 123e 0176 713d
00000160: 27a1 833d ca2b 18be 0dd6 34be 24c9 ea3d
00000170: 9190 db3d 2f9a 353e 9562 58bc e1b9 24be
00000180: 0c32 223d f10e 01be 7d46 f43d ce6e 00bd
00000190: 0258 3cbe 2869 203d 0d99 1ebe fd3c c83c
000001a0: 4659 9a3d 8c59 71bd 5a32 5a3d abb6 36be
000001b0: 09dc efbc bbfe 51bd 7b54 113e d765 0a3e
000001c0: 0dee 2abe d3b8 bbbd e533 5d3d f479 02bc
000001d0: b77d 3f3c 5b00 0f3e d1f3 8abc b50a f13d
000001e0: df9c 553d f696 1bbe 970e e4bd 9164 fb3d
000001f0: f772 a9bd 4516 8fbc a6f6 ff3d 3196 233e
00000200: de44 073d 0e06 383e 80d3 b3bd 0622 1abd
00000210: ef05 e2bd c2a7 d5bd 2e7b a2bd 3712 13be
00000220: 2884 ddbd 99ed 113e 810d 843d 8753 90bd
00000230: d9af 39be 2d43 d4bd 11c0 c5bd 4591 e13d
00000240: 6b17 ed3d 4e20 1f3e db81 a2bc 7af6 0d3e
00000250: 7f89 38be ed5a aa3d d580 df3c 5502 9abd
00000260: 9733 c6bd 067a 1cbe 43fd bf3d 29f9 cabb
00000270: 1ef6 e43c 0545 1f3e 2782 113e 1c9d 203e
00000280: b3fb 9d3d 8cb6 9abd e71d 993c 1dc4 123e
00000290: 16fc ddbd 3241 04bd 67d5 ea3d 666d 23be
000002a0: 111f 843d 19a6 f63d d8e9 b1bd ec7d aa3d
000002b0: bdd9 2bbe 1951 773d 90c3 adbc fc06 f1bc
000002c0: 7f00 bd3d 851e 163d 49f4 653d e4cb adbd
000002d0: 0199 dd3d 644c e43d 7521 213e de8e dbbd
000002e0: fe91 fbbd f54b 08be be9d 30bd 70d8 f7bd
000002f0: 6259 773d a187 f63d 1505 a03d d7f9 563d
00000300: b26a 17be 1c5e 95bd f0bc 36be 639b 8738
00000310: 0a2f f83d 3350 1b3e f8c9 f63d 3e24 59bd
00000320: 2499 9d3d 6aa7 0d3e a044 043c 64cd 183e
00000330: 803a 103d 6a51 0a3d fd37 dc39 f20d bb3d
00000340: c454 63bc 1360 473b 9bf5 d6bd e5b6 cabc
00000350: 4b0a 293e 71e6 533b 6291 003e 8858 723c
00000360: 3830 b3bc 4e7f c93c 89f2 e43d 06eb 92bd
00000370: 8675 073e 9733 9b3d bfaa 2d3e 7de2 95bd
00000380: ede5 903d 3dc0 29be 380b a8bd 0bff 2cbe
00000390: 0098 f2bd ae2c e9bb db0b 34bd a1c7 ba3b
000003a0: 1edf dfbc 5a0f edbd 19a4 6f3d 07a8 84bd
000003b0: 3c1d b0bd e627 96bb 27e0 1b3e a98a 9a3d
000003c0: b8d7 a83d dda7 dbbc 8dcd e4bd 582c 65bd
000003d0: fe4c 163e 28e5 2fbe b3b4 8f3d 7e2f 2bbd
000003e0: 7b08 833d a840 a33d 740b 08bd d9b4 083e
000003f0: 36fe 76bd 5a4e a83d 0552 25be 6002 263e

bias f4 [32]
0.10434824 -0.06022271 0.018039012 0.18366033 0.0864644 0.11221818 -0.09796614 -0.1146598
0.15605679 0.16181462 -0.044047397 -0.13893636 0.08732401 -0.09107253 -0.08103991 -0.029011277
-0.027260473 -0.003107459 0.06059499 -0.013672139 0.1354077 0.06810341 0.0390953 0.23335148
-0.10171304 -0.023315923 -0.038335115 0.09279958 0.1517321 0.11754825 0.05963969 -0.042524066
00000000: 88b4 d53d 17ac 76bd 8dc6 933c 7411 3c3e
00000010: 3f14 b13d a5d2 e53d 79a2 c8bd c2d2 eabd
00000020: 5acd 1f3e bbb2 253e 0b6b 34bd 5545 0ebe
00000030: eed6 b23d 3c84 babd 41f8 a5bd 0fa9 edbc
00000040: 5b51 dfbc 83a6 4bbb 7432 783d 1b01 60bc
00000050: 51a8 0a3e cd79 8b3d 6522 203d b1f3 6e3e
00000060: ed4e d0bd 0901 bfbc 4805 1dbd b50d be3d
00000070: a95f 1b3e 23bd f03d bf48 743d b72d 2ebd

weight f4 [64, 32, 3]
0.06431266 -0.13029766 0.043151814 0.00060011266 0.09470908 -0.025830602 -0.04545981 -0.05687646
-0.08996238 0.08818169 -0.073307954 0.009740893 -0.0539491 -0.05342278 -0.0208029 -0.06776472
-0.03372757 0.040932417 0.10053274 -0.051497582 0.08180144 -0.010693646 -0.119810246 0.0017319121
0.09011636 -0.14544679 0.0073217903 0.027678803 0.017681574 -0.08401854 -0.08360266 0.05056626
0.020072835 0.052742694 -0.00458541 -0.052760676 0.07884048 0.09139166 -0.008018337 0.028641863
0.028484995 0.049300767 0.079807796 -0.030374808 -0.033175204 -0.09535741 -0.0692219 -0.07277173
-0.081763804 -0.022540435 -0.06278628 -0.07785919 -0.12769905 -0.015148124 0.033168305 0.0862634
-0.09101839 -0.099296734 0.03593376 0.07118412 -0.028041238 0.0031423643 -0.004893916 -0.07997833
0.080772236 -0.041582305 -0.00047985654 0.044220984 0.014044527 0.06870774 -0.105299845 -0.049368817
0.05703748 0.031248577 0.07754244 0.07848957 0.06247103 -0.032689895 -0.04378253 -0.027238656
0.085161895 -0.051078003 0.025654117 -0.09886661 -0.021867175 -0.066287905 -0.015497273 0.0068126363
0.06158916 0.050046176 0.062791854 0.094078824 -0.042539585 -0.020119153 0.08618861 -0.09147735
0.017415885 -0.011656467 0.040316682 -0.0710482 -0.036124367 0.04209984 -0.042953048 -0.005047255
0.0593163 -0.06110766 0.1109055 -0.06494885 -0.01892197 0.062827416 -0.028608697 -0.021956783
-0.08324032 -0.009380404 0.06809282 -0.000800954 0.031491693 0.050708413 -0.06698798 -0.07139907
0.034519665 0.0887438 -0.08095283 0.061506584 0.085539795 -0.06189845 0.01478884 0.094042145
0.035924025 0.032463826 -0.016824972 0.03268384 0.062143244 -0.07777012 0.06687412 0.03417254
-0.10672206 -0.007851591 0.08192885 0.088270254 0.003910271 0.093927026 -0.021932129 0.079510145
-0.03630511 -0.09572095 -0.07897534 -0.018985773 -0.0016176278 -0.064176016 -0.032381177 -0.068176396
0.018941302 -0.05257771 -0.03322716 -0.0917474 0.097029984 -0.027108546 -0.050342303 -0.10087412
0.03368261 0.0922812 -0.0335049 0.10180719 0.06527106 0.086399674 0.10473949 -0.0511881
0.0359401 -0.07944117 -0.010434799 0.09189261 -0.078328334 0.06752811 -0.0010062874 -0.028006911
-0.027008489 -0.04494758 0.100434974 -0.07846424 0.0008567702 -0.06516915 0.030340182 0.083699815
-0.049076974 -0.03316558 0.04363672 0.044366017 0.059171006 -0.037654854 -0.051870257 0.09271148
0.091368794 0.045211054 -0.0371124 -0.0210658 0.0715348 -0.075275205 -0.02549289 0.08735874
0.04844014 0.09070021 -0.0025502287 0.029276382 0.024328714 0.08480593 -0.06347635 0.054053355
-0.011254379 -0.09385766 0.036546014 -0.03659074 0.007717648 -0.035574887 -0.046003193 0.013061539
0.06377921 0.040242452 -0.0366515 0.036718052 -0.082376055 0.07780472 0.08131476 0.033341903
0.04606186 -0.08492756 0.010525718 0.008451936 -0.07807481 -0.015140805 0.023822164 0.0560473
-0.012398032 -0.05047019 -0.022325106 -0.080842406 0.031362724 0.04099335 0.059977617 0.0171077
-0.035147775 0.10867938 -0.0036697467 0.063540064 0.0600057 -0.0005512753 -0.09158687 -0.016590156
-0.019759225 0.0852516 0.0101102125 -0.088522874 0.07184995 -0.02893589 0.024508283 -0.08311923
00000000: 5bb6 833d c06c 05be f5bf 303d e150 1d3a
00000010: d6f6 c13d b39a d3bc 1134 3abd 4af7 68bd
00000020: 323e b8bd 9a98 b43d 7b22 96bd 4498 1f3c
00000030: bbf9 5cbd d8d1 5abd d86a aabc 3bc8 8abd
00000040: ec25 0abd c0a8 273d 1ce4 cd3d 21ef 52bd
00000050: 8387 a73d 6734 2fbc 135f f5bd 5401 e33a
00000060: ed8e b83d 01f0 14be a1eb ef3b a8be e23c
00000070: f3d8 903c ea11 acbd df37 abbd 911e 4f3d
00000080: c96f a43c b908 583d 3541 96bb 941b 58bd
00000090: 1e77 a13d 8d2b bb3d 585f 03bc 57a2 ea3c
000000a0: 5d59 e93c 9aef 493d 4572 a33d 97d4 f8bc
000000b0: b9e2 07bd bf4a c3bd 36c4 8dbd 5809 95bd
000000c0: c873 a7bd b8a6 b8bc 1896 80bd a474 9fbd
000000d0: 8ac3 02be d62f 78bc 7ddb 073d deaa b03d
000000e0: da67 babd 165c cbbd 472f 133d fbc8 913d
000000f0: bdb6 e5bc 20f0 4d3b 255d a0bb aecb a3bd
00000100: ea6b a53d 3552 2abd 4195 fbb9 1021 353d
00000110: 041b 663c a5b6 8c3d 72a7 d7bd f536 4abd
00000120: 22a0 693d 04fd ff3c 92ce 9e3d 24bf a03d
00000130: 9fe1 7f3d d7e5 05bd 4f55 33bd 9a23 dfbc
00000140: 5c69 ae3d 2b37 51bd 9528 d23c 947a cabd
00000150: ca22 b3bc f4c1 87bd 46e8 7dbc 893c df3b
00000160: ea44 7c3d 38fd 4c3d 0499 803d 66ac c03d
00000170: fd3d 2ebd ecd0 a4bc a783 b03d 7a58 bbbd
00000180: c2ab 8e3c c4fa 3ebc 1b23 253d b881 91bd
00000190: 25f7 13bd e270 2c3d 89ef 2fbd 7263 a5bb
000001a0: a6f5 723d 074c 7abd 6c22 e33d e703 85bd
000001b0: 3f02 9bbc a9ab 803d c95c eabc b6de b3bc
000001c0: e779 aabd 44b0 19bc 4074 8b3d 1df7 51ba
000001d0: 6ffd 003d a0b3 4f3d fe30 89bd ad39 92bd
000001e0: 7e64 0d3d 4fbf b53d 99ca a5bd 54ee 7b3d
000001f0: 7d2f af3d 3b89 7dbd e44c 723c 2b99 c03d
00000200: 1225 133d caf8 043d 86d4 89bc 7ddf 053d
00000210: ea89 7e3d f145 9fbd 4cf5 883d 81f8 0b3d
00000220: 1891 dabd f6a3 00bc 50ca a73d 09c7 b43d
00000230: bb21 803b d05c c03d 02ab b3bc 37d6 a23d
00000240: abb4 14bd 5809 c4bd d3bd a1bd 0d88 9bbc
00000250: 9506 d4ba b76e 83bd 20a2 04bd 11a0 8bbd
00000260: ca2a 9b3c ba5b 57bd 3419 08bd 10e6 bbbd
00000270: a8b7 c63d be12 debc bb33 4ebd 1797 cebd
00000280: c7f6 093d edfd bc3d 6f3c 09bd 4a80 d03d
00000290: d5ac 853d 50f2 b03d a881 d63d 9daa 51bd
000002a0: ed35 133d 0db2 a2bd b8f6 2abc 3132 bc3d
000002b0: 9b6a a0bd 2e4c 8a3d 67e5 83ba c06e e5bc
000002c0: e840 ddbc f41a 38bd dab0 cd3d dcb1 a0bd
000002d0: e098 603a 6777 85bd f98b f83c cf6a ab3d
000002e0: f004 49bd a2d8 07bd 6bbc 323d 24b9 353d
000002f0: 4c5d 723d fa3b 1abd e875 54bd 84df bd3d
00000300: 901f bb3d 3a2f 393d 2c03 18bd 2f92 acbc
00000310: d680 923d e329 9abd 77d6 d0bc 24e9 b23d
00000320: 2b69 463d 08c1 b93d bd21 27bb 06d5 ef3c
00000330: 034d c73c bbae ad3d e3ff 81bd 0d67 5d3d
00000340: 4964 38bc 7238 c0bd 46b1 153d 2ce0 15bd
00000350: 53e4 fc3b f9b6 11bd d86d 3cbd 1100 563c
00000360: ad9e 823d 45d5 243d e21f 16bd ab65 163d
00000370: c7b4 a8bd 1558 9f3d 5a88 a63d 8591 083d
00000380: 5cab 3c3d 80ee adbd 1074 2c3c fd79 0a3c
00000390: b0e5 9fbd 2411 78bc b326 c33c db91 653d
000003a0: 1d21 4bbc d4b9 4ebd 24e3 b6bc b490 a5bd
000003b0: 3376 003d a5e8 273d 17ab 753d 7325 8c3c
000003c0: 1df7 0fbd 4b93 de3d 2280 70bb 4b21 823d
000003d0: 89c8 753d 7683 10ba e691 bbbd 14e8 87bc
000003e0: 19de a1bc 6498 ae3d 4ea5 253c 7b4b b5bd
000003f0: 1126 933d f60a edbc 98c5 c83c 6a3a aabd

bias f4 [64]
0.092905685 0.09123718 0.020756915 0.098472945 0.0008619587 0.054671295 -0.034323506 0.025466533
0.017444028 -0.012726627 0.014195599 -0.00789227 -0.074593656 -0.025357798 0.039917123 -0.10462422
0.06352821 -0.108424455 -0.0241232 0.009174733 0.06173033 0.026902268 -0.07212236 0.020117085
-0.058120795 0.035543002 -0.04348644 0.028331598 0.019721158 -0.045948397 0.02346609 -0.0292243
0.01742999 0.081084676 0.017433088 -0.03248563 0.09176288 0.04438394 0.012151833 -0.04828824
0.05585565 0.04384474 0.00013524557 -0.07818473 0.03241095 0.021861276 0.06580651 -0.08221669
-0.030206496 -0.010613134 -0.027044956 0.08295252 -0.09537233 0.011853955 -0.030754458 0.09912036
0.0055415537 0.0011110844 -0.035813436 0.08245035 0.106641546 0.09112478 0.050751764 0.18515149
00000000: 5645 be3d 8fda ba3d 680a aa3c 2fac c93d
00000010: 12f5 613a 02ef 5f3d ce96 0cbd 319f d03c
00000020: c7e6 8e3c 5883 50bc a894 683c 944e 01bc
00000030: 8fc4 98bd 28bb cfbc 2380 233d 3945 d6bd
00000040: 141b 823d a40d debd 049e c5bc 9f51 163c
00000050: f1d8 7c3d 2562 dc3c e3b4 93bd 96cc a43c
00000060: 1210 6ebd 8a95 113d d61e 32bd ab17 e83c
00000070: 448e a13c 6334 3cbd f53b c03c cd67 efbc
00000080: 57c9 8e3c b90f a63d d6cf 8e3c a70f 05bd
00000090: 2dee bb3d efcb 353d 7b18 473c e4c9 45bd
000000a0: e5c8 643d 8b96 333d b5d0 0d39 511f a0bd
000000b0: 58c1 043d 6b16 b33c 90c5 863d 3961 a8bd
000000c0: 9d73 f7bc b6e2 2dbc 628d ddbc 03e3 a93d
000000d0: 9152 c3bd 1737 423c c6f0 fbbc 9eff ca3d
000000e0: ec95 b53b cea1 913a 1cb1 12bd bbdb a83d
000000f0: e266 da3d a19f ba3d 15e1 4f3d 5a98 3d3e
