matrix/CNNs/result/0906/save/inverse_det_mul_conv.pt (torch, 71141 bytes, 18 tensors)

weight f4 [4, 16]
0	0x3e42c9fe	0.19022366
1	0x3de2d48e	0.11075698
2	0xbdd2097c	-0.10255715
3	0xbe040b37	-0.12894903
4	0x3e0b3f95	0.13598473
5	0x3e36085c	0.17776626
6	0xbbdddabd	-0.0067704604
7	0xbe1d2982	-0.15347865
8	0x3e63aa71	0.22232987
9	0xbdacf4e7	-0.08445149
10	0x3d81ef13	0.06344428
11	0xbdb743f1	-0.08948506
12	0xbe20d6c7	-0.15706931
13	0xbcce4275	-0.025178174
14	0xbc7b61bb	-0.015343125
15	0xbdd52a56	-0.104084656
16	0xbd407ed8	-0.046995968
17	0x3e3a3825	0.1818548
18	0x3dd8309a	0.10556145
19	0xbd9b4a89	-0.07582576
20	0xbe5508d7	-0.20804153
21	0x3e48592e	0.1956527
22	0x3e0af30e	0.1356928
23	0x3d22469e	0.039618127
24	0xbe0aad90	-0.13542771
25	0xbdb8844c	-0.090096086
26	0xbe36c8b8	-0.17850006
27	0x3be72e2f	0.007055066
28	0xbe3a1fb3	-0.18176155
29	0x3da2a2f5	0.07941238
30	0x3d986fe6	0.07443218
31	0xbe1639d6	-0.146705
32	0x3d2ec030	0.042663753
33	0xbe21fc18	-0.15818822
34	0xbda948c9	-0.08265836
35	0x3e070642	0.13185981
36	0xbc2cd1c1	-0.010548056
37	0xbd65dac5	-0.056116838
38	0x3de6bafa	0.11266132
39	0x3e31e810	0.17373681
40	0x3e687942	0.22702506
41	0x3d4f2cc4	0.0505798
42	0x3e38764e	0.1801388
43	0xbe406b03	-0.18790822
44	0x3da99368	0.08280069
45	0xbceebe3d	-0.029143447
46	0x3dace92d	0.08442912
47	0xbd99d4b8	-0.07511276
48	0x3e3e7cac	0.18602246
49	0xbc23bbd7	-0.009993515
50	0x3ce31d84	0.027724035
51	0x3c4e4dd8	0.012591802
52	0x3df45e9f	0.1193211
53	0x3dbaf48b	0.09128674
54	0xbe842ee5	-0.25817028
55	0x3e3ecce4	0.18632847
56	0x3d83edee	0.06441866
57	0xbe217b6a	-0.15769735
58	0x3e51450b	0.20436494
59	0xbe465d04	-0.1937142
60	0x3d856806	0.065139815
61	0xbdfb0365	-0.12256507
62	0x3e2f0b66	0.17094192
63	0x3db3cda1	0.08779455

bias f4 [4]
0	0x2a5850f9	1.9212747e-13
1	0xa740d37d	-2.676e-15
2	0xa70f7ade	-1.9911843e-15
3	0x2a58522b	1.9213162e-13

weight f4 [32, 16]
0	0x3df484b0	0.11939371
1	0x3de69300	0.11258507
2	0x3d3156f0	0.0432958
3	0x3d17aed8	0.03703198
4	0xbe71f1f6	-0.23627457
5	0x3d5a5420	0.053302884
6	0xbe0985d4	-0.13429958
7	0xbd55e3d8	-0.05221924
8	0xbe200692	-0.15627506
9	0xbe7ef17e	-0.2489681
10	0xbd0defb0	-0.034652412
11	0x3d85bbdc	0.06529972
12	0x3e109734	0.1412018
13	0xbd8155a4	-0.06315163
14	0xbd51d088	-0.05122426
15	0xbb63ad00	-0.0034740567
16	0xbde7e2bc	-0.11322543
17	0x3dab36dc	0.08360073
18	0xbdb69910	-0.08915913
19	0x3b564b00	0.0032698512
20	0xbe3a0122	-0.18164495
21	0x3e5978b2	0.21237448
22	0xbe7546f2	-0.23952845
23	0xbd81c310	-0.06336033
24	0x3de2184c	0.110397905
25	0xbcfcba00	-0.03085041
26	0xbe3b24d4	-0.18275768
27	0xbe787a3e	-0.24265382
28	0xbe417202	-0.18891147
29	0x3e6805a2	0.22658399
30	0xbe59eefe	-0.21282575
31	0xbd20ade8	-0.03922835
32	0x3e68c13a	0.2272996
33	0x3b0d6200	0.0021573305
34	0x3e364a7c	0.17801851
35	0xbc9c3980	-0.019070387
36	0x3dacf748	0.08445603
37	0x3e693b64	0.22776562
38	0x3d0c3a60	0.03423536
39	0x3e09bc1a	0.13450661
40	0x3e6a22be	0.22864816
41	0x3e5bff02	0.21483997
42	0xbe54d8f6	-0.20785889
43	0xbdd8a06c	-0.10577473
44	0x3dde361c	0.10850164
45	0x3e6e0e7a	0.2324771
46	0xbd7ea070	-0.062164724
47	0xbdfe776c	-0.12425122
48	0x3d752188	0.05984643
49	0xbdd47af8	-0.10375017
50	0x3e325ad6	0.17417464
51	0xbe4ba310	-0.19886422
52	0xbb2d4f80	-0.002644509
53	0xbd9f0318	-0.07764262
54	0xbe73e89e	-0.23819205
55	0xbdb6f4d8	-0.08933419
56	0xbe3de9aa	-0.18546167
57	0xbe7c0cac	-0.24614209
58	0x3e7555f4	0.2395857
59	0xbd1ee4f0	-0.03879255
60	0xbd174e60	-0.03693998
61	0x3d9435d8	0.072368324
62	0xbd486640	-0.04892564
63	0xbd58aa38	-0.05289671
64	0x3e13086a	0.14358678
65	0x3e559a82	0.20859721
66	0xbda24d14	-0.07924858
67	0xbd4026a8	-0.046911865
68	0x3e35527a	0.17707244
69	0xbe4ca84e	-0.19986078
70	0x3da784d8	0.08179635
71	0xbe14e0c0	-0.1453886
72	0xbe768bbc	-0.24076742
73	0x3e790ef0	0.24322104
74	0x3e45a0b6	0.19299588
75	0x3d32d418	0.0436593
76	0x3c3897c0	0.011266649
77	0xbe402b26	-0.1876646
78	0x3e5e07ba	0.21682635
79	0xbdc6a64c	-0.09699687
80	0xbd1616e0	-0.03664291
81	0x3e730be8	0.2373501
82	0xbdf95b48	-0.12175614
83	0x3d04bdf8	0.03240773
84	0x3e3687a0	0.17825174
85	0xbe409a30	-0.18808818
86	0xbcf79880	-0.030224085
87	0x3e26f906	0.16305932
88	0xbd947c6c	-0.07250294
89	0xbe1e8988	-0.15482152
90	0xbd9da96c	-0.0769833
91	0x3d1440e0	0.036194682
92	0x3e133744	0.14376551
93	0xbca3d020	-0.019996703
94	0xbdee1234	-0.11624566
95	0x3caaae50	0.020835072
96	0xbc80dee0	-0.015731275
97	0x3e1e8494	0.15480262
98	0xbe5f0e68	-0.2178284
99	0xbdd872e8	-0.10568792
100	0xbbc04f40	-0.0058688223
101	0xbdf9d4d0	-0.12198794
102	0x3d8a8f14	0.06765571
103	0x3d56c648	0.05243519
104	0x3d8e4d04	0.06948283
105	0xbdc5b488	-0.09653574
106	0xbe61182a	-0.21981874
107	0xbdcd92e8	-0.10037786
108	0xbdc0ed4c	-0.09420261
109	0x3df8f1ac	0.1215547
110	0xbc758680	-0.014985681
111	0x3e006f44	0.12542444
112	0xbe68f9c2	-0.22751525
113	0xbe45659e	-0.19277045
114	0x3e0e825a	0.13916913
115	0x3e355b84	0.17710692
116	0xbdfd9ae0	-0.12383056
117	0xbdfae21c	-0.12250158
118	0x3adf0300	0.0017014444
119	0xbb8c5200	-0.004282236
120	0xbe45f6f8	-0.19332492
121	0x3db48db4	0.0881609
122	0x3c816ea0	0.01579982
123	0xbe04c64e	-0.12966272
124	0xbd9143fc	-0.07093045
125	0x3dfa7498	0.1222927
126	0x3cc37330	0.023858637
127	0x3baf2080	0.0053444505
128	0xbdcbc2dc	-0.09949276
129	0x3dc15474	0.09439936
130	0x3e11fa84	0.1425572
131	0x3e7edc40	0.24888706
132	0xbc29c960	-0.010362953
133	0xbe7abbba	-0.24485675
134	0xbc874060	-0.016510189
135	0xbd4a7788	-0.0494304
136	0xbe4f07de	-0.20217845
137	0x3e3b50e0	0.1829257
138	0xbdd17004	-0.102264434
139	0xbe4e4088	-0.20141804
140	0x3df98f24	0.12185505
141	0x3d4fe390	0.05075413
142	0x3d0d3be0	0.03448093
143	0x3dbe989c	0.09306452
144	0x3d16dab0	0.03682965
145	0xbd3e49c0	-0.046457052
146	0x3d566d38	0.052350253
147	0xbd153ad8	-0.03643307
148	0xbe780cce	-0.24223635
149	0xbc3f1280	-0.011662126
150	0xbd8ee250	-0.069767594
151	0xbdc3b17c	-0.09555337
152	0x3d2b2dd0	0.041791737
153	0x3e0147f8	0.1262511
154	0xbe6c5a42	-0.23081306
155	0x3db157ac	0.086593
156	0xbd704180	-0.058656216
157	0x3e27be10	0.16381097
158	0x3e4f0b62	0.20219186
159	0x3da3b2a4	0.07993057
160	0x3e21d5aa	0.15804163
161	0xbe5f40b4	-0.21802026
162	0x3e7add36	0.24498448
163	0x3e5cd562	0.21565774
164	0xbc110bc0	-0.008852899
165	0xbd908470	-0.070565104
166	0x3e011196	0.12604365
167	0xbe2b511e	-0.16730163
168	0x3e526d72	0.20549563
169	0x3deed4dc	0.116616935
170	0xbbd00980	-0.0063487887
171	0xbe687ff2	-0.22705057
172	0x3dd94664	0.10609129
173	0xbe10fbbc	-0.14158529
174	0x3e3cbc68	0.18431246
175	0x3e694482	0.2278004
176	0xbe638f16	-0.22222552
177	0x3d001308	0.03126815
178	0x3e43c1c4	0.19116884
179	0xbd6e0a58	-0.058115333
180	0xbd9a897c	-0.07545754
181	0x3e59bec8	0.21264184
182	0xbd826258	-0.06366414
183	0xbb430280	-0.0029756129
184	0x3e4bea52	0.19913605
185	0x3e7ac2e8	0.24488413
186	0xbde9cd40	-0.114161015
187	0xbe3c0c40	-0.18364048
188	0x3e335988	0.17514622
189	0xbcb73980	-0.022366285
190	0x3e12838e	0.14307997
191	0xbe183dda	-0.14867344
192	0xbe56707e	-0.2094135
193	0xbd82dca8	-0.06389743
194	0xbe6975aa	-0.22798792
195	0xbe66d216	-0.22541079
196	0xbe5adc46	-0.2137309
197	0xbdaadef4	-0.08343306
198	0xbe355b88	-0.17710698
199	0x3e3a672e	0.18203422
200	0x3e4921ce	0.19641802
201	0xbc99d990	-0.0187805
202	0xbe0ae3d0	-0.13563466
203	0xbe5ea8b6	-0.21744046
204	0xbd038ac8	-0.032114774
205	0x3e7568a4	0.23965698
206	0x3e299b1c	0.16563076
207	0xbe044330	-0.12916255
208	0xbde4f56c	-0.11179623
209	0x3e30ff22	0.17284825
210	0x3e2bd9ec	0.1678235
211	0xbe7e4c54	-0.24833804
212	0xbd2932d0	-0.041308224
213	0xbe026642	-0.12734321
214	0xbdf67db8	-0.12035698
215	0x3e5e83f4	0.21730024
216	0xbe1a9384	-0.15095335
217	0xbc3a1880	-0.01135838
218	0x3e7819fc	0.24228662
219	0xbe640478	-0.2226733
220	0x3d01e208	0.0317097
221	0xbe5adcda	-0.2137331
222	0xbe2a36a2	-0.16622403
223	0xbd3248b8	-0.04352638
224	0xbd362698	-0.0444704
225	0x3e25c426	0.16188106
226	0x3e36b084	0.17840773
227	0x3e7daec6	0.24773702
228	0x3ce94bc0	0.028478503
229	0x3e68c52c	0.22731465
230	0xbe15daea	-0.1463429
231	0xbe250ba4	-0.16117722
232	0xbcfa3b70	-0.03054592
233	0x3ce121b0	0.027481884
234	0xbc9c9940	-0.019116044
235	0x3e364d7a	0.17802992
236	0xbe109694	-0.14119941
237	0xbe57a490	-0.2105887
238	0xbda9d584	-0.08292678
239	0x3dab3b94	0.08360973
240	0x3e46db44	0.1941958
241	0x3e387158	0.18011987
242	0xbe0c9a68	-0.13730776
243	0xbd9b465c	-0.07581779
244	0xbe50c596	-0.20387873
245	0x3dc486e4	0.09596041
246	0x3e6c3ff4	0.23071271
247	0x3e32e16a	0.17468801
248	0xb8e3b000	-0.00010856986
249	0x3dee3e24	0.11632946
250	0xbd98ea78	-0.07466596
251	0xbde0fa1c	-0.109852046
252	0x3d6bc828	0.05756393
253	0xbd99a4e0	-0.075021505
254	0x3e2a1370	0.16608977
255	0x3e478a88	0.19486439

bias f4 [32]
0	0xbe0ffcc6	-0.14061269
1	0x395f1800	0.00021275878
2	0xbe05f806	-0.13082895
3	0xbdcd1280	-0.10013294
4	0x3e50acea	0.20378461
5	0xbe0f2680	-0.1397953
6	0xbe7740ea	-0.24145856
7	0x3d9b59f0	0.075855136
8	0x3d766c80	0.060162067
9	0xbe309d76	-0.17247567
10	0xbe078052	-0.13232544
11	0x3e691ade	0.22764155
12	0xbd945720	-0.0724318
13	0x3d65f2c0	0.056139708
14	0xbe03f1fe	-0.12885281
15	0xbe2ea5a6	-0.17055377
16	0xbd8b95e0	-0.06815696
17	0xbddbd63c	-0.10734221
18	0xbe0447dc	-0.12918037
19	0xbd5a4758	-0.053290695
20	0x3dc69590	0.096964955
21	0x3da26a84	0.079304725
22	0x3e1d6970	0.15372252
23	0xbe67c898	-0.22635114
24	0xbd352e98	-0.04423389
25	0x3de45b48	0.11150223
26	0x3dfad5f8	0.122478426
27	0x3d2064c0	0.039158583
28	0xbd90bb64	-0.07066992
29	0x3e620ae6	0.2207447
30	0x3e2a894c	0.16653937
31	0x3df30530	0.11866224

weight f4 [64, 32]
0	0xbdecc0bb	-0.11560198
1	0x3d9b9b34	0.07597962
2	0xbce03025	-0.027366707
3	0xbd4ec384	-0.050479427
4	0xbe190b7a	-0.14945784
5	0xbdccfd2b	-0.100092255
6	0xbd8fae9f	-0.07015728
7	0x3dac9476	0.08426754
8	0xbdc6a27d	-0.09698961
9	0xbd5d123e	-0.053972475
10	0xbd67efe9	-0.05662528
11	0x3d05b7b9	0.032645915
12	0xbab6dc97	-0.0013951239
13	0xbdd559d0	-0.10417521
14	0x3de0abf7	0.109703
15	0x3d96e251	0.07367385
16	0xbddbf325	-0.107397355
17	0x3e02e48d	0.12782498
18	0x3db8eac7	0.09029155
19	0xbce58b89	-0.028020637
20	0x3c9f8ce0	0.019476354
21	0xbe34f874	-0.17672902
22	0x3e250d5c	0.16118377
23	0xbd80c160	-0.06286883
24	0x3cea3d2c	0.028593622
25	0x3df9bb8e	0.12193976
26	0x3de59d9f	0.112117045
27	0xbd49ccf5	-0.049267728
28	0x3dbb4b49	0.09145219
29	0xbdb3c0da	-0.08777018
30	0x3dce3440	0.1006856
31	0xbdeb8a47	-0.11500984
32	0xbe1286e0	-0.14309263
33	0xbd579f1e	-0.05264198
34	0x3cf49f7f	0.02986121
35	0x3cd55197	0.026039882
36	0x3dd149b6	0.10219137
37	0x3c6d166c	0.014470678
38	0x3d2203f7	0.039554562
39	0x3ccc566f	0.024943558
40	0x3da09a12	0.078418866
41	0x3e2e8d03	0.17045979
42	0x3dcf0bd1	0.10109676
43	0xbde6514b	-0.11245974
44	0x3cd40b37	0.025884254
45	0x3d707062	0.058700927
46	0x3c77f6a7	0.01513449
47	0xbe00737b	-0.12544052
48	0x3e2a338f	0.1662123
49	0x3e0e2227	0.13880216
50	0xbda521a9	-0.08063061
51	0xbdb64caf	-0.08901345
52	0x3d857996	0.06517331
53	0xbd9d1ea1	-0.076718576
54	0x3cd573aa	0.02605613
55	0xbe27362b	-0.16329257
56	0xbbd6c8cd	-0.006554699
57	0x3e3449a5	0.17606218
58	0xbdf08f58	-0.11746091
59	0x3e208184	0.15674406
60	0xbdd81ee0	-0.10552764
61	0x3d5e4e5d	0.05427395
62	0x3df084e4	0.11744097
63	0x3e34dc93	0.17662267
64	0x3e2c3783	0.16818051
65	0x3d18ac33	0.037273597
66	0xbd6727c7	-0.05643442
67	0xbdd5ea78	-0.10445112
68	0xbc89d51d	-0.016825253
69	0x3e34b629	0.17647614
70	0xbdf32e25	-0.11874036
71	0xbc463272	-0.012096988
72	0xbc7a5f9b	-0.015281583
73	0x3e325793	0.1741622
74	0x3e0f5ae4	0.13999516
75	0x3d7b204b	0.061310094
76	0xbd8b8788	-0.0681296
77	0x39be0e9a	0.00036250503
78	0xbd9b4eb9	-0.075833745
79	0xbc1a078b	-0.009401212
80	0xbdc97c45	-0.09838156
81	0xbe1b35bd	-0.15157218
82	0x3e156e4e	0.14592859
83	0x3d94a6e0	0.072583914
84	0x3e2d1bca	0.16905132
85	0x3e34ba62	0.17649224
86	0xbe09afa5	-0.1344591
87	0xbc954c5c	-0.018224888
88	0x3d866d54	0.065638214
89	0x3d99e228	0.07513839
90	0x3dba6b4a	0.09102495
91	0x3e208659	0.1567625
92	0x3cb9231d	0.022599751
93	0xbe11bd5f	-0.14232396
94	0xbe09458a	-0.13405433
95	0xbd4e2372	-0.050326772
96	0x3df48208	0.11938864
97	0xbdddcebb	-0.10830446
98	0xbdf4e895	-0.11958424
99	0x3dc54492	0.096322194
100	0x3e04bdfe	0.12963101
101	0xbde267ff	-0.11054992
102	0x3e28be73	0.164789
103	0x3d91c3cb	0.07117423
104	0x3d91db0f	0.0712186
105	0xbe345463	-0.17610316
106	0xbc092fc9	-0.008373209
107	0x3d52a2ec	0.051424906
108	0xbb4cd6af	-0.003125589
109	0x3b5353ae	0.0032245922
110	0xbda88750	-0.08228934
111	0xbe27226f	-0.16321729
112	0xbd778f8d	-0.060439635
113	0xbe1e7939	-0.1547593
114	0xbce173e9	-0.02752109
115	0xbdc8b77e	-0.09800623
116	0x3e0029db	0.12515967
117	0x3c359b63	0.01108441
118	0xbdaad4c4	-0.08341363
119	0x3e2b50aa	0.1672999
120	0xbd092862	-0.033485778
121	0x3bbd95b0	0.0057856664
122	0xbdc4be69	-0.0960663
123	0x3e001f85	0.12512024
124	0x3d8389ea	0.064227894
125	0x3db3afd9	0.08773775
126	0x3cc2715b	0.023735693
127	0x3e129676	0.14315209
128	0x3e2456b3	0.16048698
129	0x3e1e0cf5	0.1543463
130	0x3df2e0c3	0.11859276
131	0xbd211b92	-0.039332934
132	0x3df66f34	0.12032929
133	0x3da3fd4e	0.080072984
134	0x3d611e3e	0.05496048
135	0xbd28c658	-0.04120478
136	0xbd185fa8	-0.0372006
137	0x3bb4534a	0.005503093
138	0xbe300d12	-0.17192486
139	0x3d69acfd	0.05704974
140	0x3e12da44	0.14341074
141	0x3c547cc0	0.012969196
142	0xbdaa1789	-0.0830527
143	0x3d7b8e01	0.061414722
144	0xbd19ded2	-0.037566014
145	0x3e001741	0.1250887
146	0x3c32e546	0.010918921
147	0x3db6c736	0.08924715
148	0x3dda6749	0.10664231
149	0xbe2441fb	-0.16040795
150	0x3e221d99	0.15831603
151	0xbde2163c	-0.11039397
152	0xbd9e934f	-0.07742941
153	0x3d15c26c	0.03656237
154	0x3a9d5bdf	0.0012005529
155	0xbe181bcd	-0.14854355
156	0x3d13959f	0.03603136
157	0x3dacb840	0.084335804
158	0xbdf9b307	-0.1219235
159	0xbbc47d74	-0.0059964005
160	0xbd183644	-0.037161127
161	0x3e2a71b7	0.16644941
162	0x3d319829	0.043358
163	0x3d6bdb79	0.057582352
164	0xbdef376a	-0.11680491
165	0xbe016561	-0.12636329
166	0x3da74d2b	0.081690155
167	0xbda5a9c2	-0.08089019
168	0x3dc1b54f	0.0945841
169	0x3d81d982	0.063403144
170	0xbc38df5d	-0.011283723
171	0x3d55f795	0.052238066
172	0xbd84a5c9	-0.064769335
173	0x3b934229	0.004493971
174	0x3dc958b4	0.09831372
175	0x3d9b6686	0.07587914
176	0xbce9b44e	-0.028528359
177	0xbdb8d949	-0.09025819
178	0xbe1eccc6	-0.15507802
179	0x3db87b0b	0.090078436
180	0x3da21c7c	0.07915589
181	0xbe283aa7	-0.16428624
182	0xbc29730e	-0.010342373
183	0x3dbe7b82	0.09300901
184	0xbc440be0	-0.011965722
185	0xbe0d5618	-0.13802373
186	0x3d891139	0.06692738
187	0xbe115451	-0.1419232
188	0x39de7edd	0.0004243766
189	0x3d36cb7c	0.04462765
190	0xbde31a32	-0.11088981
191	0x3d5f0427	0.05444732
192	0x3db7e104	0.08978465
193	0x3d1c79f4	0.03820224
194	0x3e058160	0.13037634
195	0xbe1bfd67	-0.15233384
196	0x3d676e4a	0.056501664
197	0xbe316be3	-0.17326312
198	0xbdd4cd95	-0.10390774
199	0x3d956cbe	0.072961316
200	0xbde37194	-0.11105648
201	0xbcb829d0	-0.022480875
202	0xbd715efd	-0.05892848
203	0x3e01a3b8	0.1266011
204	0xbd16c9d8	-0.036813587
205	0x3e270de4	0.16313893
206	0xbc9a42f1	-0.018830748
207	0x3d29365b	0.041311603
208	0x3e1f76d6	0.15572676
209	0xbca13b1b	-0.019681504
210	0xbdd177aa	-0.10227902
211	0xbdb575f4	-0.088603884
212	0x3c3a8c94	0.0113860555
213	0x3e0be6f4	0.1366232
214	0xbe30cd56	-0.1726583
215	0x3e1209e7	0.1426159
216	0xbe225714	-0.1585353
217	0x3dcaa0b3	0.09893932
218	0xbcfe609a	-0.031051923
219	0x3dcdb789	0.10044772
220	0x3db69d5f	0.08916735
221	0x3de1f05a	0.110321715
222	0xbd5cc60d	-0.053899813
223	0xbd747030	-0.059677303
224	0x3d2d2f10	0.04228121
225	0x3c36707e	0.011135219
226	0xbdb2575b	-0.08708068
227	0xbddcb342	-0.10776378
228	0xbb29c432	-0.0025904295
229	0xbdd6ea39	-0.10493893
230	0x3d25132d	0.04030149
231	0xbe158f84	-0.14605528
232	0xbb93f8f2	-0.0045157606
233	0x3e1174a0	0.14204645
234	0xbd9a6ec2	-0.075406566
235	0x3c516552	0.012780504
236	0xbdbffbf7	-0.0937423
237	0xbe0f4f50	-0.13995099
238	0x3d6d3f31	0.057921592
239	0xbdce8e13	-0.10085692
240	0xbc1b8836	-0.009492924
241	0x3d9c046b	0.0761803
242	0xbdf2b6a7	-0.118512444
243	0x3db25e1e	0.08709358
244	0x3cd235c9	0.025660412
245	0xbdb2eb3a	-0.08736272
246	0x3c708bcf	0.0146817705
247	0xbe2d4721	-0.16921665
248	0xbd57f20d	-0.052721072
249	0x3e2ef318	0.1708492
250	0xbc818508	-0.015810505
251	0x3e1410f7	0.14459597
252	0xbe0031ed	-0.12519045
253	0x3e327542	0.17427543
254	0x3d5b58e0	0.053551555
255	0xbdf9c410	-0.12195599

bias f4 [64]
0	0x3e07a73f	0.13247393
1	0x3d735c5f	0.059414264
2	0xbd37a85e	-0.0448383
3	0x3de72378	0.11286062
4	0xbc7eac65	-0.015544032
5	0x3e27fd17	0.1640514
6	0xbe0b92af	-0.13630174
7	0x3d38119e	0.044938676
8	0x3d5c3ae8	0.053767115
9	0x3d07016a	0.032960333
10	0x3c427f03	0.011871102
11	0x3e182622	0.14858297
12	0xbc386371	-0.011254177
13	0x3e1abc64	0.15110928
14	0xbcc9f5ca	-0.024653334
15	0x3c05b77b	0.008161421
16	0x3d759c22	0.059963353
17	0xbe0e0bd4	-0.138717
18	0x3d98b38c	0.07456121
19	0xbe28bcf7	-0.16478334
20	0xbdfb5707	-0.122724585
21	0xbd220496	-0.039555155
22	0x3e1452a2	0.14484647
23	0xbd6f870a	-0.058478393
24	0x3a47304c	0.00075984444
25	0x3e2903dd	0.1650538
26	0xbe1fdfc5	-0.15612705
27	0x3dc8198e	0.09770499
28	0xbe0c026e	-0.13672802
29	0xbdbedc15	-0.09319321
30	0x3dc87a81	0.09788991
31	0x3debbc89	0.115105696
32	0xbe210a6a	-0.15726629
33	0xbddb9fdf	-0.10723852
34	0x3e1b65b5	0.15175517
35	0xbd9fdc6f	-0.07805716
36	0x3cf0d04f	0.029396204
37	0xbe2ca200	-0.16858673
38	0xbd2cadd1	-0.04215795
39	0xbdb8727b	-0.090062104
40	0x3d88e74b	0.06684741
41	0xbdb92070	-0.0903939
42	0x3dea001c	0.11425802
43	0x3cbf23b3	0.023332452
44	0x3d40f429	0.04710785
45	0xbe321cc8	-0.17393792
46	0x3c8a0f95	0.016853133
47	0xbe04ca13	-0.1296771
48	0x3c8b7fda	0.017028738
49	0x3da51e78	0.08062452
50	0x3ca02695	0.019549647
51	0x3e04c8f3	0.12967281
52	0xbc96d774	-0.018413283
53	0xbe0a1e74	-0.1348818
54	0xbdecfffb	-0.11572262
55	0xbdb209c8	-0.08693272
56	0x3dc5d6b6	0.096600935
57	0x3d446323	0.047946107
58	0x3d3ce078	0.046112508
59	0xbda36df9	-0.0797996
60	0x3e19fd5e	0.15038058
61	0xbe23f4e0	-0.16011381
62	0xbd7bdf0e	-0.06149202
63	0xbd434d93	-0.047681402

weight f4 [32, 64]
0	0xbd35e61c	-0.044408903
1	0xbdaffba8	-0.085929215
2	0x3de9d838	0.114181936
3	0xbcbbc7c8	-0.022922412
4	0xbd9894c4	-0.0745025
5	0xbde9d696	-0.11417882
6	0xbdd79da4	-0.105281144
7	0x3caebe48	0.021330968
8	0xbd005050	-0.031326592
9	0xbc591010	-0.0132484585
10	0xbd48fb7c	-0.04906796
11	0xbd9c4212	-0.076297894
12	0x3dcc7fae	0.099852905
13	0xbd485760	-0.048911452
14	0x3d60d028	0.054886013
15	0x3da40d68	0.080103695
16	0xbd5b3970	-0.053521574
17	0x3de74bf8	0.11293787
18	0xbddf3832	-0.1089939
19	0xbd8532da	-0.0650384
20	0xbc039dd0	-0.008033231
21	0x3dbe3754	0.09287897
22	0xbb3380c0	-0.0027389973
23	0x3ccc1308	0.024911419
24	0x3dbb8b34	0.0915741
25	0x3dfe3a70	0.1241349
26	0x3c1ca6f0	0.009561285
27	0xbcaf0470	-0.02136442
28	0x3db2417e	0.08703898
29	0xbc8bb590	-0.01705435
30	0xbde7301e	-0.112884745
31	0xbdd6c036	-0.1048588
32	0x3cd7b970	0.02633354
33	0x3d106ff8	0.03526303
34	0x3d4911ac	0.04908912
35	0xbd654efc	-0.05598353
36	0xbd0565a8	-0.03256765
37	0x3cb23840	0.021755338
38	0x3db9dfc8	0.09075886
39	0x3df7e6f0	0.12104595
40	0xbc1a70f0	-0.00942634
41	0xbde5cacc	-0.11220321
42	0x3c956500	0.018236637
43	0xbd905c0e	-0.07048808
44	0xbd9fddcc	-0.07805976
45	0xbb8f4aa0	-0.0043729097
46	0xbd2c8ec4	-0.04212834
47	0x3d531b74	0.051539853
48	0xbdf6b580	-0.12046337
49	0x3db29c82	0.08721258
50	0xbdb21b96	-0.08696668
51	0x3de7b202	0.11313249
52	0x3d964916	0.07338159
53	0x3d9b05bc	0.07569453
54	0x3de27282	0.11056997
55	0xbdb5b96a	-0.088732556
56	0xbde0de28	-0.10979873
57	0x3d14e358	0.036349624
58	0xbc326db0	-0.010890409
59	0xbb8cfb40	-0.0043024123
60	0xbb516400	-0.0031950474
61	0xbce96510	-0.028490573
62	0x3d554274	0.052065328
63	0xbcf87c50	-0.030332714
64	0xbdef1812	-0.11674513
65	0x3da200b6	0.07910292
66	0x3aa19300	0.0012327135
67	0xbd89aebe	-0.067227826
68	0xbdae010c	-0.084962934
69	0xbdc7b960	-0.09752154
70	0xbcfd55c8	-0.030924693
71	0xbdcf4cd2	-0.10122074
72	0xbd97be04	-0.074092895
73	0xbdb3c76a	-0.087782696
74	0x3ddf7574	0.10911074
75	0x3cbf6ba8	0.023366764
76	0x3da06f1e	0.07833694
77	0x3d8cfd14	0.06884208
78	0x3cf63550	0.030054718
79	0x3d6b75ec	0.057485506
80	0xbda5e2dc	-0.080999106
81	0x3da8d298	0.082432926
82	0x3c1b61b0	0.00948374
83	0xbd34ac38	-0.044109553
84	0x3dc564a8	0.09638339
85	0x3d8a9e14	0.06768432
86	0x3cdda728	0.027057245
87	0x3d827c8e	0.06371413
88	0xbc0ecd10	-0.008715883
89	0xbd4587d8	-0.048225254
90	0x3db88f6e	0.09011732
91	0x3dc58c10	0.096458554
92	0xbd3d6fec	-0.046249315
93	0x3da8a740	0.082350254
94	0x3d3b6cf0	0.045758188
95	0xbddecd78	-0.10879034
96	0x3da45ea4	0.08025864
97	0x3d0cea54	0.03440316
98	0x3daf5c2e	0.08562504
99	0x3db0c566	0.08631401
100	0xbdcd3706	-0.100202605
101	0xbdaa5428	-0.08316833
102	0x3dede970	0.1161679
103	0xbce0f360	-0.0274598
104	0xb904cc00	-0.00012664497
105	0xbc5eed30	-0.013606355
106	0xbdae844c	-0.085213274
107	0x3dcc8b06	0.09987454
108	0xbc897bf8	-0.016782746
109	0xbcc58530	-0.02411136
110	0x3dc3cc92	0.09560503
111	0x3d9899fc	0.07451245
112	0x3d7e535c	0.062091216
113	0x3afa2100	0.0019083321
114	0xbdf62002	-0.12017824
115	0x3dd2a8b4	0.10286084
116	0xbd9eaedc	-0.077481955
117	0x3de820e4	0.113343984
118	0x3d69e69c	0.057104692
119	0x3cdff630	0.027339071
120	0x3db0179a	0.08598252
121	0x3c9dd070	0.01926443
122	0x3cc0ef18	0.023551509
123	0xbc891208	-0.01673223
124	0xbd5979a4	-0.05309452
125	0x3cf7d860	0.030254543
126	0xbd388d7c	-0.045056805
127	0x3de8c3be	0.1136546
128	0x3c312950	0.010813072
129	0x3db748ce	0.08949433
130	0x3d4b0480	0.04956484
131	0xbdc1a258	-0.09454793
132	0x3d2f5eec	0.042815134
133	0x3d686fc4	0.056747213
134	0xbdc84540	-0.097788334
135	0x3d8bc518	0.06824702
136	0xbd42db80	-0.047572613
137	0xbc98ed30	-0.018667787
138	0x3de85892	0.113450184
139	0x3cf73960	0.030178726
140	0xbd644978	-0.055734128
141	0xbd9773b4	-0.073951155
142	0xbd5c1e84	-0.05374004
143	0x3daa6504	0.083200485
144	0x3da57c0e	0.08080302
145	0x3d54ec40	0.051983118
146	0xbd8b7bbe	-0.06810711
147	0x3de9cf0c	0.11416444
148	0x3ddc0498	0.10743064
149	0x3d6325b8	0.055455893
150	0xbdbeb674	-0.09312144
151	0xbcac3e10	-0.021025687
152	0xbd3609e8	-0.04444304
153	0x395e7400	0.00021214783
154	0xbc776440	-0.015099585
155	0x3df186aa	0.11793263
156	0x3c80d978	0.015728697
157	0x3df815a2	0.12113501
158	0x3d5fc1ac	0.05462806
159	0xbdb8836c	-0.09009442
160	0x3db029ec	0.08601746
161	0xbd86c1fe	-0.0657997
162	0x3d8f3476	0.06992428
163	0xbd10f040	-0.03538537
164	0xbdbabdf2	-0.091182604
165	0xbcafb6b0	-0.021449417
166	0x3db1bc7e	0.0867853
167	0x3d645034	0.05574055
168	0x3d862cbc	0.06551501
169	0xbc5a6370	-0.013329372
170	0x3d4cf0c8	0.050034314
171	0xbcddfae8	-0.02709718
172	0x3d12133c	0.035662875
173	0x3d9836ec	0.074323505
174	0x3dc08918	0.094011486
175	0x3d9d8f38	0.076933324
176	0x3dbdc7bc	0.09266612
177	0x3dad8c3a	0.08474012
178	0xbd36d27c	-0.044634327
179	0xbd929010	-0.07156384
180	0xbda14616	-0.07874696
181	0x3d3caea0	0.046064973
182	0xbd884374	-0.06653491
183	0xbc642000	-0.013923645
184	0x3cc3f7c0	0.023921847
185	0xbdcf3d80	-0.10119152
186	0x3d2054ec	0.039143488
187	0x3d61e180	0.055146694
188	0xbd91481c	-0.07093832
189	0xbdf1c1c8	-0.11804539
190	0xbd6aabf4	-0.057292894
191	0x3cebe7e8	0.028797105
192	0x3c4ac6f0	0.012376532
193	0x3c4683e0	0.012116402
194	0xbd99451c	-0.07483885
195	0x3cc2f1c0	0.023796916
196	0xbc648f40	-0.013950169
197	0x3dde2f1e	0.10848831
198	0xbb19a580	-0.0023444593
199	0x3cb34890	0.021885186
200	0xbdc80dc4	-0.097682506
201	0x3c5df840	0.013547957
202	0xbc3419e0	-0.010992497
203	0x3dafa4d2	0.08576359
204	0xbc5b4540	-0.01338321
205	0x3d329d64	0.04360713
206	0xbdfdffd6	-0.124023125
207	0x3b551300	0.0032512546
208	0xbd11ae9c	-0.03556691
209	0xbd1d90bc	-0.038468108
210	0x3d60517c	0.05476521
211	0x3dfb5d78	0.12273687
212	0xbdf0dd56	-0.117609665
213	0xbcf44d18	-0.029821917
214	0xbac77500	-0.0015217364
215	0xbda415a4	-0.0801194
216	0xbd80e1e8	-0.06293088
217	0x3dfbc66a	0.12293704
218	0xbdfa521c	-0.12222692
219	0xbcc863b8	-0.024461612
220	0xbd2f9fc4	-0.042876974
221	0xbd9af448	-0.07566124
222	0x3d7ecf08	0.06220916
223	0x3df7711e	0.12082122
224	0x3da99680	0.08280659
225	0x3d1ad894	0.0378042
226	0xbd5fd64c	-0.05464773
227	0xbcc6a980	-0.024250746
228	0xbde86c00	-0.11348724
229	0x3dacaac0	0.084310055
230	0x3dcb1526	0.09916143
231	0x3c211580	0.009831786
232	0xbdee7d10	-0.116449475
233	0x3d1e5378	0.03865382
234	0x3de349a8	0.11098033
235	0x3def1112	0.11673178
236	0x3d19a2f8	0.037508935
237	0xbdf74a38	-0.12074703
238	0x3d6c26b4	0.057654098
239	0xbd630388	-0.05542329
240	0xbd4c0258	-0.049806923
241	0x3de15538	0.11002582
242	0x3d444b30	0.047923267
243	0xbd4de18c	-0.050263926
244	0xbd856976	-0.06514256
245	0xbd84c55c	-0.06482956
246	0xbdb7dc9e	-0.08977626
247	0x3d3d4234	0.046205714
248	0xbda5795a	-0.080797866
249	0x3c82dc40	0.015974164
250	0x3d9695dc	0.07352802
251	0x3d831e82	0.06402303
252	0xbd89d7d4	-0.06730619
253	0x3d9ac7de	0.07557653
254	0xbd8f6b0e	-0.07002841
255	0xbd5af184	-0.053452983

bias f4 [32]
0	0xbd3e79f0	-0.046503007
1	0x3dbbe9e8	0.091754735
2	0x3c52b290	0.012859955
3	0xbdcd0d5e	-0.10012315
4	0xbdf9141e	-0.1216204
5	0x3c93d760	0.018047035
6	0x3dae373e	0.0850663
7	0x3b2a5b00	0.0025994182
8	0x3c9eea90	0.019398957
9	0x3d2f6ee0	0.042830348
10	0x3ddfa55a	0.1092021
11	0x3be49a80	0.0069764256
12	0x3dd9f298	0.10641974
13	0x3ded0b92	0.115744725
14	0x3ca33800	0.019924164
15	0x3ddcbb50	0.107779145
16	0xbdbfaa26	-0.09358625
17	0xbdbef68a	-0.09324367
18	0xbdbbb3f0	-0.0916518
19	0xbd8780cc	-0.06616363
20	0x3d4bf55c	0.04979454
21	0xbd82b004	-0.063812286
22	0xbda77344	-0.08176282
23	0x3d303f24	0.043028966
24	0xbc36eeb0	-0.011165306
25	0x3d8fa1ea	0.070133045
26	0xbcb946e0	-0.022616804
27	0xbd3a6590	-0.045507014
28	0xbc341900	-0.010992289
29	0x3d5acdc8	0.053418905
30	0x3d4c2c88	0.049847156
31	0x3dcdd920	0.10051179

weight f4 [16, 32]
0	0xbb959e8f	-0.004566021
1	0xbdd1108c	-0.10208234
2	0x3e21cd86	0.15801057
3	0x3d475205	0.048662204
4	0xbe09501e	-0.13409469
5	0x3e0e8814	0.13919097
6	0xbe16a7d7	-0.14712463
7	0x3c1becb5	0.009516885
8	0xbdc173c5	-0.094459094
9	0x3df44971	0.1192807
10	0xbcdd1cb1	-0.02699122
11	0x3de65f9f	0.11248707
12	0xbe0efc39	-0.13963403
13	0xbd4c0101	-0.049805645
14	0x3d647867	0.055778887
15	0xbe334240	-0.17505741
16	0x3d86551c	0.06559202
17	0xbd443d81	-0.047910217
18	0xbdbc8c9f	-0.09206509
19	0x3c87ad65	0.016562173
20	0xbda0f0dc	-0.0785844
21	0xbdebc505	-0.11512188
22	0xbe1c7f18	-0.15282857
23	0x3e1fcf03	0.15606312
24	0x3d1dcd1f	0.038525697
25	0x3de73322	0.1128905
26	0x3df57420	0.1198504
27	0xbdfac5f5	-0.122447886
28	0xbdf9b88a	-0.12193401
29	0xbb994f6e	-0.004678658
30	0xbe31336b	-0.1730477
31	0xbdb44955	-0.088030495
32	0xbc93515d	-0.017983133
33	0x3cf7ae22	0.0302344
34	0x3ca128f1	0.019672843
35	0x3e338d0a	0.17534271
36	0xbdc845b7	-0.09778922
37	0x3e095e3d	0.13414855
38	0xbd0d44bc	-0.03448938
39	0x3c8dfefd	0.017333502
40	0x3da4a725	0.08039693
41	0x3e1b7d82	0.15184596
42	0xbc925832	-0.01786432
43	0xbe186fff	-0.14886473
44	0x3d5c8592	0.05383832
45	0xbe2e6db8	-0.17034042
46	0xbe072519	-0.13197745
47	0xbd05f55a	-0.03270469
48	0x3c66b107	0.014080293
49	0xbdddcf18	-0.108305156
50	0x3e28ebfe	0.16496274
51	0x3d7f4d21	0.062329415
52	0xbdb7ce96	-0.0897495
53	0xbda41438	-0.08011669
54	0x3d598054	0.0531009
55	0xbd42e530	-0.04758185
56	0x3e19d2c2	0.15021804
57	0x3e08305e	0.132997
58	0xbe2d45f1	-0.16921212
59	0xbe0a56da	-0.13509694
60	0xbc433764	-0.011915062
61	0xbe223a83	-0.15842633
62	0x3db514af	0.08841836
63	0x3af872d7	0.0018955123
64	0xbafbaf92	-0.0019202104
65	0xbdb6f54e	-0.08933507
66	0x3e0b07cb	0.13577192
67	0xbca29c9d	-0.01985007
68	0x3b6f05d6	0.0036471984
69	0xbe330400	-0.17481995
70	0xbe024bfd	-0.127243
71	0xbdf71df5	-0.12066261
72	0xbdd53513	-0.10410514
73	0xbc95c1df	-0.018280922
74	0x3d112895	0.035439093
75	0xbd2ea7aa	-0.042640366
76	0xbd3196ca	-0.043356694
77	0xbe34f843	-0.1767283
78	0xbe2c35d8	-0.16817415
79	0xbda8e52e	-0.082468376
80	0xbe25de86	-0.16198167
81	0x3e28d495	0.16487344
82	0xbdafd4f0	-0.085855365
83	0x3e015e2a	0.12633577
84	0x3a9c782f	0.0011937673
85	0x3dc7e001	0.09759522
86	0xbddc6527	-0.10761481
87	0x3da62e51	0.08114303
88	0xbdffc91a	-0.12489529
89	0xbdbb138c	-0.09134588
90	0xbe110ef3	-0.14165859
91	0x3db3a675	0.087719835
92	0xbdde1b32	-0.10845031
93	0xbd635e2e	-0.05550974
94	0xbd384810	-0.0449906
95	0x3da6201e	0.081115946
96	0x3e170ca1	0.14750911
97	0x3ddc4a57	0.10756367
98	0xbd7075e9	-0.058706198
99	0x3d95543c	0.07291457
100	0x3e3500d3	0.17676096
101	0x3dcb63c9	0.09931142
102	0xbd6fcbc3	-0.05854393
103	0xbe03e436	-0.12880024
104	0xbe2d156a	-0.169027
105	0x3dee847e	0.11646365
106	0x3de78f6f	0.11306655
107	0x3c942524	0.018084116
108	0xbd7ee803	-0.062232982
109	0x3dcf61ee	0.101261005
110	0x3cabb403	0.02095986
111	0x3d70c006	0.058776878
112	0xbe01f3db	-0.1269068
113	0xbd602eb0	-0.054732025
114	0x3e06f88a	0.13180748
115	0xbcbae83c	-0.022815816
116	0x3d037ee7	0.032103445
117	0xbd0666ff	-0.03281307
118	0x3d15f1de	0.036607616
119	0xbd6e8ffe	-0.05824279
120	0xbd8c6c2e	-0.06856571
121	0xbe342865	-0.17593534
122	0x3d3c36a2	0.04595054
123	0x3d22e337	0.03976747
124	0xbe06b7bb	-0.13156025
125	0xbbdd207e	-0.006748258
126	0xbcc93750	-0.024562508
127	0x3d81e697	0.0634281
128	0xbcf80554	-0.030275978
129	0x3d9d4c0d	0.07680521
130	0x3e10cfa6	0.14141712
131	0x3e2b610b	0.16736238
132	0xbd60c64b	-0.054876607
133	0x3d27196b	0.040795725
134	0x3d9a5a6b	0.07536777
135	0x3ddb41d9	0.10705919
136	0x3d7db5e1	0.06194103
137	0x3d0fd991	0.035119597
138	0xbd7cc5c0	-0.061712027
139	0x3e0f1a34	0.1397484
140	0xbe2e9e75	-0.17052634
141	0xbc259ccc	-0.010108184
142	0x3e163097	0.14666973
143	0x3dc40208	0.095707
144	0xbe0a8c2d	-0.13530035
145	0xbc0e4f8e	-0.0086859595
146	0x3d0f36c7	0.03496435
147	0x3de0b61c	0.109722346
148	0x3dfe3de3	0.12414148
149	0x3e139b5b	0.14414732
150	0xbe1e04ac	-0.1543147
151	0xbca9f39e	-0.020746049
152	0x3e0be15a	0.13660184
153	0x3dfe95ca	0.12430914
154	0xbe2d39c5	-0.16916569
155	0x3e05aa99	0.13053359
156	0x3df939c8	0.12169224
157	0x3d41422f	0.04718226
158	0xbe25a6ef	-0.16176961
159	0xbd5a0878	-0.053230733
160	0xbe0954ca	-0.1341125
161	0xbcd5e922	-0.026112143
162	0xbde3767f	-0.11106586
163	0x3df1401f	0.11779808
164	0x3e00ee5d	0.12590928
165	0xbd93f465	-0.07224349
166	0x3d975dd9	0.07390947
167	0x3e088a89	0.13334097
168	0xbe2f0b43	-0.1709414
169	0xbcdc40a6	-0.026886296
170	0x3e1576eb	0.14596145
171	0x3dacec52	0.08443512
172	0x3dc520f9	0.0962543
173	0x3c203924	0.009779248
174	0xbd8e7da1	-0.069575556
175	0x3db808b1	0.08986033
176	0xbdf28d36	-0.1184334
177	0xbc9aafd6	-0.018882673
178	0x3e0d7e92	0.13817814
179	0xbda840ab	-0.082154594
180	0xbd4590eb	-0.048233908
181	0xbe0021c4	-0.1251288
182	0x3e1c683b	0.15274136
183	0xbb804e86	-0.0039156107
184	0xbdd904a3	-0.105965875
185	0xbd075ff7	-0.033050504
186	0x3daa926b	0.08328708
187	0x3e13f27a	0.14447966
188	0x3d59028d	0.05298095
189	0x3c7c046c	0.015381914
190	0xbbe9e107	-0.007137421
191	0xbc44b852	-0.012006836
192	0x39ce0006	0.000392914
193	0xbe02855c	-0.12746185
194	0xbdab620b	-0.083683096
195	0xbcf38a72	-0.029729102
196	0x3dccab8d	0.09993658
197	0xbe1a2ee5	-0.15056951
198	0xbe278701	-0.16360094
199	0xbde2fe36	-0.11083643
200	0xbc90df22	-0.017684523
201	0xbde8817a	-0.11352821
202	0x3dce1f31	0.10064543
203	0xbe1ab27f	-0.15107153
204	0x3e14dfc3	0.14538483
205	0xbe0645b5	-0.13112529
206	0xbe1d52f5	-0.15363677
207	0xbe1bfc1f	-0.15232895
208	0xbb4c3c89	-0.0031164011
209	0x3ce4b36d	0.027917588
210	0xbe2c0dbc	-0.16802114
211	0xbdf1214b	-0.11773928
212	0xbe00cb0c	-0.12577456
213	0xbe0c95e2	-0.13729051
214	0xbdd73754	-0.105086
215	0x3d4e6b86	0.05039551
216	0xbd886f90	-0.06661904
217	0x3c4de7ce	0.012567474
218	0x3e1f58b7	0.15561186
219	0x3c28bb35	0.01029854
220	0x3e1ffe26	0.15624294
221	0x3daef74d	0.08543263
222	0x3d941d02	0.07232095
223	0x3cab984d	0.020946646
224	0xbe241ff2	-0.16027811
225	0x3db3ab2a	0.08772881
226	0xbd7468b2	-0.059670158
227	0x3d9d40cb	0.07678374
228	0xbd420273	-0.047365617
229	0x3d9e071d	0.077162005
230	0xbdad051d	-0.08448241
231	0x3e0345e7	0.12819634
232	0x3cc7a854	0.024372257
233	0xbdc6215d	-0.09674332
234	0xbd577320	-0.052600026
235	0xbd44f703	-0.04808713
236	0x3d168a29	0.036752854
237	0xbb6dceb6	-0.003628654
238	0xbd1fe4c1	-0.039036516
239	0xbe014701	-0.12624742
240	0x3da6f375	0.081519045
241	0xbde9775c	-0.11399719
242	0xbd1dcd2a	-0.038525738
243	0x3cfaae7e	0.030600782
244	0xbdf8f137	-0.12155383
245	0x3dadde2c	0.084896415
246	0xbd24a4c7	-0.040196206
247	0x3d7fd16c	0.06245558
248	0xbe1c0ea3	-0.15239958
249	0xbe07d52a	-0.1326491
250	0xbd1566f1	-0.036475126
251	0xbd966c35	-0.073448576
252	0xbd37f166	-0.04490795
253	0x3b8eb4d9	0.004355055
254	0x3c98e19c	0.018662266
255	0x3cf22e32	0.029563043

bias f4 [16]
0	0xbcebd499	-0.028787898
1	0xbc91a65c	-0.017779522
2	0xbdb3dd69	-0.08782465
3	0x3d526e06	0.051374458
4	0xbcdfe88d	-0.027332569
5	0x3d61b617	0.055105295
6	0xbe067a1b	-0.13132517
7	0xbe267c26	-0.16258296
8	0x3e0e7d81	0.13915063
9	0xbdd6bb58	-0.10484952
10	0xbd62b583	-0.055348884
11	0x3d376959	0.0447782
12	0x3e30b3a9	0.17256035
13	0xbdc123b1	-0.09430636
14	0x3db47987	0.08812242
15	0xbc86cd10	-0.016455203

weight f4 [4, 16]
0	0xbe028f2a	-0.12749925
1	0x3db85bdc	0.09001896
2	0x3d320e20	0.043470502
3	0xbe2184d8	-0.15773332
4	0xbe6ca18c	-0.231085
5	0x3df672f0	0.12033641
6	0xbe542516	-0.20717272
7	0xbba3efc0	-0.0050029457
8	0x3e427802	0.18991092
9	0xbe51342e	-0.20430061
10	0xbd822e2c	-0.06356463
11	0x3e3b5182	0.18292812
12	0xbe10407a	-0.14087096
13	0xbd953158	-0.07284802
14	0xbd88e788	-0.06684786
15	0xbe326170	-0.17419982
16	0xbd95a1f4	-0.07306281
17	0xbd3b1d58	-0.04568228
18	0xbe4465f8	-0.19179523
19	0xbccd49f0	-0.02505967
20	0x3dd24dfc	0.102687806
21	0xbc1445a0	-0.009049803
22	0xbe613a84	-0.21994978
23	0x3dafc238	0.08581966
24	0x3df8ae84	0.12142661
25	0xbe7e6af2	-0.24845484
26	0x3e4e8d74	0.20171148
27	0xbdc33004	-0.09530643
28	0x3c111e80	0.008857369
29	0xbd7d4690	-0.06183487
30	0xbe604c1e	-0.21904036
31	0xbe4c4268	-0.19947207
32	0xbd8861a8	-0.066592515
33	0x3e06d406	0.13166818
34	0x3e511b00	0.20420456
35	0x3e182df6	0.14861283
36	0xbd9a1374	-0.07523242
37	0x3da9e6d0	0.08295977
38	0x3e2bbe00	0.16771698
39	0xbc8183e0	-0.015809953
40	0x3e08f60c	0.1337511
41	0x3e5b13fe	0.21394345
42	0xbde26c9c	-0.11055872
43	0x3e77cf54	0.24200183
44	0x3e15f9d4	0.14646083
45	0x3dfd421c	0.12366125
46	0x3e08ab1e	0.13346526
47	0x3e3949b2	0.18094519
48	0xbe41b42c	-0.18916386
49	0xbe035378	-0.1282481
50	0x3e20c1dc	0.15698951
51	0x3e75095e	0.23929355
52	0x3d8b3a68	0.067982495
53	0x3d6cd648	0.057821542
54	0xbdd9f05c	-0.10641548
55	0xbe26e4f6	-0.16298279
56	0x3e5b1b6e	0.21397182
57	0xbe4f4c12	-0.20243862
58	0x3de9eb30	0.114218116
59	0x3e4b88bc	0.19876379
60	0xbda3fe94	-0.08007541
61	0xbe27d5dc	-0.16390175
62	0x3dedf964	0.11619833
63	0xbd99e878	-0.07515043

bias f4 [4]
0	0xbd6fc928	-0.058541447
1	0xbe496132	-0.19665983
2	0xbd3a39a0	-0.04546511
3	0x3d309168	0.04310742

weight f4 [32, 10, 3]
0	0xbe1c5547	-0.15266906
1	0x3d90ee3c	0.070766896
2	0xbe13edfb	-0.14446251
3	0x3dbfa319	0.0935728
4	0x3e11e349	0.14246859
5	0x3dda7337	0.10666507
6	0xbdd32590	-0.10309899
7	0xbe037cfd	-0.12840648
8	0x3e212b38	0.15739143
9	0xbc120d47	-0.008914298
10	0xbe0086b1	-0.1255138
11	0xbe2e8c47	-0.17045699
12	0xbcf4b4c3	-0.02987135
13	0x3e28806b	0.16455238
14	0xbdb0c0fe	-0.0863056
15	0x3cab10e2	0.020882074
16	0x3d32ac31	0.043621246
17	0xbe2e0264	-0.169931
18	0x3d9941f9	0.074832864
19	0xbdae752c	-0.085184425
20	0xbd6236e9	-0.055228148
21	0x3df0465f	0.11732172
22	0xbcd83929	-0.026394444
23	0x3e00299e	0.12515876
24	0xbcfc5b3c	-0.030805223
25	0x3d963160	0.07333636
26	0xbcc30523	-0.02380616
27	0xbc85d755	-0.01633803
28	0xbe23e54e	-0.16005442
29	0xbe13b9e7	-0.14426385
30	0x3dec00a6	0.11523561
31	0xbc8944af	-0.016756384
32	0xbda696c9	-0.08134229
33	0xbde41925	-0.111376084
34	0xbc5447fa	-0.012956614
35	0x3d157214	0.036485747
36	0xbcb23597	-0.02175407
37	0x3e168130	0.14697719
38	0xbda6c61e	-0.081432566
39	0x3dd72a1e	0.1050608
40	0x3ddebc08	0.10875708
41	0x3d660c51	0.05616409
42	0x3da3f8fa	0.08006473
43	0xbe3e3c78	-0.18577754
44	0xbe102947	-0.14078246
45	0x3def120a	0.116733626
46	0xbe1a08fc	-0.1504249
47	0xbe21d3b2	-0.15803412
48	0x3d81378e	0.06309424
49	0xbcdebc36	-0.027189355
50	0xbdc2b9fd	-0.09508131
51	0x3c1d5525	0.00960282
52	0xbdd56f20	-0.10421586
53	0xbdd60c66	-0.104515836
54	0xbd961a0c	-0.07329187
55	0xbd45655b	-0.048192363
56	0x3d9cb04a	0.07650812
57	0x3d890551	0.06690467
58	0x3e055d47	0.13023864
59	0x3defda15	0.11711518
60	0x3e133a04	0.143776
61	0xbd912fe3	-0.07089212
62	0xbc8a96d2	-0.01691762
63	0xbdeed717	-0.11662119
64	0x3e2d0ba6	0.16898975
65	0xbd388014	-0.04504402
66	0x3d9a4326	0.07532339
67	0x3e26de11	0.16295649
68	0xbd47fbb2	-0.04882402
69	0x3d8a8074	0.06762782
70	0xbcfbafd9	-0.0307235
71	0xbd087cf5	-0.033322293
72	0x3d123c73	0.03570218
73	0x3d85630f	0.065130346
74	0xbe2c2b17	-0.16813312
75	0x3e2c4684	0.16823775
76	0xbdbd08e3	-0.09230211
77	0x3def9b58	0.11699551
78	0xbd0da090	-0.034576952
79	0x3e27ebc4	0.16398531
80	0xbd714c95	-0.058910925
81	0x3dba8b8a	0.09108646
82	0xbdda19c4	-0.10649446
83	0x3dfc17d8	0.12309235
84	0x3da08e46	0.078396365
85	0x3e285366	0.16438064
86	0xbe171d47	-0.14757262
87	0xbd34d5da	-0.044149257
88	0x3e5d8743	0.2163363
89	0x3e2a1392	0.16609028
90	0x3d8d0b9b	0.06886979
91	0x3e51fb1e	0.2050595
92	0x3e30c6f3	0.17263393
93	0x3a65d802	0.00087678444
94	0xbe1ecf64	-0.155088
95	0x3c70e028	0.0147018805
96	0x3df2ba82	0.1185198
97	0x3e1f2f45	0.15545376
98	0x3e2a210c	0.16614169
99	0x3da5dc83	0.080987
100	0x3d7a1d76	0.061063252
101	0xbdb88764	-0.09010199
102	0x3df4361d	0.11924384
103	0xbdb64ee1	-0.08901764
104	0xbe0c695a	-0.13712063
105	0x3c2246a8	0.009904541
106	0xbdb223fd	-0.086982705
107	0xbe2b6bea	-0.16740385
108	0xbb3b72b4	-0.0028602304
109	0x3d0537b0	0.03252381
110	0x3e306f2d	0.1722991
111	0xbdef6759	-0.11689634
112	0x3e010971	0.12601258
113	0xbda61924	-0.08110264
114	0xbdb36e69	-0.087612934
115	0xbdf57807	-0.11985784
116	0xbc724c07	-0.014788634
117	0x3d92d0be	0.07168721
118	0xbdfb9f03	-0.122861885
119	0x3e2e7080	0.17035103
120	0xbe09eef0	-0.13470054
121	0xbe2a6f61	-0.1664405
122	0xbe1b1890	-0.15146089
123	0xbcefb97b	-0.029263249
124	0xbdca4fe7	-0.098785214
125	0x3d65e111	0.056122843
126	0x3db4b7ac	0.08824095
127	0xbe1421e6	-0.14466056
128	0xbcec5d9a	-0.028853226
129	0x3dc55abd	0.096364476
130	0x3cdee72f	0.027209846
131	0x3df27f4f	0.118406884
132	0xbdc81ff8	-0.097717226
133	0xbc92926a	-0.017892081
134	0xbe1159c2	-0.14194396
135	0xbd40422a	-0.0469381
136	0x3ca06dba	0.019583572
137	0x3ddf43fd	0.109016396
138	0xbdbd95d2	-0.092570916
139	0xbdf5819e	-0.11987613
140	0x3d5ac8ec	0.05341427
141	0xbe0a96f8	-0.13534153
142	0x3cc3b6b3	0.023890829
143	0x3b416906	0.0029512062
144	0xbe2fb131	-0.17157437
145	0xbe16f674	-0.14742452
146	0xbe35cb38	-0.17753303
147	0x3dcdb76f	0.10044753
148	0xbe690d32	-0.2275894
149	0x3dc6d242	0.09708072
150	0x3e12fa20	0.14353228
151	0x3c3b9b72	0.011450635
152	0x3d8133d6	0.06308715
153	0xbe0a43f6	-0.13502488
154	0xbd3d5600	-0.046224594
155	0xbc85d1cf	-0.016335396
156	0x3de6b982	0.112658516
157	0x3e233af2	0.15940455
158	0x3e284846	0.1643382
159	0xbd8ea801	-0.06965638
160	0xbe5eb767	-0.2174965
161	0x3df2beb2	0.118527785
162	0xbda71dd5	-0.08159987
163	0xbe28c4db	-0.16481344
164	0x3e285457	0.16438423
165	0xbd8e7df5	-0.06957618
166	0x3dba570d	0.09098635
167	0x3d211da1	0.039334897
168	0x3d378870	0.04480785
169	0xbe2631bf	-0.16229914
170	0x3d314d90	0.04328686
171	0xbe2d3e64	-0.16918331
172	0x3d4ec3ec	0.050479814
173	0x3dd2b288	0.102879584
174	0x3d817117	0.06320398
175	0xbd172feb	-0.036910933
176	0x3ce2c967	0.027683927
177	0x3cbea142	0.023270253
178	0xbe25559d	-0.1614594
179	0xbc88d9e3	-0.016705459
180	0xbe165353	-0.14680223
181	0x3dcb838e	0.099372014
182	0xbe1f1a6e	-0.15537426
183	0x3e3acc0f	0.18241905
184	0xbdd868f0	-0.1056689
185	0x3d6382a0	0.055544496
186	0x3e104959	0.1409048
187	0x3dc5e81c	0.09663412
188	0x3da0b5fc	0.07847211
189	0xbd69f5d9	-0.057119224
190	0x3de59032	0.11209144
191	0xbdf59d86	-0.11992936
192	0xbe1d47d1	-0.15359427
193	0x3df32e55	0.118740715
194	0xbd93e962	-0.072222486
195	0xbdd86bf0	-0.105674624
196	0x3cfb133e	0.030648824
197	0xbd721aa4	-0.059107438
198	0x3d076d26	0.033063076
199	0x3d8ec617	0.069713764
200	0xbe04260a	-0.12905136
201	0x3e1bfbe5	0.15232809
202	0x3e3d9378	0.18513286
203	0xbdfe8e77	-0.12429517
204	0x3e20c7a6	0.1570116
205	0xbd8c2e2f	-0.06844746
206	0x3da167dc	0.07881138
207	0x3b5c4f5b	0.0033616635
208	0x3dbb603a	0.09149213
209	0x3dff15d5	0.12455336
210	0x3cfac2ae	0.030610409
211	0xbd1e988d	-0.038719703
212	0x3d8b6fbb	0.0680842
213	0x3e2ac911	0.16678263
214	0xbe1ab395	-0.15107568
215	0xbe3166a3	-0.17324309
216	0x3d8be63e	0.068310246
217	0xbc9e8393	-0.019349849
218	0xbdf4dd9a	-0.1195633
219	0xbdfac11b	-0.12243863
220	0xbc8589d0	-0.016301066
221	0x3dc183df	0.094489805
222	0x3d74c797	0.059760656
223	0xbda1deab	-0.07903799
224	0x3d98ebec	0.074668735
225	0xbc2c2463	-0.010506722
226	0xbd40570b	-0.04695801
227	0xbc59aeef	-0.013286336
228	0xbe0e7c34	-0.13914567
229	0xbc826654	-0.015917934
230	0x3d9bfcc6	0.07616572
231	0x3ca9edc5	0.02074326
232	0x3d4b6247	0.04965427
233	0xbb575e7b	-0.0032862711
234	0x3e084e8b	0.13311212
235	0x3c6a3f07	0.014297253
236	0xbe39ffd2	-0.18163994
237	0xbcdddc69	-0.027082639
238	0xbe159470	-0.14607406
239	0x3c991289	0.018685596
240	0xbd498aaa	-0.049204506
241	0x3ddfe8a5	0.10933045
242	0xbd26f126	-0.04075732
243	0x3d260d92	0.040540285
244	0x3e06a691	0.13149478
245	0xbe26d812	-0.16293362
246	0x3df86b96	0.121298954
247	0xbe175e2b	-0.14782016
248	0x3d78d8a1	0.06075347
249	0xbe0875ae	-0.13326141
250	0x3e139b57	0.14414726
251	0xbe1b8f2d	-0.15191336
252	0x3e2d1251	0.16901518
253	0xbdaf487e	-0.08558749
254	0xbe1f4302	-0.15552905
255	0x3e2c64fa	0.16835395

bias f4 [32]
0	0xbd992a9c	-0.0747883
1	0xbe05a901	-0.13052751
2	0x3d9ab066	0.075531766
3	0x3db94d39	0.09047932
4	0x3d89272c	0.066969246
5	0xbe154a6d	-0.14579172
6	0xbdbb1891	-0.09135545
7	0x3d8d6b81	0.0690527
8	0xbe453654	-0.19259006
9	0xbdc17212	-0.09445585
10	0x3e0b47ff	0.13601683
11	0xbd2d940a	-0.04237751
12	0x3e1f794d	0.15573616
13	0xbdfba778	-0.122878015
14	0xbde67dd2	-0.11254467
15	0x3d9162bd	0.07098911
16	0x3d59c979	0.053170655
17	0x3d0aef47	0.0339196
18	0xbe40697f	-0.18790244
19	0xbcaeed1a	-0.021353293
20	0xbe184f1c	-0.14873928
21	0xbde48d97	-0.111598186
22	0xbdf8ed96	-0.12154691
23	0xbca615c0	-0.020274043
24	0x3de116a5	0.10990647
25	0x3c8e00e6	0.017334413
26	0x3df8cbc6	0.12148242
27	0xbd8ec536	-0.06971209
28	0x3e028477	0.12745844
29	0xbddb503a	-0.107086614
30	0xbe17ef22	-0.14837316
31	0x3d8e6632	0.06953086

weight f4 [64, 32, 3]
0	0xbcaf4834	-0.021396734
1	0xbd50feb1	-0.051024143
2	0x3da3ac23	0.07991817
3	0x3cf928a4	0.030414887
4	0x3c26a00c	0.010169994
5	0x3c173ed5	0.009231289
6	0x3b0a1329	0.002106855
7	0x3e16d1a7	0.14728414
8	0x3d2c6b94	0.042094782
9	0x3c05c066	0.008163547
10	0x3da84f12	0.082182065
11	0xbcfd0e73	-0.030890679
12	0x3d479749	0.04872826
13	0x3aa7bddc	0.0012797671
14	0xbdb63a06	-0.08897786
15	0x3d80df99	0.06292648
16	0xbcf7c1fc	-0.030243866
17	0x3dbdc839	0.09266705
18	0xbd875898	-0.06608695
19	0x3d76f3df	0.060291167
20	0x3d4c8c19	0.049938295
21	0x3d507850	0.05089599
22	0xbbd754df	-0.0065713967
23	0x3da7d3c7	0.0819469
24	0x3be66f10	0.0070322827
25	0xbc66987b	-0.01407444
26	0x3d95c597	0.07313078
27	0xbc237a25	-0.009977852
28	0x3deec397	0.116583996
29	0x3d6a1d81	0.057157043
30	0x3dc072fa	0.0939693
31	0x3d364de2	0.04450787
32	0x3db5bfff	0.08874511
33	0xbd55501c	-0.05207835
34	0xbd801484	-0.06253913
35	0xbdb368a6	-0.087601945
36	0xbccab5ab	-0.02474483
37	0x3d86f7e6	0.065902516
38	0x3d8b7386	0.06809144
39	0x3c8750dd	0.01651805
40	0xbc92c4e1	-0.017916145
41	0xbd47bad1	-0.048762146
42	0x3d98ba25	0.07457379
43	0x3a7073a4	0.0009172505
44	0x3d50d871	0.050987665
45	0x3d6416d9	0.05568585
46	0xbdaf3d25	-0.08556584
47	0x3db2d8e7	0.08732777
48	0xbd874550	-0.06605017
49	0x3bab2ab7	0.005223598
50	0xbd938438	-0.07202953
51	0xbc1ead03	-0.009684804
52	0x3e06369c	0.1310677
53	0xbc9bc607	-0.019015325
54	0xbd863c43	-0.06554463
55	0x3d11bc3a	0.035579897
56	0xbdb95d35	-0.09050981
57	0x3d0dffd8	0.03466782
58	0x3cac47cb	0.021030327
59	0x3d9645ce	0.07337533
60	0xbda32875	-0.07966701
61	0x3dec475e	0.1153705
62	0x3dacbebd	0.08434818
63	0x3d95bad4	0.07311025
64	0x3dd0111d	0.10159514
65	0x3dc6839c	0.09693071
66	0x3dc2b233	0.09506645
67	0x3d69036b	0.056888025
68	0xbca2c904	-0.019871242
69	0xbd944772	-0.072401896
70	0x3dd275b8	0.10276359
71	0xbd8a133b	-0.06741949
72	0xbc19e5f4	-0.009393204
73	0x3d9b086e	0.07569967
74	0x3d356543	0.044286024
75	0x3402a3b4	1.2166748e-07
76	0x3d9617d1	0.07328761
77	0xbd64e4d9	-0.05588231
78	0x3cdb5512	0.026773963
79	0x3ba1784d	0.004927671
80	0x3da3a0b5	0.07989637
81	0x3ccc4d19	0.024939107
82	0x3e433c07	0.19065867
83	0xbc427601	-0.011868955
84	0x3dc09e06	0.094051406
85	0xbd47d776	-0.048789464
86	0xbc9e9dc8	-0.019362345
87	0x3bab7fd7	0.0052337456
88	0xbd0a57df	-0.033775207
89	0xbd75c4ad	-0.060002018
90	0x3d35f792	0.044425555
91	0x3dad6f30	0.08468473
92	0x3d118821	0.035530213
93	0xbdaddfb2	-0.08489932
94	0x3d57f6cc	0.0527256
95	0xbdc8a94e	-0.09797917
96	0x3d95ab40	0.07308054
97	0x3bda7c5b	0.0066676564
98	0xbb90e366	-0.0044216393
99	0x3daba1b4	0.08380452
100	0xbd1ff8b0	-0.039055526
101	0xbc94ea2d	-0.01817807
102	0x3d19be2c	0.037534878
103	0xbd2efb6c	-0.042720243
104	0xbd93e531	-0.07221449
105	0x3d504875	0.05085035
106	0x3d1a4ef9	0.03767297
107	0x3bf22987	0.0073902044
108	0xbd64c832	-0.055854984
109	0x3d378f74	0.044814542
110	0x3cca9c9c	0.02473288
111	0xbdba4030	-0.09094274
112	0x3d288869	0.041145716
113	0x3d77b008	0.06047061
114	0x3dc44bd3	0.09584775
115	0x3ce070ff	0.02739763
116	0xbd93cda4	-0.07216957
117	0x3d5acb35	0.05341645
118	0x3b9278cb	0.004469966
119	0x3d50bdfe	0.05096244
120	0xbb35ff8b	-0.0027770724
121	0x3dc31b10	0.09526646
122	0xbd85bef0	-0.06530559
123	0x3d3acbd9	0.04560456
124	0xbd84d40d	-0.06485758
125	0xbcb40bc5	-0.021978268
126	0xbcfb6133	-0.030685997
127	0xbdc7d002	-0.09756471
128	0xbd06c460	-0.03290212
129	0x3da55b6d	0.08074079
130	0xbd4a5554	-0.04939778
131	0xbdbf2efd	-0.09335134
132	0xbacf896f	-0.0015833805
133	0x3dccb05f	0.099945776
134	0xbcbcc869	-0.023044782
135	0xbd3d315e	-0.04618966
136	0xbd531b22	-0.051539548
137	0x3dc76ab8	0.09737152
138	0x3dcd64ef	0.10029017
139	0x3c925eb0	0.017867416
140	0xbbff5920	-0.007792607
141	0xbd72ae59	-0.059248302
142	0x3d0d8bac	0.03455703
143	0xbba2c946	-0.0049678413
144	0x3d688a5f	0.056772586
145	0xbd0c5483	-0.034260284
146	0x3d2473fb	0.04014967
147	0x3c6bba9a	0.014387751
148	0xbd163226	-0.03666892
149	0xbd28c7f8	-0.04120633
150	0x3b24ad5a	0.002512774
151	0x3d8dd9ed	0.06926332
152	0xbd894e90	-0.06704438
153	0xbc14004d	-0.009033275
154	0xbd77b51f	-0.060475465
155	0x3d87c0a9	0.06628544
156	0x3c2bf09e	0.010494379
157	0x3db96070	0.09051597
158	0xbccd5740	-0.025066018
159	0x3d352bad	0.044231106
160	0xbcdb30f8	-0.026756749
161	0xbdc906d0	-0.098157525
162	0x3d82afbd	0.06381176
163	0x3c860b2e	0.016362753
164	0xbdcc5ca3	-0.099786066
165	0xbb00f500	-0.0019677281
166	0x3d46c8d5	0.048531372
167	0x3d9c7d84	0.07641128
168	0xbd09037b	-0.033450585
169	0x3d0c808a	0.034302272
170	0x3ca2b8a9	0.019863443
171	0x3d473bb9	0.04864094
172	0x3d6f8b59	0.0584825
173	0xbd33e54b	-0.043919843
174	0xbd30b943	-0.04314543
175	0x3e145bed	0.14488192
176	0xbd427465	-0.047474284
177	0x3d3447fc	0.044013962
178	0xbc9609fd	-0.01831531
179	0x3d84d406	0.06485753
180	0xbdc5d54d	-0.096598245
181	0x3c721d5f	0.01477751
182	0xbc8b1ae3	-0.016980594
183	0xbba2bd21	-0.0049663936
184	0x3cc38b23	0.023870056
185	0x3d56904e	0.052383713
186	0x3ced734e	0.028985646
187	0x3e16b3fe	0.14717099
188	0x3d92c16c	0.071657985
189	0x3c8bee9d	0.017081553
190	0x3c4f1c83	0.012641075
191	0xbcf69a52	-0.030102883
192	0x3cebd9c8	0.02879037
193	0xbd2434a3	-0.04008926
194	0xbdc3621c	-0.09540197
195	0x39f3eda9	0.00046525642
196	0x3c8960f8	0.016769871
197	0xbda3d1bf	-0.0799899
198	0x3d5d4d17	0.054028597
199	0xbd6f7df7	-0.05846974
200	0x3d5fd849	0.054649625
201	0x3c36b8c9	0.011152455
202	0xbdddc6a1	-0.10828901
203	0x3d889297	0.06668585
204	0xbd0c2936	-0.03421899
205	0x3cf8f5e4	0.030390687
206	0xbdcf18e1	-0.10112167
207	0xbdb4aca2	-0.088219896
208	0x3d8ec1a7	0.0697053
209	0x3ce64cbf	0.028112767
210	0xbd7b4e5c	-0.061354026
211	0x3cbe46f9	0.023227202
212	0xbca5092f	-0.02014598
213	0x3b879f94	0.0041388962
214	0xbd29d7a9	-0.041465435
215	0xbd9dc92c	-0.07704386
216	0x3d71ef8e	0.059066348
217	0xbd816271	-0.06317604
218	0xbd3000ab	-0.042969387
219	0x3d2934e8	0.04131022
220	0xbd92be51	-0.07165206
221	0xbc3a32d1	-0.011364655
222	0x3da34095	0.079713024
223	0xbdecbe13	-0.11559691
224	0xbcd95f34	-0.026534654
225	0xbbbeb840	-0.005820304
226	0xbd6725ed	-0.056432653
227	0xbd8eb122	-0.06967379
228	0xbc8c75f3	-0.017146086
229	0x3c08cd66	0.008349752
230	0x3d137deb	0.036008757
231	0x398fc2c5	0.000274202
232	0xbd04ade7	-0.03239241
233	0xbdb1bed2	-0.08678974
234	0x3d7ae62a	0.061254658
235	0x3d695f36	0.056975566
236	0x3d72d4d0	0.059284985
237	0xbd29be4b	-0.041441243
238	0x3c98eb71	0.018666955
239	0xbda9fc30	-0.08300054
240	0xbd9f481a	-0.07777424
241	0xbe00a0a6	-0.12561283
242	0xbd6b3bb3	-0.05742998
243	0xbd054beb	-0.032543104
244	0xbd8a516e	-0.06753813
245	0x3d91acec	0.0711306
246	0xbd037c7e	-0.032101147
247	0x3da59117	0.08084314
248	0x3dce3918	0.100694835
249	0x3d657c49	0.05602673
250	0xbdda7c1f	-0.106682055
251	0x3c70af14	0.014690179
252	0xbdc01617	-0.09379213
253	0x3cfb8365	0.030702302
254	0xbdb322a6	-0.08746843
255	0xbd50edfa	-0.051008202
