matrix/save/bi_inverse_det.pt (torch, 42505 bytes, 8 tensors)

weight f4 [32, 2, 3]
0	0x410153c7	8.082953
1	0x40e67a04	7.2023945
2	0x4059d59f	3.4036634
3	0x40ca8b09	6.329472
4	0x40e3edf7	7.1227984
5	0x40fbd883	7.8701797
6	0xc0b02254	-5.5041904
7	0x40f63e66	7.695117
8	0x3f9537b4	1.1657624
9	0x410d14cc	8.817577
10	0xc0aabb27	-5.3353457
11	0x40fbc2e5	7.867541
12	0x40efdd33	7.495752
13	0x40e6f3ce	7.2172613
14	0x40c8df4b	6.2772574
15	0x4067413f	3.6133573
16	0x40f07412	7.5141687
17	0x41053dc5	8.32758
18	0x4103d5ec	8.239727
19	0x40f2a64c	7.5828
20	0x3fa4126b	1.2818121
21	0x402f771b	2.7416446
22	0x40e6fae3	7.218126
23	0x41033d38	8.202446
24	0xc0ab2e3e	-5.349395
25	0x40f279a7	7.57735
26	0x3f192335	0.59819347
27	0x41084777	8.517447
28	0xc0a6c1db	-5.211164
29	0x40fca39e	7.894973
30	0x40ecb3b1	7.396935
31	0x40e81923	7.2530684
32	0x3f25996d	0.64687234
33	0x3fa53368	1.2906313
34	0x40d47b0f	6.640022
35	0x41035544	8.208317
36	0xc0b5aac3	-5.677095
37	0x40fd93ec	7.924307
38	0x3ec50783	0.38482293
39	0x4109ad25	8.604772
40	0xc0a4bba4	-5.1479053
41	0x40f8aae7	7.770862
42	0x410597dd	8.349576
43	0x40faf740	7.842682
44	0x40443624	3.0658045
45	0x408f335f	4.475021
46	0x40f89058	7.76762
47	0x40f9180d	7.784186
48	0x410193d3	8.09859
49	0x40ef310f	7.4747386
50	0x40ae3142	5.443513
51	0x40492e55	3.143453
52	0x40f026be	7.5047293
53	0x40fa34ae	7.8189306
54	0x40f3a57b	7.6139503
55	0x40faa5aa	7.8327227
56	0x40b42ce9	5.630482
57	0x4037b129	2.870188
58	0x40fab62d	7.8347383
59	0x40f3f63a	7.623807
60	0x4102f79c	8.1854515
61	0x40e33ea8	7.1013985
62	0x401b46f6	2.426206
63	0x3fb57eb7	1.4179295
64	0x40ec0304	7.375368
65	0x41010a7f	8.0650625
66	0x4105e24a	8.367746
67	0x40f47a88	7.6399574
68	0x3fd43958	1.658
69	0x40ba9683	5.830873
70	0x40ec3ab4	7.382166
71	0x40f70d32	7.7203608
72	0xc0b19d10	-5.5504227
73	0x40fce3a2	7.902787
74	0x3f7cff13	0.9882671
75	0x410e1e61	8.882417
76	0xc0adb7d1	-5.4286885
77	0x40ec8471	7.391167
78	0x40ee8510	7.453743
79	0xc0a32015	-5.0976663
80	0x410d19ca	8.818796
81	0x3f0a4c1c	0.54022384
82	0x40f73e83	7.726381
83	0xc0b64033	-5.695337
84	0x410439cb	8.26411
85	0x40def2bc	6.9671307
86	0x401aaf73	2.4169586
87	0x3f92b6a7	1.1461991
88	0x40eb5f8a	7.3554125
89	0x4103ede1	8.245576
90	0xc0abc721	-5.3680577
91	0x40f17a5a	7.5461855
92	0x3fbb28d2	1.4621832
93	0x410d0171	8.812852
94	0xc0ac2316	-5.379283
95	0x4102eefe	8.183348
96	0x4103cb3b	8.237117
97	0x40f421a1	7.629105
98	0x40c7a497	6.2388415
99	0x40a7c29e	5.242507
100	0x40f85872	7.7607965
101	0x40fff775	7.998957
102	0x4100bc34	8.045948
103	0x40e366e7	7.1063113
104	0x40a9aff9	5.302731
105	0x3f6f389a	0.9344574
106	0x40f6e301	7.7152104
107	0x4103b0af	8.230636
108	0xc0a7ed25	-5.2476983
109	0x40ea5fb4	7.3241825
110	0x3f5af3dc	0.8552835
111	0x410939e5	8.576634
112	0xc0a581f7	-5.172115
113	0x40e86b08	7.2630653
114	0xc0ae4939	-5.4464383
115	0x40f9e2f3	7.808954
116	0x3f2fed2b	0.68721265
117	0x410aa897	8.66616
118	0xc0ab1066	-5.345752
119	0x40fea7c9	7.9579816
120	0x4100f24b	8.059154
121	0xc09f23b8	-4.97311
122	0x410a4402	8.641603
123	0x401611cf	2.344837
124	0x40f6a3fe	7.7075186
125	0xc0b88387	-5.7660556
126	0xc0aa2d57	-5.3180346
127	0x40eb5dd5	7.355204
128	0x400226ef	2.0336263
129	0x41093f19	8.577905
130	0xc0a59bfb	-5.1752906
131	0x41024a89	8.143197
132	0x40fecb4d	7.962317
133	0x40e42120	7.1290436
134	0x4087f044	4.2480793
135	0x40662683	3.5961006
136	0x40e99367	7.2992435
137	0x4104e507	8.305915
138	0x40ef394d	7.4757447
139	0xc0a58f33	-5.1737304
140	0x410b6b76	8.713736
141	0x3f227c2b	0.63470715
142	0x40fe5ed6	7.9490767
143	0xc0b5e910	-5.6847
144	0x40f6cf78	7.712826
145	0xc09ec20e	-4.9611883
146	0x4103b429	8.231484
147	0x3f0273e3	0.5095808
148	0x40f381a8	7.609577
149	0xc0ac4397	-5.3832507
150	0x4100c46f	8.047957
151	0xc0a0cd8a	-5.02509
152	0x41090821	8.564485
153	0x3e932d8c	0.28745687
154	0x4100a8c5	8.0412035
155	0xc0b98eb8	-5.7986717
156	0x40fe2abe	7.9427176
157	0x40e56411	7.168465
158	0x40c4f2be	6.1546316
159	0x4009779f	2.147926
160	0x40e9c27d	7.3049912
161	0x4104a559	8.290368
162	0x410230a2	8.136873
163	0xc09e6f62	-4.9510965
164	0x4107fbaa	8.498941
165	0x3e83e379	0.25759485
166	0x40f08088	7.51569
167	0xc0b095f7	-5.5183063
168	0x4103236a	8.196146
169	0x40f13334	7.5375004
170	0x405531e3	3.3311698
171	0x3fe70298	1.8047667
172	0x40f313ca	7.5961657
173	0x40f96378	7.793392
174	0x4103e029	8.242227
175	0x40e43096	7.130931
176	0x4090b8f5	4.522578
177	0x400edaec	2.232112
178	0x40f04931	7.5089345
179	0x4104cf6a	8.300638
180	0x410316b7	8.193046
181	0x40f81077	7.75201
182	0x40717948	3.7730274
183	0x40a4d9cf	5.151588
184	0x40f627ff	7.6923823
185	0x4104793f	8.279601
186	0x40fab5fb	7.8347144
187	0xc0a46246	-5.1369963
188	0x410cb0a4	8.793125
189	0x3f1cb88d	0.612191
190	0x40efcfbf	7.4941096
191	0xc0afdc7a	-5.4956636

bias f4 [32]
0	0x41a29bf8	20.326157
1	0x41d18f09	26.194841
2	0x41a3251c	20.39312
3	0x419c501a	19.539112
4	0x41d0bdac	26.092613
5	0x41a14b8c	20.161888
6	0x41d154ea	26.166462
7	0x419e693c	19.801384
8	0x419d45fd	19.659174
9	0x41a03ede	20.030697
10	0x41a0f9ff	20.122068
11	0x41a22a79	20.270739
12	0x41cb82dd	25.438898
13	0x41ce78db	25.809011
14	0x419efc21	19.87311
15	0x41cd0acc	25.630272
16	0x419d480e	19.660183
17	0x419c0e27	19.50691
18	0x41cf5a61	25.91913
19	0x41cda4d0	25.705475
20	0x41cd450f	25.65872
21	0x41cdb6ce	25.71426
22	0x419c786c	19.5588
23	0x41cd1d39	25.639269
24	0x41cd6dd9	25.678637
25	0x41cda942	25.707645
26	0x419d267d	19.643793
27	0x41d03195	26.02421
28	0x41a08adb	20.0678
29	0x419e4778	19.784897
30	0x419c243a	19.517689
31	0x41ccfe31	25.624117

weight f4 [64, 32, 3]
0	0x42227eaa	40.623695
1	0x421989d4	38.384598
2	0xc0a45505	-5.1353784
3	0x4277dadc	61.96373
4	0xc2a374a4	-81.72781
5	0x41043b0b	8.264415
6	0x42161eb5	37.529987
7	0x42226e28	40.607574
8	0xc0a7d408	-5.2446327
9	0x421fb0a2	39.922493
10	0x421d6c4c	39.35576
11	0xc0a6ac6f	-5.208549
12	0x428534df	66.603264
13	0xc2a3d3da	-81.91377
14	0x410289a3	8.158603
15	0x42273426	41.800926
16	0x423a2f12	46.545967
17	0xc08e9ee6	-4.456897
18	0x42788ef9	62.13962
19	0xc2a36010	-81.68762
20	0x410687eb	8.408183
21	0x421bed1e	38.98156
22	0x4215bb29	37.432774
23	0xc0a4a66a	-5.145314
24	0x421a30b2	38.547554
25	0x421c3783	39.05421
26	0xc0a8f1f9	-5.2795377
27	0x4216bc62	37.683968
28	0x421d710c	39.360397
29	0xc09de458	-4.934124
30	0x42231faf	40.78094
31	0x4223a708	40.913116
32	0xc0bcfd61	-5.90593
33	0x4223b5ab	40.92741
34	0x4215c0b6	37.438194
35	0xc0a0f8ed	-5.0303864
36	0x428d6ea3	70.71609
37	0xc2a34fdb	-81.65597
38	0x410467b8	8.275322
39	0xc2a33510	-81.60364
40	0x429a694a	77.20564
41	0xc24bb0b4	-50.92256
42	0x42232dff	40.794918
43	0x42234847	40.820583
44	0xc0c82dd4	-6.2555943
45	0x426d913c	59.39183
46	0xc2a32e38	-81.59027
47	0x41030657	8.189048
48	0x42164e71	37.576603
49	0x4215a66a	37.412514
50	0xc0a5d719	-5.182507
51	0x42198a10	38.384827
52	0x42222257	40.533535
53	0xc0c6645f	-6.1997523
54	0x42a74078	83.625916
55	0xc2a391fd	-81.78513
56	0x41014595	8.079488
57	0x4277141c	61.769638
58	0xc2a36950	-81.70569
59	0x41030122	8.187777
60	0xc2a315ca	-81.54256
61	0x425cb79c	55.179306
62	0xc247ce9e	-49.951775
63	0x426d48f3	59.32124
64	0xc2a3bf91	-81.87415
65	0x410280fe	8.156492
66	0x421b8739	38.882053
67	0x421f8155	39.8763
68	0xc0adb245	-5.4280114
69	0xc2a2f10e	-81.47081
70	0x428562e0	66.693115
71	0xc24ce3a2	-51.222298
72	0xc2a339d1	-81.61292
73	0x428bcbd5	69.89811
74	0xc24d4198	-51.314056
75	0xc2a318aa	-81.54817
76	0x426a2ae1	58.541874
77	0xc24a73b4	-50.61299
78	0x4216a9b0	37.66571
79	0x4223d87b	40.961407
80	0xc0b6ac6c	-5.7085476
81	0xc2a34320	-81.6311
82	0x428158b0	64.67322
83	0xc24913dd	-50.269398
84	0x421dd286	39.45559
85	0x421d3d7b	39.31004
86	0xc0adcfec	-5.431631
87	0x421ba0cb	38.907024
88	0x421df727	39.49136
89	0xc0bd5ae4	-5.917345
90	0x4216cdbe	37.70092
91	0x421613bc	37.51927
92	0xc0a066f2	-5.0125666
93	0xc2a2d8ea	-81.42366
94	0x428d47c6	70.64018
95	0xc24d2d57	-51.294277
96	0x422438a1	41.0553
97	0x42197050	38.35968
98	0xc1bf2385	-23.892344
99	0x426d6f0a	59.358437
100	0xc2a55942	-82.67433
101	0xc183b149	-16.461565
102	0x4215c3ec	37.44133
103	0x42238c94	40.887283
104	0xc1b5ca4b	-22.723776
105	0x42222ad8	40.54184
106	0x422142a9	40.315098
107	0xc1b04038	-22.031357
108	0x4277cfa9	61.952793
109	0xc2a50cf2	-82.52528
110	0xc1834a7f	-16.411375
111	0x4228d245	42.20534
112	0x423e1077	47.51608
113	0xc1a4497d	-20.535883
114	0x426f42c4	59.8152
115	0xc2a54448	-82.63336
116	0xc1818820	-16.191467
117	0x421c5ee4	39.092667
118	0x42152159	37.282566
119	0xc1b796fc	-22.948723
120	0x421a6745	38.60085
121	0x421d2247	39.283474
122	0xc1b47b55	-22.56022
123	0x42186c29	38.105625
124	0x4220c7d3	40.19514
125	0xc1af44a0	-21.908508
126	0x4225af46	41.421165
127	0x4224b14c	41.17314
128	0xc1afa336	-21.954693
129	0x4225306b	41.297283
130	0x4215512c	37.32927
131	0xc1bb8222	-23.438541
132	0x42850d82	66.52638
133	0xc2a50e80	-82.52832
134	0xc1834ebf	-16.41345
135	0xc2a50fe0	-82.531006
136	0x4294420e	74.12901
137	0xc22ad9fd	-42.71288
138	0x422520a8	41.28189
139	0x4224ba4d	41.181934
140	0xc1aec9a1	-21.848452
141	0x4261e5d3	56.474438
142	0xc2a51d09	-82.55671
143	0xc1854eb6	-16.663433
144	0x42157a5f	37.369503
145	0x4214ba66	37.18203
146	0xc1bada12	-23.35648
147	0x421aa9aa	38.665688
148	0x42228555	40.630207
149	0xc1ac20d9	-21.516039
150	0x42a7299f	83.58129
151	0xc2a513b7	-82.538506
152	0xc184c8e7	-16.598097
153	0x4269ff1e	58.499138
154	0xc2a56db4	-82.714264
155	0xc1824e33	-16.288183
156	0xc2a50bcb	-82.52303
157	0x42564f2c	53.577316
158	0xc23ece8d	-47.70171
159	0x42641a02	57.0254
160	0xc2a4f88a	-82.48543
161	0xc1853afb	-16.6538
162	0x421cdab4	39.213577
163	0x42215c99	40.340427
164	0xc1b81e31	-23.014742
165	0xc2a528db	-82.579796
166	0x42825021	65.1565
167	0xc22d5538	-43.33322
168	0xc2a4c8ef	-82.39245
169	0x428579a2	66.737564
170	0xc22e3e11	-43.56061
171	0xc2a51f73	-82.561424
172	0x425d2def	55.294857
173	0xc22926da	-42.28794
174	0x421891c0	38.142334
175	0x42257ff9	41.374973
176	0xc1b1f169	-22.242876
177	0xc2a4ff79	-82.49897
178	0x42747f17	61.12411
179	0xc2271f12	-41.780342
180	0x42210355	40.253254
181	0x421db0ee	39.422783
182	0xc1ae51a7	-21.78987
183	0x421bc342	38.94068
184	0x422021d7	40.033047
185	0xc1b4a9c9	-22.582903
186	0x4217a586	37.911644
187	0x421593c3	37.3943
188	0xc1b9c403	-23.220709
189	0xc2a54187	-82.62798
190	0x42853303	66.59963
191	0xc22d5178	-43.32956
192	0xc1972dcd	-18.897364
193	0x4149ef95	12.620992
194	0x41820d86	16.256603
195	0xc196bbbf	-18.841673
196	0xc258f2c4	-54.237076
197	0x4209caf7	34.448208
198	0xc1980e3c	-19.00695
199	0x41722a09	15.1352625
200	0x41669801	14.41211
201	0xc1975f4e	-18.921535
202	0x41084dd9	8.519006
203	0x415beb48	13.744942
204	0xc195eccb	-18.740622
205	0xc26beb6e	-58.97991
206	0x420b8956	34.884117
207	0xc1973c37	-18.904402
208	0x40c90612	6.281991
209	0x4181ad09	16.20949
210	0xc196924c	-18.821434
211	0xc26f8770	-59.882263
212	0x420968ee	34.35247
213	0xc19782f0	-18.938934
214	0x4128349a	10.512842
215	0x4150e9f9	13.057122
216	0xc196f136	-18.867779
217	0x416441a3	14.266025
218	0x4149388a	12.5763035
219	0xc197ceb3	-18.975927
220	0x416a413d	14.640927
221	0x4151aaf3	13.104236
222	0xc1969632	-18.823338
223	0x413b70b1	11.715013
224	0x413a7854	11.654377
225	0xc197c0a1	-18.969057
226	0x41270186	10.437872
227	0x4175845e	15.344816
228	0xc1962614	-18.768593
229	0xc2677851	-57.867496
230	0x4207c280	33.93994
231	0x3d383e3d	0.04498123
232	0x420a502e	34.5783
233	0xc271d6be	-60.45971
234	0xc19754e6	-18.916454
235	0x41415670	12.083603
236	0x4125c224	10.359898
237	0xc196403c	-18.781364
238	0xc24f04ba	-51.754616
239	0x420a07e7	34.507717
240	0xc1982e93	-19.022741
241	0x41739ac2	15.225283
242	0x415f2c50	13.9483185
243	0xc1974db7	-18.912947
244	0x41642ca3	14.260898
245	0x4118c1b4	9.547291
246	0xc1959288	-18.696548
247	0xc2687aa0	-58.11975
248	0x420cae35	35.170124
249	0xc196b662	-18.839054
250	0xc26b0667	-58.756252
251	0x4209d9aa	34.462563
252	0x3c809124	0.015694208
253	0x420bc181	34.93897
254	0xc225ba2e	-41.431816
255	0xc1957510	-18.68216

bias f4 [64]
0	0x42a54504	82.634796
1	0x42a3a7df	81.82787
2	0x427283f0	60.628845
3	0x42a40c95	82.024574
4	0x3d69708b	0.056992095
5	0x4272991f	60.649532
6	0x42a5416f	82.6278
7	0x42a585a7	82.76104
8	0x3d015f77	0.031585183
9	0x42a59a17	82.80096
10	0x42a3b1cc	81.84726
11	0x42a397b7	81.79632
12	0x42a32ca8	81.58722
13	0x42a3c480	81.88379
14	0x42a5064e	82.512314
15	0x42a417e7	82.046684
16	0x42a74c4c	83.64902
17	0xbbcc7bcf	-0.006240345
18	0x42a3a6b4	81.82559
19	0x427114c9	60.270298
20	0x42a4b9f7	82.36321
21	0x42a46635	82.19962
22	0x42a38860	81.76636
23	0x42a5bdf4	82.871
24	0x42a4113a	82.033646
25	0x42a3488b	81.641685
26	0x42a3b43e	81.852036
27	0x4273ce7e	60.951653
28	0x42a3d9ab	81.92513
29	0xbd89093c	-0.066912144
30	0x42a3cc10	81.89856
31	0x42a41c65	82.05546
32	0x42a3910a	81.78328
33	0x42a393f5	81.78898
34	0xbddabdbc	-0.1068072
35	0x42a54c22	82.6487
36	0x427211dc	60.51744
37	0x42a4d2fa	82.41206
38	0x42a31c8f	81.55578
39	0x42a3d63b	81.91842
40	0x42a59e31	82.80897
41	0x42a3ce1b	81.90255
42	0x42a42fe2	82.09352
43	0x42a3d278	81.91107
44	0x4272dc2e	60.71502
45	0x42a3701f	81.71899
46	0x4271cd19	60.45029
47	0x4272353f	60.552
48	0x42a61090	83.03235
49	0x42a41b9b	82.05392
50	0x42a40060	82.00073
51	0xbde1d3b2	-0.11026706
52	0x42a6a0e9	83.31428
53	0x42a5c99e	82.89378
54	0x42a3ac96	81.83708
55	0x42a3b6e0	81.85718
56	0x42a4c8e9	82.3924
57	0x42a55a7c	82.67673
58	0x42a30685	81.51273
59	0x42a35faf	81.68688
60	0x42a53dd8	82.62079
61	0x42a5a7d8	82.82782
62	0x42a5674c	82.70175
63	0x42a3c6b7	81.888115

weight f4 [16, 64, 3]
0	0x3f840bc2	1.0316088
1	0x3f7c5c52	0.9857837
2	0xbc308aba	-0.0107752625
3	0xbf40a530	-0.75252056
4	0xbf4baf6e	-0.7956456
5	0x3d4c758e	0.049916796
6	0x4184ef58	16.616867
7	0x41858377	16.689192
8	0x3d76df34	0.060271457
9	0xbf346af6	-0.7047571
10	0xbf37f178	-0.7185283
11	0x3b86dd42	0.0041157315
12	0x3cc7a94d	0.024372721
13	0xbd481c19	-0.04885492
14	0xbcded2f7	-0.027200205
15	0x418582da	16.688892
16	0x4185dbd6	16.732342
17	0x3968c0db	0.00022197088
18	0x3f61181a	0.879274
19	0x3f42ae00	0.7604675
20	0xbce2aed9	-0.027671264
21	0x3f70558b	0.9388053
22	0x3f7548ba	0.95814097
23	0xbd3b5adc	-0.045740947
24	0x3c41bb1a	0.011824394
25	0xbce23145	-0.027611384
26	0xbb9aaae6	-0.0047200797
27	0x3f99d1ac	1.2017112
28	0x3f8e3b73	1.1111892
29	0x3c8fd214	0.017556228
30	0xbf75fcff	-0.96089166
31	0xbf85dd4f	-1.0458163
32	0xbce99ad8	-0.028516218
33	0xbf8e3f54	-1.1113076
34	0xbf811524	-1.0084577
35	0x3d44eb49	0.048075948
36	0xbfb55b84	-1.4168553
37	0xbfb5411d	-1.4160496
38	0xbd7cf812	-0.061760016
39	0xbf427472	-0.7595893
40	0xbf3bf1be	-0.73415744
41	0x3d45b173	0.048264932
42	0x3f1c6784	0.6109545
43	0x3f0f22a1	0.55912215
44	0xbd8ca79d	-0.06867907
45	0xbec5679c	-0.3855561
46	0xbf04ff73	-0.51952285
47	0x3d28506f	0.041092332
48	0x408cad26	4.3961363
49	0x408e7ebe	4.4529715
50	0xbd0eacd9	-0.03483281
51	0x3d5eb086	0.054367565
52	0xbc04923b	-0.008091505
53	0xbc1426a5	-0.009042417
54	0xbf80fb60	-1.0076714
55	0xbf6dc397	-0.9287657
56	0xbcd6eb19	-0.02623515
57	0x4185d746	16.730114
58	0x41852930	16.645111
59	0x3c5bc36d	0.013413292
60	0x3e9e261d	0.30888453
61	0x3e42a690	0.19008851
62	0x3d9258ea	0.07145865
63	0x3ce6aa04	0.028157242
64	0x3c08f02e	0.008358045
65	0xbcd6a70b	-0.0262027
66	0xbf9ceca5	-1.2259718
67	0xbf8f8890	-1.121355
68	0xbd318735	-0.043341834
69	0x3fb84fe5	1.4399382
70	0x3fb66fff	1.4252928
71	0x3d4db556	0.050221764
72	0xbf40678b	-0.75157994
73	0xbf3ccd04	-0.7375033
74	0xbc845cb4	-0.016157486
75	0xbf9c62f8	-1.2217703
76	0xbf9f686d	-1.2453743
77	0x3d5ecc73	0.054394197
78	0xbf82eacd	-1.0227906
79	0xbf88281c	-1.063724
80	0x3d14d556	0.036336266
81	0x418610d3	16.758215
82	0x4185f1b6	16.743023
83	0xbcc90467	-0.024538232
84	0xbf483f72	-0.7822181
85	0xbf45e737	-0.7730593
86	0xbd1640f8	-0.036683053
87	0x3d81f941	0.063463695
88	0xbd365c0b	-0.044521373
89	0x3d260936	0.040536128
90	0xbf48dea1	-0.78464705
91	0xbf3d8560	-0.7403164
92	0x3d356bc7	0.044292238
93	0xbeaa414f	-0.33252952
94	0xbed321d0	-0.41236734
95	0x3cfa9571	0.030588837
96	0xbf6cf274	-0.92557454
97	0xbf83f55c	-1.0309253
98	0xbb63d841	-0.0034766349
99	0xbf8a167e	-1.0788114
100	0xbf92432f	-1.1426753
101	0xbd26630b	-0.0406218
102	0x3c53667f	0.012902855
103	0xbcd91de2	-0.026503507
104	0xbcde158e	-0.027109887
105	0x3f5215a2	0.8206426
106	0x3f651493	0.8948452
107	0x3d752038	0.05984518
108	0x41858618	16.690475
109	0x4184b809	16.58986
110	0xbd8ba735	-0.068190016
111	0x3ea76506	0.32694262
112	0x3ed8e158	0.42359424
113	0xbd628ddb	-0.055311065
114	0xbf9e213b	-1.2353891
115	0xbfa091e1	-1.2544519
116	0xbd658acd	-0.056040574
117	0xbf23435d	-0.63774663
118	0xbf2b70b3	-0.6696884
119	0x3cf391eb	0.029732665
120	0x3faa05fe	1.3283079
121	0x3fa18ff6	1.2622058
122	0xbd6b2242	-0.057405718
123	0xbf47a589	-0.7798696
124	0xbf55a8a9	-0.8346048
125	0x3d64ff2c	0.055907413
126	0xbee06520	-0.43827152
127	0xbeb53ca8	-0.3539784
128	0x3d17c584	0.0370536
129	0xbf6c0168	-0.92189646
130	0xbf5d17d7	-0.863645
131	0xbc4ac1e2	-0.012375327
132	0x4185492e	16.660732
133	0x4185c97c	16.723381
134	0x3ca1fd52	0.019774113
135	0xbf7bc1f2	-0.9834281
136	0xbf82c145	-1.0215231
137	0xbd5d75b8	-0.054067343
138	0x41856158	16.672531
139	0x418503fb	16.626944
140	0x3caa63ce	0.020799544
141	0x4184cd4d	16.600245
142	0x4185bb5e	16.716488
143	0xbc049348	-0.008091755
144	0x40069d21	2.1033404
145	0x400e653e	2.2249293
146	0x3d5593c8	0.05214289
147	0xbeeef217	-0.46669075
148	0xbef1b421	-0.4720774
149	0xbd87dbc8	-0.06633717
150	0xbf3a59ee	-0.7279347
151	0xbf375ca0	-0.7162571
152	0xbc65a6ed	-0.014016849
153	0x3cf4d09d	0.02988463
154	0xbb95690f	-0.004559643
155	0x3d42440f	0.047428187
156	0x40295539	2.6458266
157	0x402ed183	2.7315376
158	0xbcd260f7	-0.025681002
159	0x3fcefd37	1.6171025
160	0x3fd1c016	1.6386745
161	0xbc813e60	-0.015776813
162	0xbf7fec4c	-0.99969935
163	0xbf8a883f	-1.0822829
164	0x3d3008e9	0.042977247
165	0xbf414872	-0.7550117
166	0xbf58a7dc	-0.84631133
167	0xbd855ef4	-0.065122515
168	0x3e91f9b7	0.2851083
169	0x3eb77f6d	0.35839406
170	0x3c2844d3	0.010270315
171	0x3f4e3372	0.8054725
172	0x3f59f341	0.851368
173	0x3d008e05	0.03138544
174	0xbfaa6014	-1.3310571
175	0xbfb09c3e	-1.3797681
176	0xbd0530c4	-0.03251721
177	0xbfae823b	-1.3633493
178	0xbfa8a58c	-1.3175521
179	0xbd75f231	-0.060045425
180	0x3f58b616	0.8465284
181	0x3f583f2d	0.844714
182	0xbcb1eab1	-0.021718355
183	0x3fca6933	1.5813354
184	0x3fbcd345	1.4751974
185	0xbcb83b3d	-0.022489185
186	0x3f97d8fd	1.1863095
187	0x3f9b726a	1.2144291
188	0x3cc20a55	0.023686567
189	0xbf4ce955	-0.80043536
190	0xbf448d3b	-0.76778
191	0x3d8f7279	0.07004256
192	0xbc6b3e6e	-0.014358146
193	0xbd3c58bf	-0.045983072
194	0x3cf604d0	0.030031592
195	0xbd5258dd	-0.051354278
196	0x3d4b3696	0.049612604
197	0xbcb119c4	-0.021618731
198	0x3c464547	0.012101478
199	0xbc9fbc61	-0.019499006
200	0xbd356f67	-0.044295695
201	0x3c172719	0.00922563
202	0xbce3c1c8	-0.027802363
203	0xbb5155d1	-0.003194202
204	0xbd5b560c	-0.053548858
205	0xbd1985a6	-0.037480973
206	0xbd3dfde2	-0.0463847
207	0xbd868656	-0.06568591
208	0x3cbadd01	0.022810461
209	0x3d81313e	0.0630822
210	0xbcbb5a66	-0.022870254
211	0x3d2cf6a1	0.04222739
212	0x3d81f7a3	0.06346061
213	0xbc9c13be	-0.019052383
214	0x3d35b8ba	0.044365622
215	0xbc393eaa	-0.011306444
216	0x3d069284	0.032854572
217	0xbceba852	-0.028766785
218	0xbd5f8292	-0.05456788
219	0xbb858b4a	-0.0040754424
220	0x3d23485d	0.039863933
221	0x3d0ae226	0.03390708
222	0x3b894f08	0.0041903295
223	0xbd45c983	-0.04828788
224	0xbd7b1247	-0.061296728
225	0xbd6515a9	-0.05592886
226	0xbd456b67	-0.04819813
227	0x3ca83dee	0.020537343
228	0xbae12935	-0.0017178418
229	0x3c0e0eb7	0.0086705005
230	0x3d1f1e3b	0.03884719
231	0xbca5e98c	-0.020252965
232	0xbcfef70a	-0.031123657
233	0xbc8afc79	-0.016966091
234	0x3d249510	0.04018122
235	0xbd8ea644	-0.069653064
236	0xbd9b9ce2	-0.075982824
237	0x3d0525fe	0.032506935
238	0x3d4b582a	0.049644627
239	0x3bb1f26a	0.0054305093
240	0xbce1a147	-0.027542723
241	0xbc24643b	-0.010033662
242	0xbd618a82	-0.055063732
243	0xbc93bbc3	-0.018033868
244	0x3c23ce30	0.009997889
245	0x3d0b99c3	0.034082185
246	0xbd7c3d6a	-0.061582007
247	0x3cef96f8	0.029246792
248	0xbcf20e45	-0.02954782
249	0x3c3f8869	0.011690238
250	0xbd1c98db	-0.03823171
251	0xbd4c97f4	-0.0499496
252	0x3d299d83	0.04140998
253	0xbc0e1084	-0.00867093
254	0x3d657fbe	0.056030028
255	0x3d5499f4	0.051904634

bias f4 [16]
0	0x4292414e	73.12755
1	0xbd7b465d	-0.0613464
2	0x42a0da96	80.426926
3	0x42a0cf3f	80.40478
4	0x429f4519	79.63496
5	0x3c81494a	0.015782017
6	0x4291fcbb	72.993614
7	0x3cea6be2	0.028615896
8	0x3cabe6a7	0.020984007
9	0x42a380d8	81.75165
10	0x42998a13	76.76968
11	0xbd2c8377	-0.042117562
12	0x42a3b58e	81.8546
13	0xbcf6d451	-0.030130537
14	0xbecc6d7b	-0.39927277
15	0x42a378eb	81.73617

weight f4 [2, 16]
0	0x4121628a	10.086557
1	0x4126d121	10.426057
2	0x40c70874	6.219782
3	0x40c5b85b	6.1787543
4	0xc0cad591	-6.33857
5	0xc0bf973e	-5.987212
6	0xc0bae9e0	-5.841049
7	0xc0b717b0	-5.7216415
8	0x40ccfc22	6.405778
9	0x40cb0d3f	6.345367
10	0x3b4e94a1	0.0031521695
11	0xbe309f71	-0.17248322
12	0x412225d6	10.134237
13	0x41260df4	10.378407
14	0x40ca53f0	6.3227463
15	0x40c659c1	6.1984563
16	0xc131a0a4	-11.101719
17	0xc131b30a	-11.106211
18	0x40c853f2	6.260247
19	0x40cc3e23	6.382585
20	0x40b18cc0	5.5484314
21	0x40bbacd5	5.8648477
22	0x40c37060	6.1074677
23	0x40be8ad4	5.954447
24	0x40c877a1	6.264603
25	0x40cbe5a3	6.371782
26	0xbcebd9cb	-0.028790375
27	0xbe2d0278	-0.16895473
28	0xc1335425	-11.208043
29	0xc1339fb8	-11.226494
30	0x40ce0b37	6.438869
31	0x40cb0365	6.3441644

bias f4 [2]
0	0x41e2d35e	28.353207
1	0x42a1b962	80.862076
