matrix/CNNs/result/0906/inverse_mse_mul_conv.pt (torch, 71143 bytes, 18 tensors)

weight f4 [4, 16]
00000000: 3bbe cb3c 4d39 e33d 01c7 fdbd 5fa4 8dbd
00000010: b6ef 1c3e a2a8 f3bc 97d4 0abe 4b48 38be
00000020: 521b a1bd 8e60 f7bb 1d8d 07be 88a8 13be
00000030: 7899 44be 1be0 813e 3a17 743e ca4c 5d3e
00000040: 8616 afbd caeb 4b3e c767 493e d3a4 81be
00000050: 8184 40be 4e39 b5bd e16f 053e 537b 543e
00000060: a6ff e8bd d6f8 563d d527 21be d6b5 85bd
00000070: 9ffe 48bd 0880 b5bb 63aa 203e c375 12bd
00000080: ab27 9fbd 9f4b 77be d6f3 36be 2d47 863d
00000090: 63fe 5e3e 8542 5f3e 2723 12be 5d22 013e
000000a0: ece9 83be 0b65 1abe f444 fe3d 3b2f 0abe
000000b0: fce1 56bd b246 bd3d d89e 27be 0a31 28be
000000c0: 1035 60be 7dda 5ebe a30b 86ba 40ca 4e3e
000000d0: 0252 753e e789 a3bb efb8 ee3c cdab 13be
000000e0: dfc4 52bd 2cd8 16be d4a1 c03d 1887 b9bd
000000f0: 579a 1bbe c40b dabd f446 293e 6eea bbbc
0.024870982 0.11094914 -0.123914726 -0.06916117 0.15325817 -0.029743496 -0.13557659 -0.17996328
-0.07866539 -0.007549352 -0.13237424 -0.14419758 -0.19199169 0.2536629 0.23836985 0.21611324
-0.08549218 0.19914165 0.19668494 -0.25321063 -0.18800546 -0.088488206 0.1303096 0.2075017
-0.11376886 0.052483402 -0.15737851 -0.06528823 -0.04907095 -0.005538944 0.15689997 -0.035756838
-0.07771238 -0.24149941 -0.17866454 0.065565445 0.21776728 0.21802719 -0.14271222 0.12610765
-0.25764406 -0.15077607 0.124154955 -0.1349458 -0.05246161 0.09242 -0.16369188 -0.16424957
-0.21895242 -0.21763034 -0.0010226857 0.2019434 0.23957065 -0.0049908045 0.029140918 -0.14421006
-0.051457282 -0.147309 0.09405866 -0.0905897 -0.15195595 -0.10646775 0.16530973 -0.022938933

bias f4 [4]
00000000: 43a7 823e ed3b 06be 0be3 4bc0 cc88 5340
0.25518236 -0.13108797 -3.1857326 3.3052244

weight f4 [32, 16]
00000000: b273 333e 805b 07be 7021 7d3d 8482 d3bd
00000010: d8b5 163e 8ca7 f6bd 64ed 283e 2aa9 33be
00000020: 4ef3 5c3e 70a1 ec3c f0f5 babd 68b1 e2bd
00000030: 268b 5dbe 847a 6ebe a402 373e 1e30 1abe
00000040: dc36 eabd 38a3 73bd 0a43 7dbe 0843 bcbd
00000050: 7479 203e 1ac3 3e3e 105e 0abe eedc 043e
00000060: 688b d43d 12a9 14be 520b 39be ec45 263e
00000070: c41b 363e e032 cb3c d4bf 83bd e8ac b63d
00000080: e8e5 7f3d bca0 e8bd 003a 393d 68ec 7a3e
00000090: e036 653d 1813 12be d057 03bd 22b7 673e
000000a0: b24d 11be c056 d5bc 0e8a 7abe ee82 16be
000000b0: 40c9 403c 1056 f9bc 30e7 8bbd 8ed4 7dbe
000000c0: b418 f03d 24e4 9b3d aa96 573e 120d 333e
000000d0: 9a55 73be fa51 6bbe c0a4 633c 4832 28be
000000e0: 42c7 273e 3e9d 7e3e 80ff 79bc 546d 5cbe
000000f0: 90c2 2ebd a093 b43c 9447 dcbd f05e 04bd
00000100: a466 a8bd ccee b53d 40c3 6cbd 78a5 e13d
00000110: 2ab3 403e 00d6 043b 000e 013e 9ed1 6dbe
00000120: 4a00 65be fe1f 463e 544c 33be 1098 94bc
00000130: 8070 e93b 30ae c93d 8ef9 153e 5c93 8d3d
00000140: a0d1 183c 92ed 46be fc02 58be e058 6ebd
00000150: e07c f43c 60b5 f53c aae8 5abe 50c5 c1bd
00000160: e81f 0c3e a079 103c 88f1 68bd f69e 1b3e
00000170: beec 4abe f83e 5d3d 2805 603e 108e 8dbc
00000180: 02e9 033e 5493 3dbe 94b0 b63d bc8c dfbd
00000190: 3211 1b3e 124f 1ebe 0806 043d 0a4b 1ebe
000001a0: 2ecc 373e a485 103e f0ad 993c f88e 783e
000001b0: 58a3 0dbd a000 873c 9c41 a83d f0dc ab3c
000001c0: 42a2 753e 66a4 2fbe 80c2 c9bd baee 07be
000001d0: d04b e13c 00f5 5cbc 369b 193e 8c3e 8f3d
000001e0: 4464 7a3e f042 91bd 3cf8 04be c854 7f3d
000001f0: c00b c63c 9202 60be f85d e73d 7cbf 1a3e
00000200: 1cfc 5a3e f827 103d 903a 203e 74ce 87bd
00000210: b8b3 aa3d a037 d4bc c48f 5b3e d0b4 26bd
00000220: 30d4 7cbe 5a6e 663e daa2 0e3e 4afd 2bbe
00000230: 2c1e e0bd 04ba e43d 700a bb3d 94e1 95bd
00000240: 10a9 373e a048 28bc c8ef 5b3e b8ef 273e
00000250: 221d 26be d2fd 763e 54af 983d 0272 583e
00000260: de07 083e e43a 95bd 22b2 78be 1c5b e5bd
00000270: f0d6 d73c 8076 143d 841e ed3d fa50 64be
00000280: 822c 58be 900d b7bc 12fe 11be 8029 fcbb
00000290: 0835 67bd 4480 42be 9ca2 3dbe a69c 383e
000002a0: 78a3 69be d8c8 873d 6a16 2fbe d496 0b3e
000002b0: 4ee3 78be 24be 75be e63a 6cbe fc5a b2bd
000002c0: 1067 bc3c 407b 1abd 7628 19be 4c82 40be
000002d0: 5633 493e 70f5 8bbc aa0b 073e 585d 4f3e
000002e0: 3a9e 1abe a80b 253d 4230 08be ae58 073e
000002f0: 6cca e8bd f09c dbbc ecdd 0c3e 8ccc fc3d
00000300: c298 4cbe c0d9 92bb 44d4 2cbe e81e a9bd
00000310: 983a 32bd 1670 0f3e 828e 42be 2040 31bd
00000320: 765b 2a3e 8884 08bd f8ac 52bd 6468 503e
00000330: c81c 703e c835 b03d 126b 75be 6017 bdbd
00000340: 8063 0d3d 22e5 74be 5015 9b3d 50f9 663e
00000350: 5449 8c3d 7405 8a3d c686 6f3e 405a 2d3d
00000360: 2c87 183e ba9a 003e 4068 debd 7847 423e
00000370: 3871 573e 4861 4cbd 0ade 183e a09d 103c
00000380: 0eba 56be 8063 1fbd c8d7 0f3e 7a10 1bbe
00000390: 8a55 693e decd 0cbe a0ff bf3d b0e0 9cbd
000003a0: f88d bf3d 0036 ae3c cc73 c3bd cc87 cb3d
000003b0: 1087 d5bd bc45 5e3e d4a6 393e 2044 573c
000003c0: 805c f9bb a889 d13d 4438 233e d4e7 843d
000003d0: ee3c 1a3e fecc 0cbe d883 febd 086b f63d
000003e0: f831 063d 9855 c73d a4d9 3ebe 2a3e 5b3e
000003f0: 06a8 3abe 0036 bcbd 807b b33b 169d 0f3e
0.17524603 -0.13218498 0.061799467 -0.10327628 0.14717805 -0.12043676 0.16496807 -0.17545
0.21577188 0.028885573 -0.0912894 -0.11068994 -0.21635112 -0.23288924 0.17872101 -0.15057418
-0.11436245 -0.05948183 -0.24732605 -0.09192473 0.1567133 0.18629113 -0.13512444 0.12974903
0.10378152 -0.1451762 -0.18070725 0.1623761 0.17784029 0.024804533 -0.06433073 0.08919698
0.062475115 -0.11358783 0.04522133 0.24504244 0.055960536 -0.14265096 -0.032066166 0.22628453
-0.14189795 -0.026042342 -0.24466726 -0.14698383 0.011766732 -0.030436546 -0.06831205 -0.24788114
0.11723462 0.07611874 0.21053568 0.17485455 -0.23763123 -0.2298049 0.01389426 -0.16425431
0.16384605 0.2486467 -0.01525867 -0.2152608 -0.042666018 0.02204305 -0.1075584 -0.032317102
-0.08222702 0.088834375 -0.057803392 0.11017889 0.18818346 0.0020269156 0.12602997 -0.23224494
-0.22363392 0.19348142 -0.17509586 -0.018138915 0.0071240067 0.09847677 0.14645979 0.06912872
0.009327322 -0.19426563 -0.21094888 -0.058190227 0.029844701 0.029993713 -0.21377817 -0.094614625
0.13684046 0.00881806 -0.056870967 0.15197358 -0.19816872 0.05401513 0.21876967 -0.017279655
0.12881854 -0.18513232 0.08920398 -0.10915515 0.15143278 -0.1545985 0.032232314 -0.15458313
0.17948982 0.1411348 0.018759698 0.24273288 -0.034579605 0.01647979 0.08215639 0.020979375
0.23987678 -0.17152557 -0.09851551 -0.1327466 0.02750197 -0.013486147 0.15000615 0.06994352
0.24452311 -0.070928454 -0.12985319 0.062336713 0.024175525 -0.2187598 0.1129722 0.15112108
0.21385235 0.035194367 0.1564734 -0.06631175 0.0833506 -0.02590543 0.21441561 -0.04069978
-0.24690318 0.22503033 0.1392931 -0.16795841 -0.10943255 0.11168292 0.0913285 -0.07318416
0.17935586 -0.010271221 0.21478188 0.16400039 -0.16222051 0.24120262 0.07455316 0.2113724
0.13284251 -0.07286623 -0.24286702 -0.11199018 0.026347607 0.036245823 0.11578086 -0.22296515
-0.21110728 -0.022345334 -0.14257076 -0.007695377 -0.05644706 -0.18994242 -0.18519062 0.18028507
-0.22816265 0.06630105 -0.17098394 0.13631755 -0.2430546 -0.23998314 -0.23069343 -0.0870876
0.022998363 -0.037715197 -0.14956841 -0.18799704 0.1964849 -0.017084807 0.13188043 0.20250452
-0.15099421 0.04029432 -0.13299659 0.13217422 -0.11366734 -0.026808232 0.13756531 0.12343702
-0.19980147 -0.004481524 -0.16877848 -0.08257848 -0.04351291 0.14007601 -0.18999675 -0.043274045
0.16636452 -0.033329517 -0.051434487 0.20352322 0.23448479 0.08604008 -0.23966625 -0.09232974
0.03451872 -0.23915532 0.075724244 0.22556043 0.06849924 0.06739321 0.23391256 0.042322397
0.14895314 0.12559023 -0.10859728 0.18972576 0.21039283 -0.049897462 0.14928451 0.008826643
-0.20969412 -0.03891325 0.14047158 -0.15143004 0.22786537 -0.13750407 0.093749285 -0.07660043
0.0935325 0.021265984 -0.09543571 0.099380106 -0.10426152 0.21706289 0.18130046 0.013138801
-0.007609904 0.10231334 0.15939432 0.0648953 0.15062305 -0.13750073 -0.12427491 0.12032133
0.032762498 0.097331226 -0.18637711 0.21410432 -0.18228158 -0.09189987 0.005477369 0.14024767

bias f4 [32]
00000000: 34bd 1ebe 149b bd3d c010 20bd 34a0 acbd
00000010: f88a 6cbe 806a 013d 8834 29bd 0077 f9bc
00000020: 5689 1ebe 1423 003e 7a7f 1e3e c66f 70be
00000030: 2cf3 763e 80cf 203c ca8f 763e 10b6 f6bd
00000040: 626d 3c3e 34cd 03be 9adb 193e 685e 20bd
00000050: d62c 6a3e f042 dfbd c8d4 25be e4bb 60be
00000060: e090 7d3e d267 463e 1c0c 4c3e ae6d 083e
00000070: 2051 c13d 68ae 0abe e053 e63c fcc0 ec3d
-0.15501863 0.092580944 -0.039078474 -0.08428994 -0.23099887 0.031595707 -0.041309863 -0.030452251
-0.15482077 0.12513381 0.15478316 -0.23480138 0.241162 0.009815097 0.24078289 -0.120464444
0.18401101 -0.12871248 0.15025178 -0.039152533 0.22868666 -0.10901439 -0.16194451 -0.21946675
0.24762297 0.19375542 0.19926494 0.1332309 0.094393015 -0.13543093 0.028116167 0.11560246

weight f4 [64, 32]
00000000: 642c 31bd 5dd0 a0bd c251 34be 8ad5 dc3c
00000010: c8b0 20be efd1 29be 207f 223e 8932 ce3c
00000020: f76a ae3d 1295 7cbd 6623 573c 4f7e d43d
00000030: 297d 993d 35ea b13d f707 0dbe 9999 e33a
00000040: 1736 573d 54ae 083e cece ecbd e575 fbbc
00000050: eb11 ff3d fc67 e4bc f97f d93d 7d8c 213d
00000060: 0438 633c 9d80 05bd 1f41 acbc 042d 21be
00000070: 661b 223e 0aac a4bd bdc4 113e 18b2 2e3e
00000080: c58d 8ebd b4b9 42bc ad58 dd3d 7855 d7bc
00000090: a820 ba3d 3211 5ebd bab7 fa3b 689a 2a3e
000000a0: 05f0 4e3d 2f1b cd3c e6cb 6ebd 5401 e7bd
000000b0: 6efb c4bd f5ed 1fbe 0991 e9bc de0d ae3d
000000c0: 5d06 4abd 2985 fa3d 6b80 cc3c a841 fb3c
000000d0: 3490 afbd 1f04 333e 7c7b 32be 1a67 11be
000000e0: d128 56bd 33dc ce3d 8a7c db3d a0fc a23d
000000f0: 4920 243d 54ef 0b3e a18f 1f3e ff8b 22be
00000100: b6a3 0ebe 343a af3d 3f4c 1e3e 95f7 12bd
00000110: 5cc2 2d3e e4db 82bc f3b7 2ebe cbb9 203d
00000120: 6fde c3bd 1e17 1f3d 992a ef3d 75cb 1fbe
00000130: 6cfa e6bd 7291 b23d d4ae f3bd e6b6 01be
00000140: 930a a83d 51ca 253d aa8b 0dbe d95c adbb
00000150: 7119 abbd cb3c 9d3d abb5 01be 6d08 f9bd
00000160: 4303 eb3d 3de5 2bbe 31a0 0dbb 32aa 9dbd
00000170: 32a1 9a3d 0821 cd3d b861 30bb 5cb8 1b3e
00000180: fa6d dd3d 1445 52bd 0861 2abe 7342 d63d
00000190: bed8 58bc 772d d93d f91b f93c 3aaa 543d
000001a0: 3f1e fdbc 3675 273d e973 21be 6823 2ebe
000001b0: 2099 01be b574 263d 9f11 0d3e d706 02be
000001c0: 66df 923d f41e a9bc 20f6 1abd 09c4 d23d
000001d0: 28c7 c7bd bb37 f43b b2ab 3dbc 6422 2dbe
000001e0: abb6 aa3d 9c6c 28bd d4a6 b6bd d44d 053e
000001f0: 26e5 3d3d 110e 2ebd b3bc 00bd 8dfa dabd
00000200: d96f feba 7be0 2abe 190b b2bd 99ae 013e
00000210: 7e59 adbd b464 223e 0c8f 61bc e5cd 0e3e
00000220: 9394 21bd ee27 283e 05f3 e43c eaa9 9a3d
00000230: d5da fe3d 5a51 fc3d 6a7b e7bd d41f 8b3d
00000240: 9c6f a93c 84c4 a73d 6771 8bbd 5872 003e
00000250: c2a6 1abe d77f ee3b 8ce3 82bd 7ae4 6d3d
00000260: aa0a 10be 6240 e9bc d64f 31bc 9ab5 c03b
00000270: 7c23 2a3e 11f3 08be 5253 d8bd 1a78 0d3e
00000280: cf40 8dbd 2eeb ce3d 9568 26be 7b7c 83bd
00000290: 92ff 2a3e 8123 c93d fb27 9a3d b085 14be
000002a0: d54a 273e 8c58 2c3e f989 f23d 6f28 233e
000002b0: a2d5 c63d c5da 09bd e489 1b3e aa88 753c
000002c0: 47b2 c2bd faf8 1f3e db2d 04be 39ad c9bb
000002d0: 1b2f 123e 7195 0a3e 7eb4 303e ae1f b23c
000002e0: 3a2f f33d bd29 033e 4fe5 273e 1a8f 7c3d
000002f0: 9568 b83d e9d1 053e 190b aebd 900c 223e
00000300: 0aa8 193d 91a0 c0bc 1162 f43c a576 0bbe
00000310: 171f 85bd 5592 0a3d 6bb4 bebc 2bc5 f93d
00000320: 1356 4dbd fbac 083e aa2e 25bc 64e4 8c3d
00000330: 90a0 1d3e 9831 a53d 1804 81bd a2ba 33be
00000340: 7519 133d 70b6 1b3b df44 a5bd 20a8 093d
00000350: 1611 eb3d 295d 0abe 0fe7 fc3d 3993 213e
00000360: 59f1 febd 0d1c 61bc d450 b13d 5b10 b0bd
00000370: 1825 203e 3c3e 193e 5477 c53d a646 f1bd
00000380: 9339 f0bd 82af 863d 5813 a0bd af4c e83d
00000390: 1bda c43d 5ec9 3ebd 0211 1cbe edf8 2dbe
000003a0: 9a80 30be 077a c039 9098 da3c 15d1 c43d
000003b0: 9867 933c 94be 25be 4239 56bd e300 1fbd
000003c0: c436 5dbd 2ed8 9fbc 4e17 c1bd 25c8 143e
000003d0: 51c9 5dbc d606 073e ea85 233d 5629 debd
000003e0: 9486 013e b3d1 c83d f3cf 0fbe 50af 363d
000003f0: 98bc 4b3d 220e 543d f82d 963c 5513 c6ba
-0.043255225 -0.07852242 -0.17609313 0.026957292 -0.15692437 -0.1658399 0.15868807 0.025170581
0.08516496 -0.061665602 0.013130998 0.10375654 0.074945755 0.086872496 -0.1377257 0.0017364501
0.05254182 0.13347751 -0.11562882 -0.030695865 0.124545895 -0.027881615 0.10620112 0.03944062
0.013868336 -0.03259336 -0.021027146 -0.15739828 0.15830764 -0.08040626 0.14235206 0.17060125
-0.06960634 -0.011885095 0.10807929 -0.026285872 0.0908826 -0.054215617 0.0076512964 0.16660464
0.05052187 0.025037376 -0.05829992 -0.1127955 -0.09618269 -0.15618117 -0.028511541 0.08498739
-0.049322475 0.122324295 0.024963578 0.030670956 -0.085724264 0.17482041 -0.17429918 -0.14199486
-0.05228502 0.101005934 0.10717113 0.07958341 0.040069852 0.13665515 0.15582134 -0.15873717
-0.13929638 0.08556023 0.15458773 -0.035880644 0.16968673 -0.015973993 -0.17062359 0.039239686
-0.0956391 0.038840406 0.11678047 -0.15604956 -0.11278233 0.08719148 -0.1189858 -0.12667426
0.08205142 0.040476147 -0.13822809 -0.0052906093 -0.08354462 0.07677611 -0.12666957 -0.1215981
0.114752315 -0.16786666 -0.0021610374 -0.07698478 0.07550277 0.10016066 -0.0026913714 0.15207046
0.10811992 -0.05133541 -0.16638577 0.10461893 -0.013235269 0.10604375 0.030408846 0.051920153
-0.030898212 0.040883265 -0.15766872 -0.17005694 -0.12656069 0.040638644 0.13776253 -0.12697922
0.07171516 -0.020644642 -0.03783238 0.10291297 -0.09754783 0.0074529327 -0.01157658 -0.1690765
0.083356224 -0.041119203 -0.08918539 0.1301797 0.04636111 -0.042493884 -0.031429958 -0.1069232
-0.0019411995 -0.16687195 -0.08693523 0.1266426 -0.08464335 0.15858728 -0.013767015 0.1394573
-0.039448332 0.16421482 0.027947912 0.0755194 0.12444083 0.12320204 -0.11302836 0.0679318
0.020683102 0.08191779 -0.06808739 0.12543619 -0.15102676 0.0072784233 -0.06391057 0.05807922
-0.14066568 -0.028473083 -0.010822257 0.0058810236 0.16615099 -0.13373972 -0.10562767 0.13815346
-0.06897127 0.10103451 -0.16250832 -0.06420227 0.16699055 0.09821225 0.07527157 -0.14504123
0.1633714 0.16830653 0.118427224 0.15933393 0.09708716 -0.0336559 0.1518932 0.0149861965
-0.0950666 0.15622321 -0.12908117 -0.006154683 0.14275782 0.1353357 0.17256352 0.021743622
0.11874242 0.1280889 0.16396068 0.06165991 0.090043224 0.13068356 -0.084982105 0.15825105
0.03751377 -0.023514064 0.029831918 -0.13619478 -0.065000705 0.03383096 -0.02327939 0.1219581
-0.050130915 0.13347237 -0.010081926 0.068794996 0.15393281 0.080661 -0.06299609 -0.17551664
0.03591295 0.0023759864 -0.08069777 0.033607602 0.11477868 -0.135121 0.123487584 0.15778817
-0.12448377 -0.013739598 0.08657995 -0.085968696 0.1563915 0.14965147 0.09641901 -0.11781053
-0.117297314 0.06576444 -0.078161895 0.11342751 0.09611913 -0.046578757 -0.15240863 -0.16989489
-0.17236558 0.0003671201 0.026684076 0.09610192 0.017993733 -0.16185981 -0.0523007 -0.038819205
-0.054007307 -0.019512262 -0.09428273 0.14529474 -0.013536767 0.13186201 0.039922632 -0.10847728
0.12648994 0.09805622 -0.1404417 0.044600785 0.049740404 0.05177129 0.018332466 -0.0015111963

bias f4 [64]
00000000: 299f 36bd cd1f 863d d8c2 82bd cc9e 01bd
00000010: 51a0 023c ed85 2bbe 81ab 1ebd f655 083e
00000020: 1575 e5bc bee8 eb3d f466 5abd a2f6 013e
00000030: ec09 7c3d 7c38 ac3d 0d7e 6e3d f5ae a83d
00000040: 347c cd3d 7ab1 0dbe e17f 30bd 1326 243d
00000050: 9076 0bbe dbde b83d b63e bb3d 0652 2d3e
00000060: 5254 ad3c 2452 923d 2792 84bd c0b7 2a3d
00000070: c810 f0bd c391 a03d 9e18 0b3d 1020 073d
00000080: c804 51bd c5ca 243e fd2f 5c3c 0780 2dbd
00000090: b5df 6cbb 664d 433b a658 abbd 2b21 123e
000000a0: a393 a53d 1c99 46bd aa1d 59bd 0688 22be
000000b0: 4ef9 a3bd ef39 683d 8a25 983d 2736 333e
000000c0: 6d31 9fbd ff4f 213e b5dc febd 830a 253d
000000d0: 4f18 ae3d fd9b ed3d 3abc ac3d 6333 fa3d
000000e0: aec9 233e e847 9b3d 87a6 efbb a2c6 073e
000000f0: b880 c53d 1304 b13d 341c ab3b 9c35 0f3e
-0.04458538 0.06549034 -0.0638482 -0.03164558 0.007972793 -0.16750307 -0.038737778 0.13314041
-0.02800993 0.115190014 -0.05332084 0.12691739 0.0615329 0.08409211 0.05822568 0.082364954
0.100334555 -0.13837233 -0.043090705 0.040075373 -0.13619447 0.09026881 0.091428205 0.1692582
0.021158371 0.07144573 -0.06473189 0.041679144 -0.11721951 0.07840302 0.033959024 0.03298956
-0.05102995 0.16092975 0.013439176 -0.042358425 -0.0036144082 0.0029800772 -0.08366518 0.14270465
0.080848 -0.04848586 -0.053006805 -0.15872201 -0.080065355 0.056695875 0.07429035 0.17501126
-0.07773099 0.15753172 -0.1244444 0.040293228 0.0850073 0.11602018 0.08434339 0.122168325
0.15994903 0.075820744 -0.007313553 0.13259366 0.09643692 0.08643355 0.005221868 0.13985294

weight f4 [32, 64]
00000000: 0c4d db3d a0fd 75bc 809e 70bd b09e 8ebc
00000010: 502d 253c 60b7 c0bc 1099 7abd 1090 7abc
00000020: 0e96 82bd bcd8 74bd 3021 3abc 28e9 49bd
00000030: 724f a93d 9acc ac3d 5009 da3d c89d 98bd
00000040: 30b5 073c bc54 bebd ae03 adbd dc11 ac3d
00000050: 1055 113c a4e9 c1bd 8a9f a93d 700a 083d
00000060: 3635 cfbd f878 f9bc 3631 f3bd 50f9 febc
00000070: 8ab1 97bd 0429 da3d 18ea 83bd 94ce e4bd
00000080: 40b1 f1bc b031 86bc 3acb 8bbd 8466 483d
00000090: a4fe c3bd 168f cf3d 0045 45bd c846 d13d
000000a0: 3a42 a5bd 60cc 9c3b dc13 18bd c28c f43d
000000b0: 56cc 92bd 2c40 693d 2069 7f3c 2843 73bd
000000c0: 98eb d33c 0084 6d3b e87d cfbd e801 cabd
000000d0: 5679 9f3d 9ada b33d 90ec 0c3d 804f 62bb
000000e0: 1ef0 b13d 3021 cf3d 34e6 fabd 1259 fabd
000000f0: 34ee ce3d ae23 db3d b0a7 2bbc 92e7 8b3d
00000100: c4db 283d 500f ff3c 00a8 e838 50a4 0b3c
00000110: 3cfc 3f3d 82f1 c03d e07e c33b de7e 9a3d
00000120: a45e fd3d c8a3 f33d 024d c13d ba7f 823d
00000130: 182c 54bd a485 e13d f846 c7bd 98f0 ccbc
00000140: b032 293c c44c 95bd c007 5b3b 9008 f3bc
00000150: 46cb bebd 84c2 1d3d 3636 e2bd 1ab4 dcbd
00000160: 1c8d 7dbd 6069 d83c 0011 2ebc 307b 4b3d
00000170: ce28 eebd c039 99bc 5846 713d a0ef 473d
00000180: 3643 ca3d a495 893d 00f4 1e3c 26ee a13d
00000190: f488 97bd 2ce6 8bbd b817 2a3d fc3a d6bd
000001a0: cce2 60bd 9a4f 9cbd 46d1 ebbd be3b 9f3d
000001b0: 50f1 7f3c 90a7 b03c 040b 7abd 80dc 933a
000001c0: 6080 dbbb d654 f5bd 74a0 be3d a418 1b3d
000001d0: ba51 eabd 20b4 7e3d 68e1 a23d c08b e1bb
000001e0: a80d dcbc 007d 493c 3256 c6bd 44db b03d
000001f0: 20d2 0d3d 3472 013d 32e1 e43d 0442 5f3d
00000200: b8d4 21bd 50f8 1e3d f40b b7bd a6b6 ad3d
00000210: ac59 a93d 141c d93d cefe ce3d c0cc 8cbb
00000220: e074 eabc 5c93 133d ae70 a3bd 7c0d 903d
00000230: 98d7 5d3d 24af e33d bcaa 7abd 88e6 903d
00000240: c022 88bb e448 26bd c2d0 953d f8be e6bc
00000250: 5221 90bd 200d 963c 02cb babd a295 80bd
00000260: 3049 d73c 6881 ce3c 2c00 bd3d 243c 36bd
00000270: d0b6 303d f82c 90bc 1c84 c3bd c0af b1bd
00000280: 0c61 fcbd f874 b1bc f8b6 babd 7046 1f3d
00000290: 860f aabd b0fa bc3c 2cd1 7bbd 6c76 73bd
000002a0: 8ccd e5bd 68ff 4b3d ac1f 92bd 0ca6 323d
000002b0: 0e8c 88bd 48d4 cdbd f823 79bd 4e39 ef3d
000002c0: 0048 a2ba 34e5 7bbd 18c9 b13c 1c67 f9bd
000002d0: ded2 e5bd 684c 0dbd 384f bd3c fa79 a0bd
000002e0: 68ba 283d a6df b13d 1ecc f6bd 10cf 82bc
000002f0: 40e9 1fbd 6cf5 ecbd 9237 b8bd 8c1c c4bd
00000300: d644 acbd a439 6dbd 7034 ab3d 6833 12bd
00000310: 5463 d3bd aae6 e13d 2aca 8d3d 7caa 643d
00000320: 1aaa f6bd 469b d93d 200f f73d 0c11 a6bd
00000330: dc30 943d f000 c73c 4027 8b3d 6c77 dfbd
00000340: 0698 ae3d 8057 0abb e8c6 4abd 1e65 e0bd
00000350: 0018 7439 0c4d b3bd 6049 573c 8031 c3bc
00000360: 78ef f2bd 40d3 c63b 280d 8dbc 3c25 55bd
00000370: 70d5 62bc 68d2 7ebd 6215 dcbd be9a 8f3d
00000380: 8891 fa3c ac43 d73d a4cc 123d 00e9 a13a
00000390: 806a d53a 7064 41bd 3a30 8f3d 98ef 433d
000003a0: d2b7 e6bd a055 963d d801 b3bc f041 2e3d
000003b0: dc0f 5e3d 626c 97bd b019 923d 7886 883c
000003c0: d8ec bbbc 28fe 3dbd 4efd 983d e8f7 c03d
000003d0: 145a 613d 003b 1a3d 80e7 44bd d2d5 ec3d
000003e0: 14e7 d93d f828 db3d dc33 babd c872 f7bc
000003f0: 84c0 3a3d e06e b43c b8b9 423d fa97 cabd
0.10708055 -0.015014082 -0.058744907 -0.017409652 0.010081604 -0.02352494 -0.061181128 -0.015293136
-0.06376277 -0.059777007 -0.011360452 -0.04929462 0.08267106 0.08437462 0.106463075 -0.074519694
0.008282945 -0.092935055 -0.084479675 0.08401844 0.008870378 -0.094683915 0.08282383 0.03321308
-0.10117571 -0.03045319 -0.118746206 -0.03112474 -0.0740691 0.10652354 -0.06441134 -0.11172214
-0.029503465 -0.016381115 -0.06825872 0.04892589 -0.09570053 0.10134713 -0.048161507 0.102185786
-0.08069272 0.0047851056 -0.037128314 0.1194091 -0.0716788 0.056945965 0.015589029 -0.059390217
0.025869176 0.0036242008 -0.101314366 -0.09863645 0.07786815 0.08781929 0.03440529 -0.003453225
0.08688377 0.10113752 -0.12250939 -0.1222402 0.101040274 0.10700165 -0.0104769915 0.06831278
0.04122521 0.031135231 0.000110939145 0.008523062 0.04687141 0.09421064 0.0059660524 0.07543729
0.12371567 0.11896473 0.09438516 0.06372018 -0.051799864 0.11011818 -0.09730333 -0.025017068
0.010327026 -0.072900325 0.0033421367 -0.029667169 -0.09316115 0.038515583 -0.11045496 -0.10776539
-0.06190215 0.026417434 -0.01062417 0.049678028 -0.116288766 -0.018704295 0.058904976 0.04881251
0.09876101 0.06717995 0.009701729 0.07906751 -0.073991686 -0.06831011 0.041526526 -0.10460469
-0.05490379 -0.0763237 -0.11514525 0.07775067 0.015621498 0.021564275 -0.06104566 0.0011280924
-0.006698653 -0.11979072 0.09307948 0.037865296 -0.11441369 0.0621835 0.07953149 -0.0068831146
-0.02686198 0.012297869 -0.09684409 0.086355716 0.03462422 0.031603053 0.11175765 0.054506317
-0.039509505 0.038811028 -0.08937827 0.08482103 0.08269057 0.106010586 0.10107194 -0.004296869
-0.028620183 0.036029205 -0.07980476 0.07033822 0.054160684 0.1111739 -0.06119798 0.0707522
-0.004154533 -0.040596858 0.07315208 -0.028167233 -0.07037605 0.018316805 -0.09120752 -0.0627854
0.026280016 0.02520819 0.092285484 -0.04449095 0.043143094 -0.017599568 -0.09546682 -0.086761
-0.12323198 -0.02166222 -0.0911693 0.038885534 -0.08303742 0.023068756 -0.06147878 -0.059439108
-0.112208456 0.04980412 -0.07134947 0.043615386 -0.06667338 -0.10050255 -0.060825318 0.11680852
-0.0012381077 -0.061497882 0.021702334 -0.1217787 -0.1122186 -0.034496695 0.023109064 -0.07835765
0.041193396 0.08685236 -0.12050651 -0.015967876 -0.039040804 -0.11570248 -0.08994974 -0.095757574
-0.08411567 -0.0579163 0.08359611 -0.035693556 -0.1032168 0.11030324 0.06923325 0.05582665
-0.12044163 0.10625319 0.12063432 -0.0810872 0.07235882 0.02429244 0.06794596 -0.1091145
0.0852509 -0.0021109283 -0.049506098 -0.109567866 0.00023278594 -0.0875493 0.013140053 -0.023827314
-0.11862081 0.0060676634 -0.017218187 -0.052037463 -0.013844833 -0.062212378 -0.10746266 0.070119366
0.030586973 0.10510954 0.03583969 0.0012352765 0.001628235 -0.047214925 0.0699162 0.047835916
-0.1126553 0.073405504 -0.021851465 0.04254335 0.054214343 -0.07393719 0.07133806 0.016665682
-0.022940084 -0.04638496 0.07470189 0.09422284 0.055017546 0.037653923 -0.048072338 0.115642205
0.10639778 0.107011735 -0.09091923 -0.0302061 0.045593753 0.022025526 0.047540396 -0.098922685

bias f4 [32]
00000000: 7c85 05bd a4c5 a9bd a24d a73d 880f ccbd
00000010: 88ff 45bd 500d e4bc bcc5 fabd 7462 39bd
00000020: 10bb 2d3d e893 833d b0fe 213d dac8 983d
00000030: 8041 143c f84a eb3d 00a3 573b c08c a43c
00000040: 844b df3d 7af6 f83d 7cbc e6bd 54cd 923d
00000050: 1693 e3bd 0a77 f13d c43d ddbd 0487 dbbd
00000060: d03c 393d d029 d73d b081 633c ac57 49bd
00000070: 404d 53bb ccb1 063d f8fa f1bc a03c a13c
-0.032598004 -0.0828965 0.08169104 -0.099639 -0.048339397 -0.02783838 -0.12244746 -0.045259908
0.042414725 0.06424695 0.03954953 0.074601844 0.00904882 0.114889085 0.0032903552 0.020086646
0.10903075 0.12156387 -0.11266419 0.071680695 -0.11112039 0.11790283 -0.108027965 -0.107191116
0.04522401 0.10506022 0.0138859 -0.049155876 -0.003224209 0.032884404 -0.029538617 0.019682229

weight f4 [16, 32]
00000000: 3775 2cbe e314 1f3d d858 11bd 2891 0bbe
00000010: 9786 1cbd 4356 1ebe fdc4 02be 2e6b 043e
00000020: ecb9 babc c7da d8bc 3600 18be 288e 273b
00000030: 54f2 aa3d 25fd a2bd b0ab 2ebe 87bd 1f3e
00000040: b262 ca3d 46c4 143e 0800 593d ce7c 93bc
00000050: 80bd 293e cd75 bb3d 58b6 dbbd 13ba 713d
00000060: 1726 bcbd f59f 2d3e a803 9a3c e77d 223e
00000070: 5415 b43d 0fb1 813d 60a1 a2bd 9450 ac3d
00000080: 3a4d 7dbc 51a7 8b39 e643 a13b b5fc a3bd
00000090: a817 bfbd 3231 4dbb a388 ec3d 17b7 2f3e
000000a0: 1c1f d9bd b4c2 1f3b 3d1f 2c3e 909b 6cbd
000000b0: 13c8 2abe 8928 05be aa0e 323d b419 1bbd
000000c0: 1bce 283e 6356 f43d 4849 bcbd 412d 0dbe
000000d0: beb5 a1bb 8baf 01be b444 84bd 3429 bdbd
000000e0: 58e7 a03d 439c da3d b07c 21be d5ac 37bb
000000f0: 658c e13d c3d1 073e a226 a93d 3300 21be
00000100: 844f 9cbd eea5 863d 2bf9 a8bc a3ad d9bd
00000110: 4180 323e d1e8 24bd 950b ae3d f1cf 59bd
00000120: 7f30 c1bd 1ada fabd d60a 013e 9c4c 873c
00000130: d43b 0e3e 7fa3 70bc 225a 1f3e f604 31be
00000140: 2111 d63b 7f9c 2f3e 0c93 933d 83d1 833d
00000150: 738c d9bd a48a 2bbe 007d babd 1834 cc3c
00000160: 5e72 2d3e a27e 6d3c 98b9 0cbe 594d 62bd
00000170: 66e8 8c3d 1307 6f3c f7b1 71bb 6060 9abb
00000180: a26f 87bd 781c 16be fe2d 9cbd 0dbb 233e
00000190: f392 bfbd 6706 b23d 9e29 c83d 5328 123e
000001a0: 0986 1cbe e597 313d 5139 cd3d 8a2a a43b
000001b0: 4520 01be 32e8 11be 08b7 023e 0b90 2abd
000001c0: fad3 0f3e 673a 5bbd 78a1 1ebe 6e30 a13d
000001d0: d0be fe3d 4f25 09be 7e4d 853d 9fcd d3bd
000001e0: 9d28 cabb 981f b43d 7a31 8fbd 8703 54bd
000001f0: 96b2 1b3e 9fea f9bc a86d 9ebc 2464 d1bd
00000200: 967c ae3d d36c 853d 8636 b33d 8ee7 c6bc
00000210: 38c1 073e 703f 853d 72d7 dfbc 34f4 81bd
00000220: 4310 c6bd c85f 54bd a7b9 e73d 22a8 3abd
00000230: c856 debd 1b4e 163e 2026 e63c 4c4e 103e
00000240: 25b6 cc3d 1c8b 2f3e 5a1f a33d 1309 fa3c
00000250: 2df9 e83d a577 c8bc a2da 343d 7b17 91bd
00000260: 122b 16be fe37 9c3d 0663 623d 0d0f 11be
00000270: 64fe 963d f24c 9d3d 4dac 223e 63b1 a83d
00000280: 1e48 863d 4b64 c73d 212c 013e 0d39 ffbd
00000290: 6b65 713c 4e0f 7e3d ef99 c9bd 01c5 d9ba
000002a0: d5e9 4ebd 15df 3fbc be6f 03bd 839a 0abe
000002b0: 659e 45bd 7b52 1b3e d50f 9e3d 7ba3 16bb
000002c0: 6c08 06bd 9481 a2bd 4241 4d3d 0fa4 55bd
000002d0: 7fd7 d13d e7b0 2ebd 87d6 c2bd ef03 ca3d
000002e0: ae48 fa3d c1d9 03be 486e 9f3d 690d a9bd
000002f0: 90a0 5abc 2fe2 853d 8e4c 913c 870c 18bd
00000300: 133a 2c3d 7151 18be 3835 ad3d 9625 243e
00000310: faf8 40bd 1ad0 edbd bf6b 023e a015 88bd
00000320: b25a 6abd 96f1 f4bd d158 16bd 3b73 303e
00000330: b960 0abc fcf4 c3bc 61cd f23c 857f 27be
00000340: b55b d4bd 9b6d ac3d 3f8d a8bd 7a67 fdbd
00000350: f65a c43d a911 0c3e c9cb 22be 7691 213e
00000360: 1a6c d2bc 1530 6cbd 5cd1 973d 4d53 0f3e
00000370: c0ad 0dbe c4ae a43b 7349 873d 27d2 30be
00000380: a33b 073e e367 01bd 4b9d 10be 6640 113e
00000390: 6307 a7bd c154 b53d 6d52 c73d 2ac5 2e3e
000003a0: e649 23be d45f 2b3e 76e3 713c 871c d0bd
000003b0: d920 80bd 6e40 e23d ade2 0bbe 19b4 733d
000003c0: 371e 123c 23f2 c2bd 8116 07be ffe4 9fbc
000003d0: dcb8 c7bd 6b40 343e 15df 223d c37e 763d
000003e0: 6978 28be 7003 933d bcda e83d cec6 d3bd
000003f0: 88a3 3bbd 452a 683d dabe 1cbe ccca 0d3e
-0.16841589 0.03883828 -0.03548512 -0.13629591 -0.038214292 -0.15462594 -0.12770458 0.12931511
-0.022793733 -0.026471509 -0.1484383 0.002556691 0.08347002 -0.0795844 -0.17057681 0.15599643
0.09882106 0.14527997 0.052978545 -0.018003847 0.16576195 0.09153328 -0.10728139 0.059015345
-0.091869526 0.1695555 0.018800572 0.1586834 0.087931305 0.06332599 -0.07940936 0.084138066
-0.015460307 0.00026636806 0.004921424 -0.080071844 -0.09330684 -0.003130984 0.11549499 0.17159687
-0.10601637 0.0024377527 0.16808791 -0.057765543 -0.16677885 -0.13003744 0.043471016 -0.03786631
0.16484873 0.119305395 -0.09193665 -0.13786794 -0.0049349954 -0.1266462 -0.064584166 -0.092363745
0.07856625 0.10674336 -0.15770221 -0.00280266 0.11013106 0.13263611 0.08259322 -0.15722732
-0.07632354 0.06574617 -0.020626625 -0.10628822 0.17431737 -0.040261094 0.08498303 -0.053176824
-0.09433078 -0.12248631 0.1260179 0.016516022 0.1389001 -0.014687418 0.15561727 -0.17287049
0.0065328036 0.17149542 0.07205781 0.064364456 -0.10622492 -0.16752106 -0.09105873 0.024927184
0.16938159 0.014495524 -0.13742673 -0.055249546 0.06880264 0.014589089 -0.0036879757 -0.004711196
-0.06613089 -0.14659297 -0.0762596 0.15989323 -0.093542 0.086926274 0.09773563 0.14273195
-0.15285505 0.04335775 0.10020698 0.005009954 -0.12609966 -0.14248732 0.12765133 -0.041641276
0.14045706 -0.053522494 -0.15491283 0.07870565 0.12438738 -0.13393138 0.06508921 -0.103419535
-0.0061693923 0.087950885 -0.06991859 -0.051761176 0.15204844 -0.030507384 -0.019339398 -0.102241784
0.08519857 0.06514897 0.08750634 -0.024280336 0.13257301 0.0650624 -0.027324412 -0.06345406
-0.096710704 -0.051849157 0.11314707 -0.0455705 -0.10856396 0.14678232 0.028094351 0.14092368
0.09995679 0.1714291 0.07964964 0.030521905 0.113756515 -0.024471113 0.044153817 -0.07084557
-0.14664868 0.07627867 0.055270217 -0.14165898 0.0737274 0.07680692 0.1588604 0.08236959
0.06556724 0.09735926 0.1261449 -0.124620534 0.014733653 0.062026314 -0.09843814 -0.0016614498
-0.05051597 -0.011710902 -0.032088988 -0.13535504 -0.04824676 0.15168183 0.077178635 -0.0022985626
-0.032722875 -0.07934871 0.050111063 -0.05215841 0.10246181 -0.042649176 -0.09513574 0.098640315
0.12220894 -0.12876035 0.07784706 -0.08254511 -0.013343945 0.06537282 0.0177367 -0.037121322
0.04204757 -0.14874817 0.08457416 0.16029963 -0.047112443 -0.11611958 0.12736414 -0.0664475
-0.0572154 -0.11960141 -0.036705796 0.17231457 -0.008445912 -0.023920529 0.029638948 -0.16357239
-0.10369054 0.08419343 -0.082300656 -0.12373252 0.09587662 0.13678612 -0.1589805 0.15778145
-0.025686312 -0.057663042 0.07412979 0.1399662 -0.13835812 0.0050257165 0.06605806 -0.17267667
0.13206343 -0.031593215 -0.14122503 0.14184722 -0.08155706 0.08854056 0.09732518 0.170674
-0.15946159 0.16735774 0.014763704 -0.10161691 -0.06256265 0.11047445 -0.13660689 0.059497926
0.008918337 -0.0951884 -0.13192178 -0.019518374 -0.09752056 0.17602699 0.03976353 0.060179483
-0.16452183 0.0717839 0.11369845 -0.10340653 -0.045810252 0.056680936 -0.15307179 0.13846892

bias f4 [16]
00000000: ec7d fabb d299 4ebc c25d 803d 11c4 1b3e
00000010: 196e 11bd aac6 ee3d 5d0d 31be 9612 823d
00000020: 825a 0bbc d4c7 303e 5412 2d3e 2371 09be
00000030: 3908 1e3e b949 3cbd 95ff e2bc bc7a ecbd
-0.0076444056 -0.012609916 0.06267883 0.15211512 -0.035505388 0.11658986 -0.17290254 0.06351201
-0.008505465 0.17263728 0.16901523 -0.13422064 0.15432824 -0.045968745 -0.027709762 -0.11546847

weight f4 [4, 16]
00000000: d013 b53d 9c5a 24be 7607 313e c05d 213d
00000010: a600 203e 6c1d acbd 5ae5 163e dc92 a5bd
00000020: a08f 603d ee81 46be 284c 1e3d 6c65 503e
00000030: 8279 3f3e 80a9 ee3b f620 2bbe 5ca1 193e
00000040: 4038 073c c032 a23c baee 2fbe 1a47 0cbe
00000050: e86b 893d 60b3 5c3e dc43 983d e0f6 5fbd
00000060: faad 30be 687c 703e 803b ddbd 9ee9 38be
00000070: 80dc b3bd 904c 2e3d 7eee 61be fcc8 d93d
00000080: 086f 7a3d be39 7fbe b621 1a3e aca0 b8bd
00000090: 6c18 4fbe 20ba 94bc 2cc2 42be d85f b03d
000000a0: 681f 663e 80dc 643b 3c6d 7dbe dac7 59be
000000b0: 84cb 0bbe d6f3 46be 4ed9 2c3e d06a d6bd
000000c0: 86a2 753e dc0d f43d 3074 ccbd c8b0 63bd
000000d0: be75 543e ecde bbbd acfd 75be 3665 1d3e
000000e0: f447 16be 18a2 79be c00e 9bbc 70df 66be
000000f0: 003f 65bc b436 503e 5008 42bd 4815 46bd
0.088416696 -0.1605019 0.17288002 0.039396048 0.15625247 -0.08404049 0.14735928 -0.08084652
0.05482447 -0.19385502 0.038646847 0.2035119 0.18698695 0.0072833896 -0.16711792 0.1500296
0.008253157 0.01979959 -0.1718091 -0.13698998 0.067100346 0.21552801 0.07434818 -0.054678798
-0.17253867 0.23484957 -0.10802364 -0.18057868 -0.087822914 0.042553484 -0.22063634 0.10634038
0.061141044 -0.2492437 0.15051922 -0.09015021 -0.2022416 -0.018155158 -0.19019383 0.08612031
0.22472918 0.0034921467 -0.24748701 -0.21267644 -0.13651854 -0.19428954 0.1687977 -0.104695916
0.23987779 0.11916706 -0.099830985 -0.055588514 0.2074804 -0.09173378 -0.2402255 0.1537064
-0.14675885 -0.2437824 -0.018927932 -0.22546172 -0.013992071 0.20333368 -0.04737121 -0.04836014

bias f4 [4]
00000000: 0a7c 3a3e 58c6 f33d 8c43 8a3d 9efe 52be
0.1821138 0.119030654 0.06751165 -0.20604941

weight f4 [32, 10, 3]
00000000: a5ff 44bc 121e cb3c a97d 5fbd 99ce 1bbe
00000010: 3bec 3cbe e14b 2d3e 527c b7bc b28d e23d
00000020: 46a1 91bd b7da e6bd 5ec1 87bd 2337 20be
00000030: b663 463d 7b71 14be dd44 943d 66c3 c23d
00000040: 64a0 313d 69de 94bd fa50 95bd 2e64 f1bd
00000050: 5bb2 5f3d 6fc0 223c 8456 33be 2f80 963d
00000060: f772 1b3d dfde b53b 461b c63b bb4a a93a
00000070: 9e34 45be e67d 053e 5d7a 203e ab1e 04bd
00000080: 5f44 193e f21e 2c3e 8970 fcbd 97b8 fdb9
00000090: 56ba 2fbe 2418 9f3a 1c0a 14bc dfe8 ddbd
000000a0: 19c4 ecbc 4f48 933c 94e9 ccbb 4f01 fd3d
000000b0: fde4 afbd 5055 bc3d 358f c83d 5f2a 0a3c
000000c0: 4a69 373d 8cae 30bd 9d69 afbd 70db e33d
000000d0: 2a4b b73c 3fe7 71bd 0c0c a53a 75aa dbbc
000000e0: ac18 b13d 67ba 8fbd 10ec 1d3e a8b3 25be
000000f0: 7ae1 253c 6bc1 023e bdd7 24bc 4e10 2a3e
00000100: 63dd 593c ea74 143c 62da d4bd 7590 03be
00000110: 81ac 6e3d fe0c 37be 5b68 1a3d 1afa cf3b
00000120: 4eb5 a1bd 8040 e23c d0ed c8bd 5454 87bd
00000130: 9464 e6bd bce0 08bb f944 353d 3ae8 30bd
00000140: a57e 31be d95f c1bc 03b8 093e 37a8 06be
00000150: d4c2 35be b63a 94bd cd9b 8cbd 83b2 dabc
00000160: 4340 8b3d 40ef 853c be05 ae3d 16bd e6bd
00000170: e920 01be 094d 2d3e c8c7 a8bd 8fb2 a3bd
00000180: d7d2 9fbd c821 24bd f1ae 24be aeab 0ebe
00000190: 60ee d4bd 5060 5cbd 4a7b 883d 4d50 053e
000001a0: 7749 e23c 6d8c 83bd 3c68 8a3d c7bf 963d
000001b0: c85d 56bc 3ce8 523d eb87 87bd 4d66 1f3e
000001c0: 8f06 213e 67c1 2e3e 4f1e 32be f1ca f1bd
000001d0: 9940 183e b464 74bd 5ac1 9cbd 3e5e 903d
000001e0: b3bb 773b 0326 183e e2e1 04bd 05ea 4bbd
000001f0: 711f 153e a0f0 fc3c 5692 9c3b 26d9 893c
00000200: d647 09be 73b6 ad3d e386 c4bd 9f24 fb3d
00000210: 5c07 f0bd 3a3a ac3d 31cd dbbd d7c7 163e
00000220: 1224 7b3d 20d1 9abd 1612 53bd cbda fb3d
00000230: 9d16 1abd 805f 15bd 1f97 b73d ca44 5c3d
00000240: daef 963d dab9 ad3d 04b9 14be cc5f 95bc
00000250: 5621 9dbd 2cbf 71bc 13f2 28be 4798 af3d
00000260: a46d 513b 7ea7 283e a9dd 2b3e c39f 973d
00000270: 3dba 263d 4fb4 bbbd 4246 913d a4ed cfbd
00000280: 4d75 e53d c9f9 8dbd 9494 083e 154d 3c3e
00000290: ccaf a6bd 39cc 313e 76d4 d13d 0d74 c9bd
000002a0: 96b4 0cbe e915 163e 7573 91bd 9ff4 ab3d
000002b0: 7b28 13be ecad ba3d 6436 883d b2b9 6f3d
000002c0: ca8e 273e 4cdd a43d 64e4 2c3e 9739 ef3b
000002d0: 563a 0ebd e025 91bd 8186 3fbd 357a 4fbc
000002e0: 7983 dcbc 9b59 0fbe 5f2a a3bc c370 92bd
000002f0: 2c11 fa3c 0cbd 383e 6b77 b0bd 5726 acbd
00000300: d5a3 163e 5b64 483e fede 0f3e be06 d0bd
00000310: 5245 3e3e 2283 093e 5928 863d 2e78 7abd
00000320: 99ca 133e e96e 44bd 0790 d33d 7cfa f13d
00000330: 8076 93bc be15 dfbb 962a 033d 859e 02be
00000340: 8f78 623d 48fc 123e aebf e9bd fcbd df3d
00000350: 2ee3 1b3d b6ed 9fbb 61ff e5bd 3a1f 06be
00000360: 0c02 c73c f1ce 3d3d 9872 323d 1d79 2e3e
00000370: 949f a0bd 3f47 36bd 7437 443c 871b b3bd
00000380: 26ba 9f3d ff33 893d e0b3 3abe 0e39 a23b
00000390: f4e5 f4bd a592 d03c c298 1a3e fe38 16be
000003a0: 1caf 4cbe a9b4 543c b574 353e 28a9 b5bc
000003b0: d7a7 003e 12cc a8bd bd00 253d 0e48 af3d
000003c0: 96db d5bd e5ca 4ebd faee a53d 70eb afbd
000003d0: dc64 35bd ea3c dcbb 5439 573d 8def 06be
000003e0: 5040 033c f145 2a3e 6bd3 d33d 9ca8 0fbe
000003f0: dccd 01be d44f c6bd 015b 08be bce3 1f3e
-0.012023841 0.024794612 -0.0545632 -0.1521553 -0.1844949 0.16923477 -0.022398148 0.110621825
-0.071108386 -0.11272185 -0.06628679 -0.15646033 0.048434936 -0.14496414 0.07239697 0.095099255
0.04336585 -0.07268984 -0.07290836 -0.11786686 0.054613452 0.009933575 -0.17513472 0.07348668
0.037951436 0.00555025 0.0060457317 0.0012915948 -0.19258353 0.13036308 0.15671678 -0.03225581
0.14967488 0.1680868 -0.12326152 -0.0004839345 -0.17160925 0.0012137932 -0.009035613 -0.10835432
-0.0289021 0.017978815 -0.0062534306 0.12353765 -0.08588598 0.091959596 0.097929396 0.008432954
0.044778146 -0.04313521 -0.08565066 0.11125839 0.022374708 -0.059058424 0.0012592091 -0.026814679
0.08647284 -0.07017975 0.15422082 -0.16181815 0.010124559 0.12769096 -0.010061202 0.16607782
0.013297412 0.009061078 -0.10393216 -0.12848075 0.05826998 -0.1787605 0.037697177 0.006346953
-0.07895909 0.027618647 -0.09810984 -0.06607881 -0.112496525 -0.0020885905 0.04425523 -0.04319022
-0.17333467 -0.023605274 0.13449101 -0.13150106 -0.17750102 -0.07237761 -0.06865654 -0.02669645
0.06799366 0.016349435 0.08497189 -0.11266534 -0.1261021 0.16923918 -0.0824123 -0.07993042
-0.078038864 -0.04007128 -0.1608236 -0.13932678 -0.10397029 -0.05380279 0.066641405 0.13018914
0.027622921 -0.064232685 0.067581624 0.073607974 -0.013083883 0.051491007 -0.06617721 0.15566368
0.15725158 0.17065965 -0.17394374 -0.11806286 0.14868392 -0.05966635 -0.076540664 0.07049225
0.0037801086 0.1485825 -0.03244198 -0.049783725 0.14562775 0.030876458 0.004778187 0.016827177
-0.1340631 0.08482065 -0.0959604 0.12262844 -0.11720154 0.08409543 -0.107324965 0.1472467
0.061313696 -0.07559419 -0.05153092 0.12297591 -0.037619222 -0.03646803 0.08964371 0.05377654
0.07369967 0.08482714 -0.14523703 -0.018234156 -0.07672374 -0.014755052 -0.16498594 0.085739665
0.003195622 0.16470143 0.16783775 0.07403519 0.040704954 -0.091652505 0.07093479 -0.10152748
0.11204014 -0.06932408 0.13337928 0.1838878 -0.08138999 0.17363061 0.10245602 -0.09836588
-0.13740763 0.14656796 -0.071021 0.08396267 -0.14370911 0.09115204 0.06650999 0.058526702
0.16363063 0.080500215 0.16883999 0.0073005664 -0.034723602 -0.07087302 -0.046759132 -0.012663414
-0.02691816 -0.13999026 -0.019917665 -0.07150414 0.030525766 0.18040866 -0.08616527 -0.0840575
0.14710934 0.19569533 0.14049909 -0.10157536 0.18581131 0.1342893 0.065506645 -0.06114977
0.14432754 -0.047957335 0.103302054 0.11815354 -0.018000841 -0.006808012 0.032023035 -0.12755783
0.055290755 0.1435405 -0.11413513 0.109249085 0.038058452 -0.0048806323 -0.1123035 -0.1309785
0.024292968 0.046339933 0.043566316 0.17038389 -0.07842937 -0.04450154 0.011976112 -0.08745485
0.07799177 0.066993706 -0.1823268 0.004950649 -0.119579226 0.02546055 0.15097335 -0.14670178
-0.19988674 0.012982526 0.17720301 -0.022175387 0.12564026 -0.08242048 0.040283907 0.08558665
-0.10442273 -0.050486464 0.08102222 -0.08589828 -0.04428564 -0.0067211287 0.052544907 -0.13177319
0.008010939 0.16628243 0.10343059 -0.14029163 -0.12676185 -0.09683195 -0.13315965 0.15614218

bias f4 [32]
00000000: c945 d6bd 89a2 2fbd cdcf 7dbd ae6d 4b3c
00000010: 308a 14be 6efa 78bd 3972 3a3d 4cc2 89bc
00000020: 679f f73c 9fa8 283e 144d 463d 73e4 e4bd
00000030: c4e0 c63d 3c75 52bd caed e53c ea12 0d3e
00000040: a4da 30be 01c8 753b 8c89 29be 9bf1 9cbc
00000050: f399 5abd 6d57 aebd a7e5 ca3d 3de6 8c3d
00000060: a60a f23b 5ac6 903d 1bb9 6a3d bb5f f33d
00000070: 032d aebd bf0a 8dbd 9ffc 06be 0976 e33d
-0.10462529 -0.042879615 -0.061965752 0.012416286 -0.1450584 -0.060785703 0.045519087 -0.01681628
0.030227376 0.16470574 0.04841335 -0.11176386 0.097108394 -0.051381335 0.028067488 0.13776746
-0.17270905 0.0037503245 -0.16556376 -0.019158175 -0.053369474 -0.08512769 0.09907084 0.06879852
0.0073865233 0.070690826 0.057305437 0.118834935 -0.08504679 -0.06886815 -0.13182305 0.11106498

weight f4 [64, 32, 3]
00000000: a914 de3c a98c 06bd 6889 d0bd 1b0b 92bd
00000010: c2bd 3ebd b48a 693d 66d9 a43d af9d 20bd
00000020: a202 953d 74d8 753d e1e9 213c 1c28 933c
00000030: c7b8 1d3c cbac 973c d650 bfbd 0be1 1dbd
00000040: 15d3 d43c 05c2 293d 2a06 a33d 8415 6cb7
00000050: 9ebf e63c c696 5abd 2ed3 f9bd c2ad 213d
00000060: 6b06 af3d 02ab a53d 92b6 b0bd 58d0 98bd
00000070: c903 e33d 950d 583c 769c 243d 62ff aebd
00000080: 088a 1ebd b8af ef3a a9ce 13bc d751 09bd
00000090: 266f f5bc e8d7 2b3d 8a46 a83c 8ff7 a9bd
000000a0: 6212 853d 3146 abbd b3cd 0bbd 53d3 3fbd
000000b0: 4336 b1bc 1b97 483d 17ae 97bd 1042 86bd
000000c0: 3d21 be3d a1e0 21bd 57ca 9bbc 03c0 c9bd
000000d0: 39f9 b1bc 3289 b53d 8b2e c5bd 1d1f bc3d
000000e0: a051 043d a929 663d c417 c0bd a0f6 bcbd
000000f0: 6e60 92bd e82b e03d de0f 01bd e4da 903d
00000100: 8184 06be 617f 0bbd 7e85 7c3d 9251 26bd
00000110: 4011 713d ca50 2fbd 3ed3 ffbc e5fa 563d
00000120: 7681 ab3d 4501 f03d 0f2f 263d 6f79 74bc
00000130: 457a cebc 0a79 f9bc bc63 9f3d ab69 a43d
00000140: f95d 8bbd 155c aa3d 7357 38bc 271b 513c
00000150: 20a0 283d 5c8d 51bc 9744 03bd acdb 88bd
00000160: f551 96bd 3b8f 9bbd 10f1 70bc e233 55bc
00000170: d91b f2bc 6c5c 433d b4d1 1c3c 3ab7 a53b
00000180: 79e0 a2bd 65fe 7a3d 7399 a43b e41b ff3a
00000190: bb59 8c3d d922 a9bd 974f 86bc 965a 4e3d
000001a0: b81d b0ba 165c b43d 0841 0d3e a963 acbd
000001b0: 8f56 8f3d 4fc9 543c e9ee 83bd 675a bfbc
000001c0: f0d9 bcbd ac9c 903b 4e49 0a3d 0984 3a3d
000001d0: aa6c 393d a845 003c 161a 65bd de17 ea3c
000001e0: 0bc8 513b 5552 8d3b 0e13 96bd 22b1 193c
000001f0: a65b 3ebd b96e 89bd d069 0d3d 61a1 afbd
00000200: 2e65 5b3d b63f bbbd eb39 8cbd 6d4a 373b
00000210: 122d 91bd af5f 86bd 7138 7b3d c493 033d
00000220: da25 dcbd 37f8 363c ad9f 57bd 835c af3c
00000230: 8fbb 4fbd 81bf a8bd ae06 413d 8360 2dbd
00000240: 9b81 ae3d 455e 923c 9df9 cb3b bde8 e0bc
00000250: e1f4 c5bd a969 ad3c 3f76 2bbc 9de0 2c3d
00000260: 40db 783d 8160 3a3d 58ba 943e 38a5 303d
00000270: 4171 8abd 0913 3e3e f054 45bd 3259 b93c
00000280: fa42 583d f963 7a3d 7184 96bc db90 b83d
00000290: d26d ec3c 6ef8 97b8 968f 093c 2e73 ac3d
000002a0: 2d5d 793c 9504 7cbd 43be bd3d 858f 2abd
000002b0: 2db4 2f3d c2af cb3d 592e d73c 0649 0c3d
000002c0: 950b 09bd 1c64 f2bb 0ca0 113d abee cfbd
000002d0: c936 a33d 9007 f83c 3660 19bd 210c 2abb
000002e0: c572 483d c1bb c7bd 921f 7dbd cd04 7bbd
000002f0: 5cdc 543d 64b8 9e3d b88b 02be 68f2 3cbd
00000300: 56d0 ff3a 254d aa3c 4908 c93d f4d1 7cbc
00000310: 81ee 89bd 6656 233d 37b8 b73d f87d aebc
00000320: b523 e0bc 6f0c c83d 09bb 0f3d 063e 9dbc
00000330: bddf 153c 5cd6 97bd 7e53 a03d e154 b2bb
00000340: 283d 933b 6ddd 63bc 2875 04bd 7cda 53bd
00000350: 9ad2 96bd 7cf7 86bd 9e63 10bd 6b30 5ebc
00000360: 9ace c33d 0753 3fbd afc5 cf3d cb5f e1bb
00000370: 630b cfbc 629c b93d 4e66 c83d c402 6abd
00000380: 3bcd 4f3d db66 fe3c 0539 b7bd e120 4d3d
00000390: 32ad a4bd d61e f13b 2d78 d2bc ff8e ea3c
000003a0: 59cf fcbc 7573 56bd dfae b2bd 151b 73bd
000003b0: 75df 503d 06ca a0bd 5b97 773d 2975 35bd
000003c0: 31eb 6cbd 888e 32bd da4d ba3d 13d6 eebc
000003d0: 2070 e93c a56d b33d 770c cd3d c001 0d3d
000003e0: 0dbe a93d 5dc4 6a3d bc21 cf3d a103 39bd
000003f0: c7a9 863d a72d 79bd a2ad cdbd 8aa1 b43d
0.02710946 -0.032848988 -0.10182458 -0.071310245 -0.046567686 0.057017043 0.08049278 -0.03921288
0.07275893 0.06002088 0.009882421 0.017963462 0.009626574 0.018515011 -0.0934159 -0.038544696
0.025979558 0.041444797 0.0796016 -1.4071706e-05 0.028167542 -0.053366445 -0.121984825 0.03947235
0.08546146 0.08089258 -0.086285725 -0.074616134 0.11084706 0.013186832 0.040188275 -0.08544804
-0.038705856 0.0018286621 -0.00902144 -0.033525314 -0.029960226 0.04195395 0.020541448 -0.08299171
0.06497647 -0.08362997 -0.034131717 -0.046832394 -0.02163232 0.04897223 -0.07406252 -0.06555569
0.092836834 -0.039520863 -0.019017382 -0.098510765 -0.021725284 0.088640586 -0.09628018 0.09185622
0.032304406 0.056192074 -0.09379533 -0.092267275 -0.07147299 0.109458745 -0.031509273 0.07073
-0.13136484 -0.034057025 0.061650746 -0.040605135 0.05885434 -0.042801656 -0.031228658 0.052485365
0.08374302 0.11718992 0.040572222 -0.01492153 -0.025204787 -0.030453224 0.07782695 0.08027967
-0.06805033 0.083183445 -0.011251318 0.012762821 0.041168332 -0.01279005 -0.032047834 -0.06682524
-0.07339851 -0.075956784 -0.014705911 -0.013012858 -0.029554294 0.047695562 0.0095714815 0.0050572427
-0.07952971 0.061277766 0.0050231754 0.0019463268 0.06853052 -0.082586 -0.016395373 0.05037936
-0.0013436591 0.088066265 0.13794339 -0.08417446 0.069989316 0.012987449 -0.06442053 -0.023358537
-0.09221256 0.004413208 0.033761315 0.045536075 0.045269646 0.007829107 -0.05593308 0.028575834
0.0032010104 0.0043127933 -0.07327853 0.009380611 -0.04647412 -0.06710572 0.03452474 -0.085757025
0.05356329 -0.09143011 -0.068469845 0.0027967945 -0.070886746 -0.06561219 0.061333124 0.032123342
-0.10749407 0.0111675775 -0.052642513 0.021406418 -0.05071598 -0.082396515 0.04712551 -0.04232837
0.08520814 0.017867217 0.0062248246 -0.027454728 -0.096658476 0.021168547 -0.010465204 0.042206395
0.060755968 0.04550219 0.2904842 0.043126315 -0.06759883 0.18561949 -0.048176706 0.02262554
0.05279825 0.061130498 -0.0183737 0.09012004 0.02886096 -7.246515e-05 0.00839605 0.08420406
0.015219969 -0.061527807 0.09264805 -0.041640777 0.04289644 0.099456325 0.026267217 0.034249328
-0.03345831 -0.007397188 0.035553023 -0.10152944 0.07969434 0.030277044 -0.03744527 -0.002594717
0.048937578 -0.09752608 -0.061797686 -0.061283875 0.051967964 0.077500135 -0.12748611 -0.046129614
0.0019517045 0.020788739 0.098160334 -0.015430916 -0.06734944 0.039877318 0.08970683 -0.021300301
-0.027360776 0.097679965 0.03509048 -0.019194614 0.009147582 -0.07413933 0.07828425 -0.0054422473
0.0044933744 -0.0139077725 -0.03233829 -0.051722035 -0.07364388 -0.06590173 -0.035251252 -0.013561348
0.095608905 -0.04671004 0.10145127 -0.0068778745 -0.025273984 0.09063031 0.09785138 -0.057131544
0.050732832 0.031054905 -0.089464225 0.050080184 -0.08040847 0.0073584123 -0.02569207 0.028632639
-0.03086059 -0.052356202 -0.0872476 -0.059352 0.050994355 -0.07851033 0.06044708 -0.044301186
-0.057841484 -0.04359296 0.0909688 -0.029154813 0.028495848 0.087611474 0.10012143 0.034425497
0.082882024 0.057316173 0.10113856 -0.045169476 0.06575351 -0.060834553 -0.100428835 0.08819874

bias f4 [64]
00000000: 6046 d13c c35b 94bd 29ca a8bd 5f67 b83d
00000010: 95a0 86bd d553 ab3c f45c dfbd efe1 003e
00000020: ff65 813d eecf 97bb aaa5 b0bd e09e a63c
00000030: 005c 5abd 8cf4 6f3c 3a30 9f3d 704c fe3c
00000040: 27d0 b2bc 3ad3 12bd b259 2b3d 2740 8f3a
00000050: 76c0 ec3a e301 62bd 23aa 5d3c 5c10 9bbb
00000060: 9ad7 153d bc7b 173d 8164 8fbb c886 ddbd
00000070: 2393 55bd b159 933d d2f7 353d 4db2 183d
00000080: d2ae c53d 032a 8b3c 3557 c2bd d828 3dbc
00000090: b9de 963c 80f0 9e3d b729 c2bd dee3 313d
000000a0: 56ce 5cbd dbe3 dc3c a3cb 57ba 3b0f 1f3b
000000b0: 4a1e 9d3d c4c1 1ebd db0a 91bd 2ce8 703d
000000c0: c9e9 823d 739f c43c d160 aabd 2c5e 863d
000000d0: 1122 a3bd d180 c43c 01e0 61bd d69b 5abd
000000e0: fe78 ab3c 5e8c bbbd 4b02 a6bd 45b5 d23d
000000f0: 9ce2 06bd 6956 1abd 175b 1ebd e921 ad3d
0.025546253 -0.07244065 -0.08241684 0.090040915 -0.06573597 0.020913998 -0.10906401 0.12586187
0.06318282 -0.0046329414 -0.08625348 0.02033943 -0.053310394 0.014645707 0.0777287 0.031042308
-0.02182777 -0.035845973 0.041833587 0.0010929153 0.0018062729 -0.05517758 0.013529333 -0.004732175
0.036582567 0.036983237 -0.0043759947 -0.10816723 -0.052142274 0.07194842 0.044425793 0.037279416
0.09652485 0.016987806 -0.0948929 -0.011545382 0.01841675 0.077607155 -0.09480613 0.0434302
-0.053907715 0.026964119 -0.00082319434 0.0024270553 0.07671793 -0.038759008 -0.07082149 0.058815166
0.06392247 0.024001813 -0.083192475 0.065609306 -0.07965482 0.023987206 -0.055145267 -0.053371273
0.020931717 -0.09157632 -0.08105906 0.10288481 -0.032930955 -0.037680063 -0.03866109 0.084537335
